data/results/GAT/balanced/1/all_emo/607/full_model.pth (torch, 31215 bytes, 6 tensors)

att_src f4 [1, 13, 13]
000000 1c d5 1c 3d ae 4a 81 3e ea 0e 9a 3e 88 4d 99 be
       0.038289174 0.2525229 0.30089504 -0.29941964
000010 33 90 d4 3e cb 82 88 3e fa 75 d6 bd db 8d de 3e
       0.41516265 0.26662287 -0.10471721 0.43467602
000020 6c 7b 88 3a 53 2b ac 3e e1 51 d3 be 25 c7 dc 3e
       0.0010412759 0.33626804 -0.41273406 0.43120685
000030 df f5 d7 3e 67 c1 a2 be a9 98 d1 be 7c 95 ed bd
       0.42179772 -0.3178818 -0.40936783 -0.116007775
000040 a1 e0 8a be cc 54 d6 3d 29 6b 68 3e 22 6e 9e bd
       -0.27124503 0.104653925 0.22697128 -0.0773585
000050 b1 2f a2 3e 84 69 5f 3c 3c 01 1a be 39 ed df be
       0.3167701 0.013635997 -0.15039533 -0.43735674
000060 6d 2a 03 3e be 97 ed be 3b ad 87 ba 74 99 af 3d
       0.12809153 -0.46404833 -0.0010351309 0.08574191
000070 d8 a8 87 be f3 06 1c 3e 56 30 9b 3d d1 e4 9e 3e
       -0.26496005 0.15237026 0.07577579 0.31033948
000080 dc 6d 9e 3e 01 9b cb be 79 f6 a3 be e5 00 35 be
       0.3094319 -0.39766696 -0.3202398 -0.17676122
000090 c3 ee b5 be 69 d9 21 3e 6c ed a3 be 80 0d b8 be
       -0.35533723 0.15805592 -0.32017076 -0.359478
0000a0 d2 e9 1b 3e 50 7a 92 3e f5 19 1c be c6 c8 eb be
       0.15225914 0.28608942 -0.15244277 -0.46051615
0000b0 af d5 ab 3d 2b 81 69 3e 84 61 ba 3e 7b fe 86 3d
       0.08390366 0.2280318 0.36402524 0.06591507
0000c0 9d a0 b5 3e db 76 d6 be 7c 2b df 3e f5 e0 a9 be
       0.354741 -0.41887555 0.43587863 -0.3317944
0000d0 1d 12 af be 8e bc b3 3e e9 b4 91 bd 80 f7 91 3e
       -0.34193507 0.35104793 -0.07114584 0.2850914
0000e0 84 d3 aa be 3e a7 b2 3e b6 ba e4 3e 47 18 14 3e
       -0.333645 0.3489322 0.446737 0.14462386
0000f0 d1 86 c8 3e ae ca ad be 78 ac d8 bd de da 1c 3e
       0.39165357 -0.33943695 -0.10579771 0.15317866
000100 e3 16 91 3e fd 91 82 be 19 a4 9d 3e 93 b2 4c be
       0.28337774 -0.25502005 0.3078926 -0.19989996
000110 fe 93 87 be 30 32 8e 3d a7 5f c1 be 9a 11 b8 be
       -0.26480097 0.06943166 -0.3776829 -0.3595093
000120 73 aa 2e 3e cf 2f 24 3e ad b4 3f 3e 02 a0 8a bd
       0.17057209 0.16033863 0.18721266 -0.067688
000130 e9 6b ab be d7 2b d3 be 0d bb e1 3e ab 79 e5 be
       -0.33480766 -0.41244385 0.4408802 -0.44819388
000140 2d 87 25 3e 06 02 bb 3e 5c 52 b7 3e b3 29 91 be
       0.16164847 0.3652498 0.35805023 -0.28352126
000150 fa f1 01 be 4d b3 ce be 51 79 a9 3e f3 c3 f2 be
       -0.12689963 -0.4037117 0.3310037 -0.47415122
000160 9d ba d2 be 93 31 a7 be 4b cd c5 3e f0 d5 a1 3e
       -0.41158 -0.3265501 0.3863319 0.31608534
000170 35 2d ab 3e d6 21 b9 3e 53 a6 57 be d9 8e 95 be
       0.33432928 0.36158627 -0.21059541 -0.29210547
000180 0d 6e 96 be 04 39 30 3e 8f 1a 21 3e 96 49 e7 3d
       -0.29380837 0.1720925 0.15732788 0.11293332
000190 94 16 ba be 1a 60 29 3d 5d ff 61 be c4 c5 ba bd
       -0.3634535 0.041351415 -0.2207007 -0.09119752
0001a0 2f 76 c6 bd f1 72 87 3c 58 90 cd be af 6c d0 3e
       -0.096905105 0.0165343 -0.40149188 0.4070792
0001b0 87 8f 5b be 46 08 14 3e 79 c2 9e 3e 28 f0 47 3e
       -0.2144147 0.14456281 0.31007746 0.19525206
0001c0 43 ad a9 3e 2f 1b 8b 3e 51 d9 a6 3e e6 52 c4 3d
       0.3314 0.27169177 0.32587674 0.09586124
0001d0 0b 7b 96 3e a6 fc 4a be ca a0 81 be 61 33 6f 3e
       0.2939075 -0.1982294 -0.25317985 0.23359443
0001e0 24 b5 d3 3d b8 55 dd bc b8 76 dc be 50 66 26 3e
       0.10337284 -0.027018413 -0.43059325 0.16249967
0001f0 23 ae 90 3e 8f 33 46 bd 49 a9 b1 3d c5 81 50 3e
       0.28257856 -0.048389014 0.08674867 0.20362003
000200 aa 28 e8 be c1 85 d3 bd 24 dd 3e be 8f 1c 66 be
       -0.45343524 -0.10328246 -0.18639046 -0.22471832
000210 48 aa 8e 3e 4a f2 00 3f 1f 8a 6e 3d bc c3 9e 3e
       0.2786429 0.50369704 0.05823719 0.31008708
000220 00 b2 af be b2 b3 8a 3d 72 38 ad bd 24 b7 91 be
       -0.3431549 0.067725554 -0.08458032 -0.28460038
000230 34 32 b2 3d d3 97 1f 3e cf 77 2c bd 85 a5 5f 3e
       0.08700982 0.1558526 -0.042106446 0.21840484
000240 ff 55 7f 3e 23 3b e2 3e 4b 77 5d 3c a7 cc 3f 3b
       0.24935149 0.44185743 0.013517211 0.002926627
000250 68 1f 76 3b c7 b2 8c 3d b6 e5 a1 be fb 84 66 bd
       0.003755534 0.068700366 -0.31620568 -0.056279164
000260 7a 31 c3 be ff 7f a9 be 5c 47 c6 be 5c b5 92 3e
       -0.38123685 -0.33105466 -0.38726318 0.2865399
000270 bd 72 8a be c4 36 f1 bc 3b 32 16 3d 41 32 d0 3e
       -0.27040663 -0.02944506 0.036668997 0.4066334
000280 11 6b 42 3e e5 87 b0 be c5 32 ec 3e 48 58 de be
       0.18986155 -0.3447868 0.46132484 -0.43426728
000290 3f d2 58 3d d2 4a ee 3e b3 de d7 3e da 24 fa bd
       0.05293488 0.46541458 0.42162094 -0.1221406
0002a0 82 9f ad be
       -0.33910757

att_dst f4 [1, 13, 13]
000000 52 67 78 3e b5 91 db 3e 36 b0 79 be 7d 4d ef bd
       0.24258164 0.42884603 -0.24383625 -0.116847016
000010 58 84 93 be 48 79 12 3e 21 f2 24 3e 00 20 90 3e
       -0.28811908 0.14304078 0.1610799 0.28149414
000020 f2 1d 4b be 60 bb e9 be dd 70 78 be 1c 91 a2 be
       -0.19835642 -0.45650768 -0.24261804 -0.31751335
000030 b8 00 02 be d8 11 d0 3d b6 61 e7 be 3a c8 6b bd
       -0.12695587 0.101596534 -0.45191735 -0.057563998
000040 c5 23 01 bf 6f 75 a3 be 31 75 d4 be 32 4a f1 bd
       -0.50445205 -0.31925532 -0.4149566 -0.1178173
000050 91 e2 a9 be aa 3a 1c 3e 04 c2 c8 3e 5b bf e5 3e
       -0.3318067 0.15256754 0.39210522 0.44872555
000060 27 21 3b 3e c9 d4 bc 3d 51 6c f9 bd 28 a5 85 3e
       0.18274365 0.09220273 -0.12178863 0.26102567
000070 9e 8c aa be b5 9a 95 3e f1 0b e6 be e4 a0 cb be
       -0.33310407 0.29219595 -0.44930986 -0.39771187
000080 82 a8 1d 3e 30 e9 3e be eb ac ce 3d f4 c5 bc 3e
       0.15396312 -0.18643641 0.10091575 0.36869776
000090 4c e5 25 3e f5 8f 00 3f b8 c7 75 be ee f7 bc be
       0.16200751 0.5021966 -0.24001968 -0.36907905
0000a0 02 bf 55 3d b9 32 5b bd 20 b0 aa be a1 10 05 be
       0.052184112 -0.05351517 -0.33337498 -0.12994625
0000b0 24 c7 08 3f 95 34 7d be ec 2e 2b 3e b2 30 b0 3e
       0.53428864 -0.2472709 0.16717118 0.34412152
0000c0 fc 27 c8 3e 0f 8e 5f 3e ae 48 bc bd 48 26 0d 3e
       0.39093006 0.21831535 -0.0919355 0.13784134
0000d0 eb 8d c1 be 46 ee 41 be b1 67 0f 3f b2 00 ce 3e
       -0.37803587 -0.1893855 0.56017596 0.40234905
0000e0 38 4c fd be 6e e5 e6 3e 0d 0f bf 3d 68 da 92 3e
       -0.49472213 0.45096916 0.093290426 0.28682256
0000f0 72 ba 1c 3f 55 6a 16 3d b8 b1 5d be a7 13 d6 3e
       0.6122199 0.0367225 -0.21649826 0.4181187
000100 0a 69 81 3c 8d 94 0a be 1d cd 2d be 40 04 08 3f
       0.015797157 -0.1353323 -0.16972776 0.53131485
000110 43 9c 8d 3e e3 82 b4 bd f2 1d 9a 3c 6b f4 eb bb
       0.2765828 -0.08814027 0.018813107 -0.0072007678
000120 7a de a6 be dc cc da 3d 27 a8 cc be e2 ee b4 3b
       -0.3259161 0.10683605 -0.3997204 0.005521641
000130 8a 71 e8 bd 3d db 2e be 9c 45 cd 3e d1 c7 44 3d
       -0.11349781 -0.1707582 0.4009217 0.048042122
000140 f4 e8 56 3e 3d a0 ce be 52 86 11 3e d1 fb 45 3e
       0.20987302 -0.40356627 0.14211395 0.19334342
000150 73 2a a6 3e 75 da 64 be 1a f1 c1 bc 2b 40 f4 be
       0.3245426 -0.2234896 -0.023674536 -0.47705206
000160 da 43 b1 3e ea 5c 77 3e 3b a3 9b 3e 4e 3d 8c 3e
       0.3462208 0.24156538 0.30397972 0.27390522
000170 2a 44 a6 3e 11 11 db 3e e6 f2 56 3e b5 52 63 3e
       0.3247388 0.42786458 0.20991096 0.22199519
000180 3a e7 46 3e 98 11 8b be 2c a6 14 3e d9 c8 10 3e
       0.19424143 -0.2716186 0.14516515 0.14139117
000190 1f 3e c7 be f0 61 4b be 35 e4 9f be 94 9e b0 be
       -0.38914582 -0.19861579 -0.31228796 -0.34495986
0001a0 07 db f6 3e d8 a0 08 3f c4 af 53 be 3e f3 81 3e
       0.4821398 0.5337043 -0.20672518 0.25380892
0001b0 c5 fb 7f be 7b bc 8d 3e e3 e1 36 3d 7d 67 c5 be
       -0.24998386 0.27682862 0.044649016 -0.38555518
0001c0 1a fc 0b be ee 62 11 3f 7c 86 2e 3e 00 3b cc be
       -0.13670388 0.5679158 0.17043489 -0.39888763
0001d0 84 c0 41 3e f2 0e 20 bf 78 a1 6c 3d 65 9b d3 3e
       0.18921095 -0.62522805 0.057771176 0.41329494
0001e0 cf b7 d4 3d 47 d9 21 3e d9 35 04 bf 2c e8 e6 bd
       0.10386621 0.15805541 -0.51644665 -0.11274752
0001f0 08 2d ad 3e a0 6f d7 be 5a c8 2b be 72 ab d9 3e
       0.3382342 -0.4207735 -0.16775647 0.42513615
000200 59 20 62 3e cc e8 1a 3e 40 ed 04 bf a9 5e a6 3e
       0.22082652 0.15127867 -0.51924515 0.32494095
000210 74 37 dd bc db 95 18 3d 89 95 c9 3e 7c e3 e5 be
       -0.027003981 0.03725229 0.393719 -0.4490012
000220 ea 72 59 3e 6a f1 f4 be bd 8c cb 3e 24 2f e3 3d
       0.21235242 -0.47840434 0.39755812 0.11092976
000230 d9 da c5 3d 42 40 2a be 6d bf 7c 3e c6 f5 cf be
       0.096608825 -0.16626075 0.24682398 -0.40617198
000240 93 fa 11 bd dc e5 10 3f 59 24 a7 be 8a 25 10 bd
       -0.035639357 0.5660074 -0.3264492 -0.03519205
000250 c8 52 2a 3e 80 a8 59 3e ab 0d 22 be 28 03 04 3f
       0.16633141 0.21255684 -0.15825526 0.51567316
000260 15 bf 8c be 41 dc f8 3d c0 8c cb 3e cd 0a 16 be
       -0.27489534 0.12151385 0.3975582 -0.14652558
000270 f6 b0 eb 3e 54 8f dc 3e 7f 8e 6c 3e 95 66 1c be
       0.46033448 0.430781 0.23101233 -0.15273507
000280 7c 8d 04 3f 94 f4 c6 be a5 c2 65 3d 25 b5 a6 3d
       0.5177839 -0.38858473 0.05609383 0.08140019
000290 60 c7 fc 3e 9c fd e4 be 33 84 23 3d 6f 7c 4b be
       0.4937086 -0.4472474 0.039920997 -0.19871686
0002a0 51 51 78 3e
       0.2424977

bias f4 [13]
000000 eb e3 fc 39 14 94 02 bc 07 66 50 3b d9 9f 1d bd
       0.00048234998 -0.007969875 0.0031799094 -0.03848252
000010 1f 28 c3 bc 51 cb 8b 3c 0f 2d 92 3c 02 39 d4 bc
       -0.023822842 0.017064722 0.017843751 -0.02590609
000020 4c 26 92 3b 37 f3 1a bc 9f 0a 0d bd 10 0f 18 bc
       0.0044601317 -0.009457401 -0.034433957 -0.009280935
000030 20 ce cc bc
       -0.025000632

weight f4 [169, 11]
000000 02 0b 06 3e ef 9d b8 3d e2 fc 0e be 10 7a 69 3d
       0.13090137 0.090144984 -0.13963655 0.057001173
000010 af 9b d6 3d b3 29 3c be 9a 17 18 3e 4a 3a 1e 3c
       0.10478913 -0.18375282 0.14852753 0.009657452
000020 4a 62 66 bc 91 65 06 3e 59 1e e9 3d 99 9a 53 3d
       -0.01406152 0.13124682 0.113827415 0.051661108
000030 12 5c 04 3e a8 7d 33 3d 40 69 73 3c 7a 66 03 be
       0.12925747 0.043821007 0.0148566365 -0.1283206
000040 09 fa 3a 3d 45 30 08 be d6 e7 3c 3d 43 f5 56 3c
       0.04564861 -0.13299663 0.046119533 0.013119998
000050 91 59 a9 3c 02 52 8b bd a4 d7 06 be 18 ea 0b 3e
       0.020672591 -0.06802751 -0.13168198 0.13663518
000060 0e 04 65 3d 5a 7c 88 3d d4 c1 76 bd 9a af 5a bd
       0.05591207 0.06664343 -0.060243443 -0.053390123
000070 54 ef 98 bd c3 87 b8 3d 92 e0 cd bd 46 a8 e1 3d
       -0.07467523 0.090102695 -0.10052599 0.11018424
000080 37 d3 17 3e 6b 40 22 be 73 86 73 bc 70 22 d5 bc
       0.14826666 -0.15844886 -0.014863598 -0.026017398
000090 98 67 d0 bd b4 1e 99 3d d5 a9 ee bc d6 bc 15 3e
       -0.10176009 0.07476559 -0.029133717 0.14622816
0000a0 d4 a7 ec bd 98 95 c4 3d f6 ca 25 be 4a bf a3 bd
       -0.11555448 0.09598845 -0.16190705 -0.0799547
0000b0 33 b6 a6 3c 53 ae 15 3e e2 0d a0 3d 65 89 21 be
       0.020350551 0.1461728 0.07815148 -0.15775068
0000c0 a1 38 e6 3c ad 16 8b bd 7a bc 87 3d 7c 00 d9 bd
       0.028103175 -0.067914344 0.06627746 -0.105957955
0000d0 46 5b 4e bc 60 89 29 3e 2a 54 d1 bd 8a cb 1e be
       -0.0125950035 0.1655631 -0.10221131 -0.15507331
0000e0 50 da 57 3d 53 bb a3 3c 04 59 1d bd 7a 66 19 3e
       0.052698433 0.019986784 -0.03841497 0.14980498
0000f0 ed 02 a6 bd 0b 46 a1 bd 84 34 e5 bd f2 3d 0f bd
       -0.08106027 -0.07874688 -0.11191657 -0.034971185
000100 b9 c2 2f bd 19 2b c9 3d 63 75 c4 3c f3 6d 76 3d
       -0.04291031 0.09822673 0.023981756 0.06016345
000110 65 b5 83 bd c0 a8 08 3e 60 23 1f 3e 4b 9a e8 bd
       -0.06431083 0.13345623 0.15540838 -0.11357554
000120 0d 00 cf 3c c4 c2 9a bd cb a8 f1 3d ba f1 06 be
       0.025268579 -0.0755668 0.11799773 -0.13178149
000130 8c 37 a6 bd d1 97 26 3e 39 8c 2f be 48 5d eb 3d
       -0.081160635 0.16268851 -0.17143334 0.11492401
000140 be fa 8a 3c 3c 5b 2a 3e 60 bd 73 bd 2a aa 1e 3e
       0.016965266 0.16636366 -0.059506774 0.154946
000150 7f d4 83 3d c6 b2 41 3d b2 48 24 3e 58 83 ca bd
       0.06437015 0.047289632 0.16043356 -0.09888333
000160 57 a3 db bd 94 92 2f 3e 23 be b4 bd f5 bb e1 bd
       -0.10724514 0.17145759 -0.08825328 -0.11022178
000170 54 17 9d 3b fc fc 10 bc ac b3 d9 3c 57 2a 53 bd
       0.0047940407 -0.008849379 0.026574932 -0.05155405
000180 b7 94 df 3d 5a 09 ed bd 79 90 59 3c f7 88 b9 3d
       0.10917037 -0.11574049 0.013279074 0.09059327
000190 01 f6 73 3d 59 03 09 3d ff a4 5e 3d 62 db 3d bd
       0.05956078 0.03345046 0.05435657 -0.046351798
0001a0 d5 27 7e bc b0 ea 16 bd 40 33 99 bd ec 32 e9 bc
       -0.015512426 -0.03684491 -0.07480478 -0.028466664
0001b0 96 c9 68 3e 7b 1d 14 3d 85 da 8f 3c 58 48 a5 3d
       0.22733149 0.036160927 0.017560253 0.08070439
0001c0 1c 60 61 bd 94 de 06 be d9 46 09 be b5 6d 9f bd
       -0.055023298 -0.13170844 -0.13405932 -0.07784597
0001d0 74 5e 31 3d 01 06 3b be 22 7e 5f bd 86 4b fe 3c
       0.04330297 -0.18264009 -0.05456365 0.031041872
0001e0 4b a5 cf 3d 57 12 d2 3c 67 b9 3b 3d 75 56 e5 3d
       0.10138949 0.02564351 0.04583111 0.11198131
0001f0 2a 38 c7 3d 60 06 b1 3d b6 15 18 bd 85 76 06 be
       0.09727509 0.08643794 -0.03713008 -0.13131149
000200 5f 39 e0 bc 73 8b eb bc 81 ef 31 3d 2a 70 ef 3c
       -0.027371107 -0.028753018 0.0434413 0.029228289
000210 11 82 93 3d d0 6a 05 3e 1c df 4a bd 1f 53 f4 bd
       0.072025426 0.13029027 -0.04952918 -0.119299166
000220 a4 28 5c bd 9f 4b 6b bd 92 8b 01 3e b8 d1 a3 bd
       -0.053749695 -0.057445165 0.12650898 -0.07998985
000230 c8 f5 a6 3c 3b d5 e6 3b 99 52 39 bd 9a e6 b3 3d
       0.02038087 0.007044462 -0.045244787 0.08784218
000240 97 95 22 bd 22 d0 97 3c 55 3b be bd 9e 8d 3b bc
       -0.03969344 0.018531863 -0.092886604 -0.011447338
000250 82 29 76 3c f4 f6 61 bc ff 61 79 bd 2c 91 6b 3d
       0.015024545 -0.013791788 -0.060884472 0.057511494
000260 d5 b7 41 bc cf c2 a6 bd c9 35 1e be e4 22 1c bd
       -0.011823614 -0.081426255 -0.15450205 -0.03811921
000270 f1 63 18 be 4f 3f 2a 3e 59 0c 98 bd f0 88 ad bd
       -0.14881875 0.16625713 -0.0742423 -0.084733844
000280 b4 c3 1b bc 17 a6 35 3d cc de 0f bd 76 31 09 3e
       -0.0095071085 0.04434785 -0.035124585 0.13397774
000290 20 11 f0 bd 97 d2 86 3d 2f 4c 2a 3d 63 eb b6 bd
       -0.11722016 0.065831356 0.04157656 -0.08931615
0002a0 5f 92 55 bd 40 49 1c 3d bb 32 45 3c 3a bb e3 3d
       -0.052141543 0.038155794 0.012036021 0.11119695
0002b0 30 ee d4 3d bf 96 d9 bd 1c b6 a4 bd ff 3a 6a bd
       0.10396993 -0.10624456 -0.08042547 -0.05718517
0002c0 dd ed e3 bd 9d 2a 16 bd 52 ec 0c be dc c5 81 3d
       -0.11129353 -0.036661733 -0.13762024 0.06336567
0002d0 66 9f ef 3d 5b 15 4b 3d 96 80 d9 bd cb ee 9b bd
       0.11700325 0.049580913 -0.10620229 -0.076139055
0002e0 c0 78 ea bc a5 ae b4 3d 01 f7 06 3d e8 73 11 bd
       -0.028622031 0.08822373 0.032950405 -0.035510927
0002f0 72 d0 12 3e e1 0c 9b 3c 0a 5a 9e bc 10 a5 20 bd
       0.14337328 0.01892704 -0.019330043 -0.039219916
000300 d2 19 1c 3d 06 2d 83 3d 0d e0 18 be 48 80 ab bd
       0.03811056 0.06405072 -0.14929219 -0.08374077
000310 dc eb 2e 3c 40 1f b3 3d 38 32 bc 3d 3e 86 dd bd
       0.01067635 0.08746195 0.09189266 -0.1081662
000320 bc ac 4e be e8 1e c8 bc fd 4b 7e bc ce 45 fc 3b
       -0.2018308 -0.0244288 -0.015521047 0.007698751
000330 9f 4c 92 bd fe a9 c7 3d d0 5c ad bc 28 8c f6 3d
       -0.071435206 0.0974922 -0.02116242 0.120384514
000340 fc 8d 05 be e0 2b c0 3d dd cf dc 3c c7 11 ed bd
       -0.13042444 0.093833685 0.026954586 -0.115756564
000350 d2 41 58 3d fd 8e 1e be 35 60 11 3e fb 88 ed 3c
       0.052797146 -0.15484233 0.14196856 0.028995981
000360 29 1d 30 3d 96 a7 a0 3d 91 f8 4d 3c b3 89 9d 3d
       0.04299656 0.078444645 0.01257147 0.0769228
000370 f0 be 77 3d a1 29 24 be 62 f7 9f 3d 94 ca 5d bd
       0.060484827 -0.16031505 0.078108564 -0.05414827
000380 4f 72 5b bd df 90 00 bc 7c bd e8 3d 48 19 03 be
       -0.05357581 -0.00784704 0.11364266 -0.12802613
000390 71 9e e7 bd 15 12 ec 3d 15 4b 8f bd 8b a6 e9 3d
       -0.11309517 0.115268864 -0.06996743 0.11408719
0003a0 fc 8c 3b bd 0c 9b 1a 3d 21 ac f4 3d 46 5d 3d bd
       -0.04578875 0.03774552 0.119468935 -0.04623153
0003b0 bd e1 43 bd 47 0a 09 3e 8a 1a 4a 3d db d7 6c bc
       -0.047822703 0.13382827 0.049341716 -0.014455761
0003c0 67 46 1d be 65 56 36 3e 3c 04 40 bd 98 02 f2 3b
       -0.15358888 0.17806394 -0.04687904 0.007385563
0003d0 73 ec 8e bd fb f2 b3 bc 03 e9 7b 3d 5c e1 a6 3b
       -0.06978693 -0.021966448 0.061501514 0.005092783
0003e0 f6 7a 36 3e da 0f ad 3c a6 5c 37 3d bd 08 0b 3e
       0.17820343 0.021125723 0.04476609 0.13577552
0003f0 bc 1e 4c 3b 53 00 62 bd b8 e0 47 3d 0a 9f 24 3e
       0.0031146249 -0.05517609 0.048798293 0.16076294

weight f4 [13, 13]
000000 cd eb 05 3e 6f bb 33 be 9e a7 34 bd 54 80 0c 3e
       0.13078232 -0.17551969 -0.044105165 0.13720828
000010 bf b2 0b 3e fe 89 34 3e 77 11 41 3d a8 0a 46 3c
       0.13642405 0.17630765 0.047135796 0.012087502
000020 dc ee 9c 3d e3 b2 2f be 0c c1 28 3e 1b 7c 00 be
       0.07662746 -0.17158084 0.16479892 -0.12547342
000030 d8 94 15 3e 27 f7 08 3e ce 46 28 bc cc 45 35 3e
       0.1460756 0.13375531 -0.010270787 0.17702407
000040 c3 0b e4 bd b3 55 05 3e 32 00 af 3d b4 8f ff bc
       -0.11135056 0.13020973 0.08544959 -0.031196453
000050 cd 28 31 3c 40 81 10 be ba ef 8c bd f8 2f 29 3d
       0.01081295 -0.14111805 -0.06881662 0.041305512
000060 13 06 a8 3d 56 e1 f8 bd af 48 09 3d 72 41 cd bd
       0.082042836 -0.121523544 0.033516582 -0.10022248
000070 ac 1f 08 3e 88 29 14 be d7 e7 8f 3c f1 e5 59 bc
       0.13293332 -0.14468968 0.017566605 -0.013299451
000080 ac 7b 49 bd 74 68 b8 bd 94 3d 2e be 5d be 8a 3d
       -0.04919021 -0.09004298 -0.17015678 0.0677459
000090 1d 84 82 bd e1 05 44 3d 6a 93 a0 bd 97 39 e9 3c
       -0.06372855 0.04785717 -0.07840617 0.028469844
0000a0 25 df c0 bd c4 eb f8 3d 58 47 a3 3d 1d a3 06 3e
       -0.094175614 0.12154344 0.07972592 0.1314816
0000b0 42 8c 18 bd 94 9d ff 3d 7f e3 e2 bd 99 7e dd 3d
       -0.037243135 0.124812275 -0.11078548 0.10815162
0000c0 48 39 a4 bd 46 5f c3 bd 04 af 29 be 53 7a 49 be
       -0.08018738 -0.09539656 -0.1657067 -0.19675569
0000d0 2d c2 96 3d 2a c3 01 be 20 b9 fd bd 05 19 88 3e
       0.07361255 -0.12672105 -0.123888254 0.26581588
0000e0 e8 09 31 bd 2c b5 86 3d dd 39 d7 bd a4 6d e5 3d
       -0.043222338 0.065775245 -0.105090834 0.11202553
0000f0 b2 db 31 3d 81 4e 30 3e d1 ad ae 3d d3 f2 c2 bd
       0.04342241 0.17217447 0.085292466 -0.09518971
000100 90 b4 6b 3e 83 5c e5 3c 13 8d 11 be 53 b8 9f 3d
       0.23018098 0.027998215 -0.14213972 0.07798829
000110 03 e7 cc bc 18 8f 24 be e0 7b 34 bd ae ca 93 bc
       -0.025012499 -0.16070211 -0.04406345 -0.018040981
000120 0a bb 22 be a6 bd da bc 3a c7 f1 bd 33 bd b4 bd
       -0.15891662 -0.02670176 -0.118055776 -0.088251494
000130 e8 21 3a 3d dc db d7 3d 16 3a 36 bd 82 59 39 be
       0.04544249 0.10539982 -0.04448899 -0.18100551
000140 34 2f 6e bd 4e 7f 10 bd 4a 5b 52 bd 39 66 e2 bd
       -0.058150485 -0.035277657 -0.05135659 -0.11054654
000150 6a 90 bc 3d cf 8c 09 be f5 2a 26 3e 44 e9 ac bc
       0.09207232 -0.1343262 0.16227324 -0.021107323
000160 70 a5 a8 bd 51 6b a3 bd 0b fb 0b 3d fa 2c ec 3d
       -0.0823468 -0.07979453 0.03417496 0.11532016
000170 66 7e da bd a2 72 56 3d c7 f4 ac 3d da 26 83 bd
       -0.1066864 0.052355416 0.08445125 -0.06403895
000180 89 16 c6 bd bd 1e b7 bc a5 24 6b bd 32 a9 dc bc
       -0.09672267 -0.022353524 -0.057407994 -0.026936147
000190 7c ad f5 bd de fa 1a be 64 74 88 3d e8 5e 1a 3e
       -0.1199598 -0.1513476 0.06662825 0.15075266
0001a0 e9 71 8f 3d 89 c6 31 bd f5 65 c8 3d 82 bb f9 bd
       0.070041485 -0.04340223 0.09785072 -0.121939674
0001b0 aa 40 05 3e 56 62 eb 3d 92 b1 09 3e a2 a7 35 bd
       0.13012949 0.114933655 0.13446644 -0.04434932
0001c0 f7 6f 08 3e 15 7f 2e be 37 51 d5 bc bb 74 a8 bd
       0.13323961 -0.17040665 -0.026039703 -0.082253896
0001d0 b3 ee 77 be b8 14 44 bd ab b2 35 be 8d 5e d5 bb
       -0.2421215 -0.04787132 -0.17743938 -0.0065115155
0001e0 cb ea b7 bb f4 13 dc 3d bd 87 f3 bd 1d d7 0b 3e
       -0.0056127063 0.10745993 -0.118911244 0.13656278
0001f0 ea 1f 0d bd ca 6c df 3d 95 9f e1 3d 15 4b f9 bd
       -0.034454264 0.10909422 0.11016766 -0.12172524
000200 aa 90 23 be 9b 5d 99 3d 67 49 00 3e 6d 26 e9 bd
       -0.15973154 0.07488557 0.12528001 -0.11384282
000210 a6 41 7f 3d c9 13 17 be 4c 63 41 3e 90 34 eb 3d
       0.062318467 -0.14753641 0.18885535 0.11484635
000220 27 5c 22 3e 67 e5 ae 3c 9e 9d 91 3c e8 b0 81 3d
       0.15855466 0.021349622 0.017775353 0.0633257
000230 42 6d b5 bd 98 69 82 3c dc 56 f3 bd cf c5 3c bc
       -0.0885873 0.015919492 -0.118818015 -0.011521771
000240 82 94 d8 bd 9e ba ca 3d 79 86 a8 bc a5 79 69 bd
       -0.105752006 0.09898876 -0.020571934 -0.057000775
000250 f6 15 c3 3c b6 66 95 3d 0b ec a3 bd dd 32 f1 3d
       0.023814183 0.07294981 -0.08004006 0.117772795
000260 26 eb 1d be 5b c8 39 bd e9 16 09 be 12 6d 03 be
       -0.15421733 -0.04535709 -0.13387646 -0.12834576
000270 ee 96 f6 ba e9 b5 bc 3d d8 3b 62 3e ed 0f 53 b9
       -0.0018813291 0.09214384 0.22093141 -0.00020128461
000280 2b b4 24 3e 73 74 3a bd 4b e4 06 3e 9f 66 99 3d
       0.16084354 -0.04552121 0.13173024 0.074902765
000290 85 01 d7 bd 07 19 38 be 40 c9 16 3d 47 98 cb bb
       -0.10498337 -0.17978297 0.03681302 -0.0062132212
0002a0 67 25 3c be
       -0.18373643

bias f4 [13]
000000 d2 46 ac be 61 e1 8f 3d be f1 04 3d 8d 99 86 bc
       -0.33647782 0.070254095 0.032457106 -0.01643064
000010 38 47 c1 be ab 0c 88 3e 5f 71 43 be 29 55 ba 3d
       -0.37749648 0.26572165 -0.19086216 0.09098274
000020 ea 8c 9d bc 79 54 0b be bc 53 40 3e 9a dc f5 bc
       -0.019232232 -0.13606443 0.18781942 -0.030012418
000030 b9 a2 9a bd
       -0.07550568
