data/results/GAT/all_emo/715/full_model.pth (torch, 29871 bytes, 6 tensors)

att_src f4 [1, 13, 13]
000000 51 e9 9b be b3 d2 a6 3d 3b e2 c8 be 11 94 e0 3e
       -0.30451444 0.081456564 -0.392351 0.43862966
000010 b7 a2 15 3f ac 5e 49 3e f8 c2 d4 bd 62 a7 d2 be
       0.5845141 0.1966502 -0.1038875 -0.41143328
000020 a3 ba 4b 3e 44 60 cc 3e c9 11 87 3e 9c a6 3d 3e
       0.19895415 0.39917195 0.26380756 0.18520588
000030 13 14 2b 3e 93 e8 d5 3e 70 cc c5 3d 75 77 d7 bd
       0.16706876 0.41779003 0.09658134 -0.105208315
000040 5e f8 bf be 67 ae a9 3d 87 9f 14 3e 51 e7 c1 3e
       -0.37494177 0.08285218 0.1451398 0.37871793
000050 ad 47 c1 be 6b 1e bf 3d 56 44 55 be 68 0f 7c be
       -0.37749997 0.09331974 -0.2082685 -0.24615252
000060 cc d4 26 3e 1a a5 2c bf 32 d0 8b 3e 89 1a b4 3e
       0.16292113 -0.67439425 0.27307278 0.35176495
000070 00 eb 23 be 3c 17 4d 3e 15 21 d8 bb 7d e6 13 3a
       -0.16007614 0.20028394 -0.0065957406 0.00056419504
000080 c5 00 6d be 16 ab ca be c4 cb 67 3b 6c d7 72 3e
       -0.23144825 -0.39583653 0.0035369257 0.2371499
000090 c4 fe 8b bd 81 51 91 be de 67 0c bc 75 29 46 bd
       -0.06835702 -0.28382495 -0.008569686 -0.04837938
0000a0 d6 1c fd bd bd 63 8e be 75 90 2d be f9 9b 5f be
       -0.12359016 -0.2781047 -0.16949637 -0.21836843
0000b0 4c 26 00 3c 5d 2e a2 3e 97 e3 51 3d dc a3 2d 3e
       0.007821631 0.31675997 0.051242437 0.16957039
0000c0 5b 91 aa 3d 3c 42 c1 be 0c a1 5b be 22 63 f8 3e
       0.083285056 -0.37745845 -0.21448153 0.48513132
0000d0 bf ad b9 3e e9 01 31 3d 51 20 92 be 50 7f c3 3d
       0.3626537 0.043214712 -0.2854028 0.09545767
0000e0 fc 68 fe be 26 7f 2a 3e 13 21 38 be b4 6e 44 3e
       -0.49689472 0.16650066 -0.17981367 0.19182855
0000f0 68 51 9b be 14 5a e5 bc a5 2c 13 3e 5d 09 d1 3e
       -0.30335546 -0.027997054 0.143725 0.40827456
000100 ec c1 41 be f9 13 78 3e 29 47 c3 bd 06 0c 13 be
       -0.18921632 0.24226369 -0.09535057 -0.14360055
000110 08 01 29 be 6c b1 8c 3d d3 e1 dc 3c f9 26 ed 3d
       -0.165043 0.06869778 0.02696315 0.11579699
000120 1b fa e8 be a3 e0 45 bd b5 fa e8 be 67 50 03 3f
       -0.45503315 -0.048309933 -0.45503774 0.5129456
000130 20 5d 57 bc 4c 05 0f bf 4a 65 82 3d da c7 c7 3d
       -0.013144761 -0.5586746 0.063669756 0.097549155
000140 cc 67 89 3e 02 ea 1c 3e 96 84 91 3e a1 dd 96 be
       0.26837003 0.15323642 0.28421468 -0.29465964
000150 4c 2f d3 3d 2b 08 cc bd 8f 56 d6 3d b9 cb f0 3e
       0.103117555 -0.099624954 0.104657285 0.47030428
000160 f0 76 8c bd 45 20 61 3e 2e a2 a5 3e c5 47 89 be
       -0.06858623 0.21984966 0.32350296 -0.26812568
000170 1b fa 50 3e 2c f9 db bd 1a ce 37 bc 99 21 0f 3e
       0.20407908 -0.10740885 -0.011218572 0.1397766
000180 10 1c 2d be 04 83 67 be 81 4f 04 bf 5a 8d 93 be
       -0.16905236 -0.22608572 -0.51683813 -0.2881878
000190 66 ae 82 be 7e a7 32 bb 7a 29 90 3e ff 05 f5 3d
       -0.2552368 -0.0027260478 0.28156644 0.11964034
0001a0 31 8f 84 3e be 64 94 be dc a7 04 3c 42 40 0a bf
       0.25890496 -0.2898311 0.008096661 -0.540043
0001b0 4d 05 bc bc a6 56 bc 3e 9f 4f ee be 96 01 aa 3e
       -0.022951746 0.36784858 -0.4654512 0.33204335
0001c0 e3 60 96 be 7f 80 ae 3e 79 50 31 be 1f 70 7f 3e
       -0.29370794 0.3408241 -0.17315854 0.24945115
0001d0 4d a4 d9 3e 4e e0 1d be 84 cb 4d be 50 11 52 3e
       0.42508164 -0.15417597 -0.20097166 0.20514417
0001e0 eb 66 e5 be 56 1a 89 3e 61 59 38 be 1b 54 a1 3e
       -0.44805083 0.26777905 -0.18002845 0.3150948
0001f0 e6 23 8c be 1d c0 95 bd 55 b9 09 3f 0a ea 59 be
       -0.27371138 -0.07312033 0.5379842 -0.21280685
000200 40 40 f6 3e 20 d5 8a 3e ae 47 e2 3e 9c c6 a2 be
       0.48095894 0.27115726 0.44195312 -0.31792152
000210 76 18 01 be d3 92 11 be 64 60 a8 3d 4a ff 86 be
       -0.12606987 -0.14216165 0.0822151 -0.26366645
000220 31 85 17 3e 0e f1 d0 3d eb 75 af bd 6e be e2 be
       0.14796902 0.102022275 -0.08567413 -0.4428591
000230 d4 c5 3b 3e 53 85 d7 be 87 6d f5 3e 7a 78 10 be
       0.18337184 -0.42093906 0.47935125 -0.14108458
000240 f8 94 98 3d da 4e 17 3c b4 9a 59 be 8c 30 7c be
       0.074502885 0.009235108 -0.21250421 -0.24627894
000250 3c 1d 8f be 3d 85 0d 3e 52 71 d0 be 7e 2d e6 3e
       -0.27951992 0.13820358 -0.40711457 0.44956583
000260 b0 a3 b9 be f0 e6 96 3e 38 48 8d 3e 36 d2 2c be
       -0.36257696 0.29473066 0.2759416 -0.16877064
000270 67 a0 60 3e 97 16 b0 bd f5 e2 9d be ed 0c 56 3e
       0.21936189 -0.08598059 -0.30837217 0.20903368
000280 c0 fe bc 3d fc 8a 01 3f 46 9b 1f bf 04 67 3b 3f
       0.09228277 0.506027 -0.62346303 0.73204064
000290 eb 47 0a 3e a2 bd dd 3e 1a b4 74 3d 07 5d 25 be
       0.13503997 0.4330874 0.05974207 -0.16148768
0002a0 a4 66 c4 3e
       0.3835956

att_dst f4 [1, 13, 13]
000000 d4 bc 76 3f db 6d d3 be 5a 99 f5 3e 76 d9 c2 3e
       0.9638188 -0.4129475 0.4796856 0.38056535
000010 c8 8a c2 3e 9b de 30 3f ea 0a 0d bd e4 c3 9a 3d
       0.37996507 0.6908967 -0.034434237 0.075568944
000020 8e fc a7 be 91 35 b9 3c 6e 6b 17 3d 43 64 c6 3e
       -0.3280987 0.02260855 0.036967687 0.3874837
000030 b7 90 49 bf 59 6c cf 3d bd 9c 34 bf c3 d9 69 bf
       -0.7873644 0.101280876 -0.70551664 -0.91347903
000040 a3 cd 32 3f b8 49 3f 3d 1d 53 4d be 55 68 24 bf
       0.69845027 0.046701163 -0.20051236 -0.642217
000050 05 7f d9 3e e8 e3 b6 3e 17 ab a3 3e fd 04 fb 3e
       0.4247972 0.35720754 0.3196647 0.49027243
000060 3e 04 5c 3f ad d4 37 3f 95 cf ad be 56 d8 63 bf
       0.85943973 0.7180889 -0.33947435 -0.8900198
000070 38 fa a2 be 14 35 87 bf 2e 40 91 3d 8f 9c 5d bf
       -0.31831527 -1.0563073 0.070923194 -0.86567014
000080 7a d4 0b 3f 1f 88 7e 3f 22 f3 81 be a3 65 ff be
       0.5462109 0.99426454 -0.25380808 -0.4988223
000090 eb 1e 73 3e 58 02 48 3f 6f 80 51 3f f1 d6 9d 3e
       0.23742263 0.78128576 0.818366 0.3082805
0000a0 53 55 07 bd 63 80 a7 3d 85 1f a0 3e 9e d9 56 be
       -0.033040356 0.08178785 0.31274047 -0.20981452
0000b0 ff 45 82 3e 7b 04 a3 3d ee 11 e6 be 1f 7d ec be
       0.25444028 0.07959839 -0.44935554 -0.4618921
0000c0 4b d6 ee be 06 40 90 3e a6 57 89 bd ab d7 97 3e
       -0.46647868 0.28173846 -0.06706171 0.2965673
0000d0 e8 e1 91 bf 65 2d f3 be f8 ab 23 bf 9c 94 e7 be
       -1.1397066 -0.4749557 -0.6393428 -0.45230567
0000e0 5a 93 de 3e 39 38 31 bf a2 63 68 3f 89 9d 8e bf
       0.43471795 -0.69226414 0.9077703 -1.1141826
0000f0 49 8e 46 3f f7 ac 42 3e c2 6a 3b bf 63 51 7e bf
       0.7756086 0.19011293 -0.73209774 -0.99342936
000100 2e 46 30 bf 28 05 17 bf 64 88 17 3e 50 3b 79 bf
       -0.68857086 -0.5899224 0.14798123 -0.9735613
000110 6b f3 29 3f 13 0d 89 bf 9b 97 24 bf e0 e4 6e bf
       0.6638705 -1.0707115 -0.6429383 -0.93317986
000120 a2 0c b2 3f a0 be 6a 3d 82 5e 94 3f de ec 6a bf
       1.3910105 0.0573107 1.1591341 -0.9176768
000130 15 5f 07 bf d4 17 a1 3f 7f 49 34 3e c5 d7 d2 3d
       -0.5287946 1.2585397 0.17606162 0.10295061
000140 20 47 62 bd fc d6 97 3e 5e a3 a2 3e f6 32 2e be
       -0.05524361 0.29656208 0.31765264 -0.17011628
000150 2b 07 cc 3e 6e 3d ec be e8 d5 ab 3e 17 fd d4 3d
       0.3984922 -0.46140617 0.33561635 0.103998356
000160 21 79 99 be d0 d7 12 bf 0e 4a 99 be db 0c 8e 3c
       -0.29975227 -0.57360554 -0.29939312 0.017340114
000170 98 a1 8d be 6d ff cb bd bf 32 8a be 8f 42 58 be
       -0.2766235 -0.09960828 -0.2699184 -0.2111914
000180 6c c3 99 3d 07 5a 15 bf b5 d3 a3 3d d2 14 23 3f
       0.07507977 -0.58340496 0.07999364 0.63703644
000190 fc 8a 4d bf f1 3e 0f 3f 05 af 8e 3e 1b 8b b5 be
       -0.802902 0.55955416 0.27867904 -0.35457692
0001a0 bc 24 5f be 48 00 ea 3e ae 32 31 3e 10 2f 4a 3e
       -0.21791357 0.4570334 0.17304489 0.19744515
0001b0 b7 2d 16 bd d7 31 a8 3d 51 93 99 3e 29 ba 45 bf
       -0.03666469 0.08212631 0.29995206 -0.7723718
0001c0 e3 18 f5 3c e0 00 ff be b7 1c 5e be d9 6b 8e be
       0.029919093 -0.49805355 -0.21690641 -0.27816656
0001d0 13 7f 49 bf 80 a4 f9 3e 91 56 4b bf a1 dd 0a 3f
       -0.78709525 0.48758316 -0.79428965 0.5424443
0001e0 67 9e 54 be d8 99 4f 3e a0 8a d2 be 4f 4b 27 be
       -0.2076355 0.2027353 -0.41121387 -0.16337322
0001f0 6d ac e1 3e 41 04 32 3e da be 0b bf 10 cf dc be
       0.44076863 0.17384435 -0.5458809 -0.43126726
000200 d3 c4 97 3c b5 68 84 be c5 54 f8 3d 76 20 59 3f
       0.01852647 -0.25861135 0.121255435 0.84815156
000210 b7 03 03 bf 08 8b 57 bf b7 88 fe 3d a6 71 43 bf
       -0.51177543 -0.8419652 0.1242842 -0.7634529
000220 e8 54 27 bf 6a ec 95 bf 79 53 38 be 9e 97 42 3f
       -0.6536393 -1.1712773 -0.18000592 0.760126
000230 10 d5 0f 3f 71 a8 49 3e fc 5d a8 bd 4d e1 db be
       0.5618448 0.19693162 -0.08221051 -0.42945328
000240 0a e1 11 3f 00 a7 d4 be 5c 21 13 be cf 7c 3e 3f
       0.5698401 -0.4153366 -0.14368194 0.7440919
000250 e3 eb 78 bd 61 8a 6a bd 9a f5 7e be 75 75 d8 3d
       -0.060771834 -0.057260875 -0.24898377 0.10569278
000260 5a 2c f4 3e d4 75 11 bf 34 28 e2 3d ba 4d be 3e
       0.47690088 -0.56820416 0.110428244 0.37168676
000270 42 de b3 be fb 0d 60 3f e5 f0 40 be ca f8 fb 3e
       -0.35130507 0.8752133 -0.18841894 0.49213248
000280 83 b1 43 3e ca 2e 48 bd 82 47 1f bf f3 bc 11 3f
       0.19110684 -0.048872747 -0.6221849 0.5692894
000290 0c f7 d9 bc a3 77 43 bf 8e ff 7d 3f 49 ba fe bd
       -0.026607059 -0.76354426 0.9921807 -0.12437875
0002a0 5a ff 79 3d
       0.061034538

bias f4 [13]
000000 63 f3 03 be f9 c4 13 3e fa e5 09 be 5d ee 59 bd
       -0.12885813 0.14430608 -0.13466635 -0.053205837
000010 89 94 86 be b2 60 cb 3d 8d ae 53 be 20 e7 20 be
       -0.26285198 0.099305525 -0.20672055 -0.15713167
000020 61 ab ae 3d 6a 48 03 3e 22 bf 80 bd c8 e5 0f be
       0.08528782 0.12820593 -0.06286456 -0.14052498
000030 e4 da 57 bd
       -0.052698985

weight f4 [169, 9]
000000 3a a2 37 3d f8 31 1c 3e d8 c1 f7 3d 28 bd 82 3c
       0.044832446 0.15253437 0.1209752 0.015959337
000010 02 0e b7 bd 36 d9 ab bd ff 13 78 3d 74 de ee 3d
       -0.08938219 -0.08391039 0.060565945 0.11663523
000020 3c c1 81 3d 78 eb cc 3d 81 06 c8 3d 41 d4 db bd
       0.06335685 0.100058496 0.097668655 -0.107338436
000030 56 3f a6 3c cc ca d0 3c 11 6a 67 bd ee fc 59 3d
       0.020293873 0.025487326 -0.056497637 0.05321973
000040 2f f6 91 bb ce f6 fa bc c8 2f f9 3c bf 23 97 39
       -0.004454396 -0.030635264 0.030418292 0.00028827597
000050 16 8e a3 3d 2a 2f 26 3d 0c a0 6b 3d e7 f2 11 bc
       0.07986085 0.040572323 0.05752568 -0.00890801
000060 7b d2 e7 3b 50 30 5e 3d 6a bc 1f 3e 40 fd db bd
       0.007074652 0.054245293 0.15599218 -0.10741663
000070 fc 40 0e be 2a 39 a8 bc 2e f8 cb bc bc fe d2 bc
       -0.13891977 -0.02053507 -0.024898615 -0.025756232
000080 0f a2 9b 3c 4e 61 f1 3c 20 40 08 bd 60 8a 1c be
       0.018998174 0.029465344 -0.03326428 -0.15287161
000090 a3 14 62 bd 7b b4 ee bd d4 33 00 be 28 ea 95 3b
       -0.055195462 -0.11655518 -0.12519771 0.0045750327
0000a0 1f 89 0a 3c bd 6a 5c 3d cd f0 d5 bd 9e f9 af bd
       0.008455544 0.05381273 -0.1044632 -0.085925326
0000b0 ba af ea bd 23 a7 db bd 3c 6b 66 bc 33 50 2d 3b
       -0.114592984 -0.10725238 -0.014063653 0.0026445508
0000c0 c3 df 40 bc 2b f8 86 3d 7c ee 72 3d 64 20 85 bd
       -0.011772099 0.06590303 0.059309468 -0.06500319
0000d0 d9 3d cc bd 79 1e eb bc e1 56 7f bc ea b9 e7 bc
       -0.09972734 -0.028701054 -0.015584678 -0.028286893
0000e0 71 69 2b 3d 84 4b 71 bb 66 54 ce bc 44 42 1d bd
       0.041848604 -0.0036818692 -0.025186729 -0.038393274
0000f0 62 0c f0 3a e8 80 af bd f0 66 8a 3d b0 49 3c bd
       0.0018314237 -0.08569509 0.06757915 -0.04596871
000100 c4 19 05 3e c6 53 d2 3c 37 51 1c 3c e5 cc 2a bd
       0.1299811 0.025674712 0.0095408475 -0.04169931
000110 05 52 21 3d 45 7d 85 bd fd 7a 07 3e db 2d 71 3d
       0.03938486 -0.06518034 0.1323051 0.05888162
000120 f5 01 0e be 16 cc 0b 3d d8 14 17 bd 16 94 e4 3c
       -0.13867934 0.03413018 -0.036885113 0.027902644
000130 26 12 2b 3d cd 1e f1 bc dd 53 ed 3d b2 c9 de bd
       0.041765355 -0.029433632 0.11588261 -0.10878314
000140 98 52 1f 3d c0 f0 d1 bd 96 da 49 bd 4a 99 8f 3a
       0.038897127 -0.102509975 -0.049280725 0.0010955718
000150 19 1f 8d 3d a3 b2 8d bd 6e 2b 89 bc 5e 06 9e bd
       0.06890697 -0.06918838 -0.016744342 -0.07716058
000160 2e 07 0d bd 54 6d d5 bd b2 13 5e bd d1 20 f2 bd
       -0.034430675 -0.10421243 -0.054218 -0.118226655
000170 04 32 61 bd 96 a2 be 3d 26 b8 72 bd 00 81 0a bd
       -0.05497934 0.093083546 -0.05925765 -0.03381443
000180 05 7d 84 bd fd ae a8 bb 5a be de bd 80 74 d3 bc
       -0.06469158 -0.0051478134 -0.108761504 -0.025812387
000190 81 ed 0b bd 5f 64 24 3a 14 2b 48 3d 40 dc dd 3d
       -0.03416205 0.000627106 0.048869208 0.10833025
0001a0 f5 a2 0b bd cf b1 83 3d 57 25 11 be 6e 3d 3f 3c
       -0.034090955 0.06430399 -0.141744 0.011672361
0001b0 87 73 2b 3d f4 b1 f0 3c 83 d2 99 bd b9 28 97 bc
       0.041858222 0.02938173 -0.07510855 -0.018452035
0001c0 6d be bc 3d 31 2f 5a bd a7 50 54 bd 55 28 a6 bd
       0.09216008 -0.05326766 -0.05183473 -0.081131615
0001d0 18 be 49 bc f5 00 90 bd d1 dd af bd 57 e9 b9 bc
       -0.012313388 -0.070314325 -0.0858723 -0.022694273
0001e0 ce aa e8 3c 9d 0a ee bd a1 09 2b 3d 4d d5 86 bd
       0.028401759 -0.11623118 0.04175723 -0.06583653
0001f0 22 50 97 bd ce ba ae 3d 6f 52 93 bd d8 cb a0 3d
       -0.07388331 0.08531724 -0.07193457 0.0785138
000200 48 63 14 be 48 35 c9 3c a1 bf 7b bd 49 95 6c 3d
       -0.14490998 0.02456154 -0.06146205 0.057759557
000210 76 6d d7 bd 84 f3 ee 3d 1b cf ee bd d0 2c c8 3d
       -0.10518925 0.11667541 -0.11660596 0.09774172
000220 c8 1b 04 be 7e b1 34 3d 24 1d 86 bd b1 3f 9f bc
       -0.12901223 0.044114582 -0.06548527 -0.01943955
000230 a1 32 13 bd 5b 3e b5 3d ef e3 cf bc 56 c4 b3 bd
       -0.035936955 0.08849784 -0.025377242 -0.087776825
000240 8d 26 eb 3d f6 36 dd bc 18 f8 f7 3d 38 3a ff 3c
       0.11481962 -0.027003746 0.12107867 0.03115569
000250 4a 30 3e bd 6a fd a5 bd d8 ba a4 3d a3 5b cc bd
       -0.04643277 -0.081049755 0.0804345 -0.09978416
000260 19 08 02 3d 1d 4c aa 3d 65 ba d0 3d 03 21 0c 3d
       0.031746004 0.08315299 0.10191802 0.03421117
000270 82 75 c8 bd 25 a8 15 3e f5 58 6c bd 71 f4 70 bc
       -0.09788038 0.14614923 -0.057702024 -0.014706717
000280 6d 52 56 bd c9 8f d0 3d 81 6a 1e 3d d6 de 04 bd
       -0.0523247 0.10183675 0.03867579 -0.032439075
000290 64 34 e4 3d 60 e3 f3 bd 67 f7 45 3d a1 6e 0a be
       0.11142805 -0.11908603 0.048331644 -0.13518764
0002a0 8f fc fa 3c 60 82 66 bd 8a bf 40 bd 21 91 0b bd
       0.030638007 -0.05627668 -0.047057666 -0.034073953
0002b0 1e e6 a0 3d b5 aa e5 bd 12 8c 0c be 23 95 85 bd
       0.07856391 -0.112142004 -0.13725308 -0.06522586
0002c0 da ba e3 3c 6d ca be bd 4f 3a 90 bd 59 31 de bd
       0.027799059 -0.093159534 -0.070423715 -0.10849256
0002d0 c2 c4 26 3c 8c 53 2b 3e 3a 2b a5 bd e4 57 c3 3d
       0.010178747 0.1673109 -0.080648854 0.09538248
0002e0 2e ee 6f 3d 57 a3 77 3d 27 01 d9 3b 90 d1 fd 3c
       0.058576755 0.060458507 0.006622452 0.030983716
0002f0 07 40 b1 3d 48 80 5a 3d 94 7c 13 3e ed ff a1 3c
       0.0865479 0.053344995 0.14402992 0.019775355
000300 4d 70 a5 3d 44 71 2b 3e aa c7 aa bd 10 69 48 3d
       0.0807806 0.16742426 -0.08338864 0.04892832
000310 61 e1 03 bc 34 0f d2 3d d2 da 9b 3d 60 4d d3 3d
       -0.00804934 0.10256806 0.07610096 0.103174925
000320 44 0e cf 3d f1 7e 56 bd 4b ef ed bc 55 43 3e bd
       0.10110143 -0.052367155 -0.029044768 -0.04645093
000330 64 d1 e3 3d 82 c8 dc 3d c2 fe 04 bd a2 eb 96 3d
       0.111239225 0.10780431 -0.03246952 0.07369162
000340 01 4f 08 3d 55 03 e8 bb f8 c3 ba 3d d7 ff e2 3d
       0.03327847 -0.0070804753 0.09119409 0.11083954
000350 70 c5 68 bd 32 a3 7a 3d 76 f4 60 3c 35 a1 0c 3e
       -0.056828916 0.06119079 0.013730159 0.1373337
000360 7d f9 c2 3b b2 84 87 bd 57 57 92 3d 2d 84 9a 3d
       0.0059501515 -0.066171065 0.07145565 0.07544742
000370 7c 09 a2 3d eb bf 2d bd 6d d7 0a 3d 04 ee 91 3d
       0.07911965 -0.042419355 0.033896852 0.07125476
000380 5f 39 4c 3d 30 cb 12 3e 14 a6 71 3e ff 83 1b 3d
       0.0498594 0.14335322 0.2359851 0.03796768
000390 13 c9 7b 3d e2 60 4f 3e 7c 73 2e 3e 20 12 d0 3c
       0.061471056 0.20251802 0.17036241 0.025399268
0003a0 66 0b 60 3e 78 4d 74 3d 44 7d b5 bc f0 32 ad 3d
       0.21879348 0.059644192 -0.022154458 0.08456981
0003b0 84 03 e1 bc 22 aa d0 3d f4 62 c7 3d ae ff 06 be
       -0.027467497 0.101887 0.09735671 -0.13183472
0003c0 99 48 42 bd df ce 01 be 7b 31 8b bd e5 c6 20 bd
       -0.047432516 -0.12676571 -0.06796547 -0.03925218
0003d0 7c 1e 77 bd c4 05 83 3d 9a 83 f7 3d da 7c 98 3d
       -0.060331807 0.06397584 0.12085648 0.074456885
0003e0 64 97 fd bb 08 94 c6 bc af eb 57 be 11 28 6b be
       -0.0077389944 -0.024240509 -0.21086 -0.22964503
0003f0 bc 17 14 bd bc b3 ab 3c 25 4d be 3c 61 ce 6b bd
       -0.036155447 0.020959727 0.023230145 -0.057569865

weight f4 [13, 13]
000000 1d 81 24 3d 5a 34 65 3d 30 bf 81 3d 04 f2 04 be
       0.040162195 0.05595813 0.06335294 -0.12982947
000010 f4 9d 5f 3d d2 bb 8d 3d f0 af 08 3d 52 aa 10 be
       0.054593995 0.069205895 0.033370912 -0.14127472
000020 68 06 68 bd 40 e0 85 3d ab af e6 3b 69 1b ab 3b
       -0.056646734 0.06536913 0.007039984 0.0052217734
000030 6a 95 e1 3c df 17 8c bc 01 04 5c bb c4 21 a6 3d
       0.027537066 -0.017101226 -0.0033571722 0.08111909
000040 13 5f e1 bb f7 e5 ef bb ad dc 27 3d cb b1 9d bc
       -0.006877789 -0.007321115 0.040981937 -0.019249817
000050 71 a1 1f be c8 6c 40 bd e0 1d 47 bc fb eb 88 bc
       -0.15588929 -0.046978742 -0.012153119 -0.016714087
000060 e7 3b 8a bc 47 5b 1e 3d 7e 9d 2b 3d a2 17 df bc
       -0.016874267 0.038661268 0.041898243 -0.027232949
000070 0e 45 11 3d 7a c2 41 bc d6 06 6a 3c 40 57 ec 3c
       0.035466246 -0.011826152 0.014283856 0.028850198
000080 42 e4 55 bc b6 9e 33 be 43 e9 ce bd 26 26 22 3d
       -0.013054909 -0.17541012 -0.10103085 0.039587162
000090 02 c8 15 3c be 39 e6 bb 41 18 31 3d 05 4c b6 3c
       0.009141924 -0.0070259264 0.04323602 0.022253046
0000a0 63 13 8f 3d 22 b2 b3 3c 2e 6c fa bd e2 92 54 bc
       0.069861196 0.021935526 -0.12227665 -0.012974473
0000b0 f7 4e 2c 3d ea d9 e5 3c 81 8b 3c be ba 96 4e bd
       0.042067494 0.028058011 -0.18412592 -0.050436713
0000c0 4e b7 16 3c 9e 17 b5 3b 81 5a 07 be a4 1d 5b bd
       0.009198977 0.005526497 -0.13218118 -0.053495064
0000d0 3f 5f 0f 3d 7d d9 0d bd f9 1d 01 bc 74 59 25 bd
       0.035002943 -0.03463124 -0.007880681 -0.040368512
0000e0 36 f5 b6 bb 6b 0f 5d 3d 6b ee c9 bc ac 68 34 be
       -0.0055834306 0.05396978 -0.02464982 -0.17618054
0000f0 b2 56 0b be c0 96 1a 3d 73 12 98 3c a2 da 25 bd
       -0.1360729 0.037741423 0.018563485 -0.040491708
000100 53 ca ba 3c 17 ef 58 3b 8d 7b 00 bd 89 cf 6d 3d
       0.022801554 0.0033101493 -0.031367827 0.05805925
000110 f5 32 00 bd b5 46 e9 bb b4 7f 83 3d cc 50 cc bc
       -0.031298596 -0.0071190246 0.06420842 -0.02494087
000120 c0 51 1f be c4 72 86 bd 82 21 66 bb ba 16 5f bc
       -0.15558529 -0.065648586 -0.0035115187 -0.013616258
000130 92 4e 32 bc 04 cf 06 3d a0 8d 9e bc 9a 18 7e 3d
       -0.01088299 0.03291227 -0.019354641 0.06203518
000140 af 24 e1 bc 00 23 fc bd 9e ea 2b 3d 70 e5 68 3d
       -0.027483312 -0.12311363 0.041971795 0.056859434
000150 5e 88 be 3b 3d fc 0f be 99 e9 c1 bd af 8d 06 3c
       0.005814596 -0.14061065 -0.09468383 0.008212491
000160 1b bf 51 3b ed f6 77 bd 89 5f ed bd 27 1a f6 3c
       0.0032004777 -0.06053822 -0.115904875 0.030041767
000170 1a b1 a8 bc 45 10 05 3d f3 0b 89 3c 99 56 4d bc
       -0.020592261 0.03248622 0.01672933 -0.0125328535
000180 23 cd 89 3d fe 72 bf bc 9a 16 1a be 54 e7 c4 bd
       0.0672858 -0.023370262 -0.15047684 -0.09614435
000190 06 30 b6 3c 5e c5 c0 3b 10 bb ba bc 0b 8f 1c 3d
       0.022239696 0.005882903 -0.022794276 0.038222354
0001a0 15 25 91 3c f0 9e 82 bc 41 6d 21 3d 6e ed c0 bc
       0.017717877 -0.015944928 0.039410833 -0.023550715
0001b0 cf b8 4a 3b 7a 3e 0f 3c 72 a2 d1 bc dc 6e 2a be
       0.0030932908 0.008742923 -0.025590155 -0.16643852
0001c0 3a d5 d4 bd 96 0d a4 3c 14 b6 e1 38 4e fa b4 b8
       -0.10392232 0.02002601 0.00010762751 -8.629692e-05
0001d0 df d6 08 3d d6 94 40 bc d5 e0 06 bc e2 f4 ba 3d
       0.033408042 -0.011754235 -0.008232315 0.09128739
0001e0 ac ff 45 bd d9 81 b8 3c c9 76 c7 3c 8a e3 0b bb
       -0.04833953 0.022522854 0.024348633 -0.002134534
0001f0 f8 e6 1c be 94 49 a8 bc 70 d0 56 bd de 2a ef bc
       -0.15322483 -0.020542897 -0.052444875 -0.029195245
000200 eb 1f 0e bd 27 02 1f 3d f5 a1 8a bc de 74 ce 3c
       -0.034698408 0.038820412 -0.01692293 0.025202211
000210 b1 a3 ca 3c 29 b2 9e bc 21 da 99 39 88 ce b4 3d
       0.024736257 -0.019372063 0.00029344953 0.08828455
000220 62 f0 87 3b df 7b 1a be 16 35 cb bb c6 dd 1c bd
       0.004148529 -0.15086316 -0.0062013967 -0.038297437
000230 29 da 97 bc 3a c1 36 bd e8 d1 2d 3d b7 99 5a bd
       -0.018536644 -0.04461787 0.04243651 -0.05336925
000240 0b a4 8e 3c 03 10 97 3d 85 9b 04 bd e1 73 0a bc
       0.017412206 0.07376101 -0.032374877 -0.008450479
000250 82 4b 29 3d ea 07 57 bb 9e 24 12 be ce 96 63 bc
       0.041331775 -0.0032811114 -0.14271781 -0.013890935
000260 00 2a 6c bd 59 59 35 bd e7 c1 c7 bc fd 48 b8 3c
       -0.05765724 -0.04427466 -0.024384452 0.022495741
000270 ec 08 79 ba a2 d5 37 3d 46 d1 60 3d 80 c9 d4 bd
       -0.00094999257 0.04488147 0.05488708 -0.103899956
000280 76 e5 39 3d 50 ad 5f 3d 4a 7c 86 3c dc 34 08 be
       0.045384847 0.054608643 0.016416688 -0.13301414
000290 4d 83 37 bd 20 50 8f 3c 22 62 a9 bc 26 ea 6f bc
       -0.044802953 0.017494261 -0.020676676 -0.014643228
0002a0 8b 12 3a 3c
       0.01135696

bias f4 [13]
000000 bd d9 cd be 41 72 fe 3e 7f bd 28 3e fe 14 80 be
       -0.40205184 0.49696544 0.16478537 -0.25016016
000010 8d f4 b9 be 7d e3 6d be bf cf 2d be 8d a2 d0 3d
       -0.3631939 -0.23231311 -0.1697378 0.10187254
000020 4a 0a 9f bc d6 dd 9d be fc 61 c9 be bc ff be bc
       -0.019414086 -0.3083331 -0.3933257 -0.023315303
000030 40 33 94 3e
       0.2894535
