data/results/GAT/all_emo/1003/full_model.pth (torch, 31215 bytes, 6 tensors)

att_src f4 [1, 13, 13]
00000000: b937 093e a768 263e 44df ab3e be66 9fbe
00000010: 7442 863e 1c6f 8e3e a5c5 e6bd 6e31 e13e
00000020: bd80 82bd 9a49 a93e ef44 d7be da51 cd3e
00000030: c501 003f a8ab c7be 3716 d1be ec8a 17be
00000040: d2f7 91be cff6 913d 17ac 1e3e aff1 44be
00000050: e1ad a03e 62bf 29bd e6f0 16be c1b5 29bf
00000060: 1bb4 553d 9842 d9be 2025 dc3c d6f4 ef3c
00000070: 8886 35be b8cb 1f3e c440 863d 5332 133e
00000080: 1982 923e edb5 ffbe ce08 8bbe 60aa b6be
00000090: 95f9 d8be 0aa2 773e cb2e b7be 7c41 86be
000000a0: 8b93 883e f963 cd3e 39a0 95be 0f60 c5be
000000b0: 31c7 653a bcbe 183e ff9c 4a3e d1ed b53c
000000c0: f669 b63e d14d acbe 0b06 133f f874 d0be
000000d0: ace1 7cbe d54f bb3e 9456 afbc d3bc 8b3e
000000e0: 4013 a7be 48a5 c83e 25c8 d93e 726a 17bd
000000f0: 769c 083f 8c54 c1be 2248 09be b725 efbc
00000100: d650 b53e e7fe 7bbe 1a45 b43e 568a 24be
00000110: 1cc8 0bbe f1cb 2b3e 854e ebbe 5c16 12bf
00000120: 3ee3 283e e1e4 6f3d 357e 263e 51b8 79bd
00000130: f309 dfbe 876d a5be 9053 993e 4ec0 07bf
00000140: baef ad3d 95a1 0e3e 439c e63e 0295 1abe
00000150: 67f5 19be e623 19bf acce ba3e 53e7 10bf
00000160: 475f adbe e08a 84be ecf3 ca3e 69c7 0f3e
00000170: 9ebc e63e 0d39 073f 6bbb bdbe cb50 33be
00000180: 2586 22be eb3c 593d f55c 5dbd 08df 6b3e
00000190: 6267 babe b282 3a3e a582 ccbd d1cc 40be
000001a0: aa75 c6bd bf2c 03be be34 d2be 3a4a cf3e
000001b0: 0fde 88be 9f5f f93d f79e c33e d359 663e
000001c0: e96c 4d3e 7020 a13e 0360 e13e 5c25 cf3d
000001d0: 22b2 e63e b36d 50be 386b b4be e8e7 083e
000001e0: e4d5 083e bac8 07be a21f 03bf 3186 143e
000001f0: 0624 bd3e c344 78bd 235f b53c 78e4 a83e
00000200: 014a c2be 19c2 5cbe 49e5 87be 9629 5dbe
00000210: 634f 593e 7e03 0f3f 295d 2c3d b025 9b3e
00000220: 5e8b b1be 7e79 e93d b222 78be fb87 8cbe
00000230: 3ec7 283e 2a18 5c3e f54c 333d 87fb 853e
00000240: 9070 943e 6a57 f43e 7f8c 49bc f0a8 8f3d
00000250: 6e28 5a3e 3011 143e 22aa c5be 5004 07be
00000260: 06f9 bfbe 7116 c0be 4000 a9be 21b6 f73e
00000270: dd32 9cbe 941b a53d 3e01 7dba 5ffb 763e
00000280: 3c69 bf3e 79dc 11bf 5486 f13e cd63 f1be
00000290: a8f4 463d 543c c83e 9f73 c93e a6e9 dcbc
000002a0: 54be b2be
0.13400163 0.16250859 0.33568776 -0.31133074 0.26222575 0.27819145 -0.112681665 0.43983024
-0.06372211 0.33063966 -0.4204478 0.4010151 0.500027 -0.3899815 -0.4083726 -0.14799088
-0.28509384 0.07127153 0.15495335 -0.1923282 0.3138266 -0.041442282 -0.14740333 -0.6629296
0.052173715 -0.4243362 0.026873171 0.029291552 -0.17727101 0.15605056 0.06555322 0.14374666
0.28614882 -0.49943486 -0.27155155 -0.3567686 -0.42377916 0.24182907 -0.35777888 -0.26221836
0.26675066 0.40115336 -0.29223803 -0.3854985 0.00087653386 0.1491651 0.19786452 0.022208126
0.35627717 -0.3365312 0.57431096 -0.4071424 -0.24695462 0.36584345 -0.021403588 0.272925
-0.32631874 0.391886 0.4253551 -0.03696675 0.5336374 -0.37759817 -0.13406423 -0.029192789
0.35413235 -0.24608956 0.3520897 -0.16068396 -0.13650554 0.16777016 -0.45958343 -0.5706537
0.16492936 0.058567885 0.16259082 -0.060966793 -0.43562278 -0.32310125 0.29946566 -0.5302781
0.0849299 0.13928826 0.45041093 -0.15095904 -0.1503502 -0.598204 0.36485803 -0.5660297
-0.33861753 -0.25887203 0.39639223 0.14040913 0.45065778 0.5282143 -0.3705705 -0.17511289
-0.15871485 0.05303661 -0.05404373 0.23034298 -0.36407 0.18213919 -0.09985856 -0.18828131
-0.096904114 -0.12810038 -0.41055864 0.40486318 -0.26731917 0.121764414 0.38207218 0.22495203
0.20061077 0.3147006 0.44018564 0.101145476 0.4505778 -0.20354347 -0.3523805 0.13369715
0.13362843 -0.13260165 -0.5122014 0.14504315 0.36941546 -0.06061245 0.022140091 0.32986808
-0.37947085 -0.21558417 -0.26542118 -0.21597895 0.2122169 0.55864704 0.042081032 0.3030219
-0.3467664 0.11400126 -0.24231985 -0.27447495 0.16482255 0.21493593 0.043774564 0.26168463
0.28992128 0.47722942 -0.012301563 0.07014644 0.21304485 0.14459682 -0.38606364 -0.13185239
-0.37494677 -0.3751712 -0.33008003 0.4838114 -0.30507556 0.08061901 -0.0009651369 0.24119328
0.37384975 -0.5697704 0.47172797 -0.47146454 0.048573166 0.39108527 0.39346024 -0.026966881
-0.34910834

att_dst f4 [1, 13, 13]
00000000: 4f50 eb3e c72e f03e 4ff5 82bd 6d57 95be
00000010: cf29 a0be bb32 f6bd 11f3 303d f79e b93e
00000020: 4129 fcbd 7e0b 5cbe 653b 02bf 4601 3dbe
00000030: c38d 6dbe 7da4 1e3e c8f1 c2bd 25b4 91bd
00000040: 1717 0ebe 8f94 3cbe 2471 82be 7e72 cf3c
00000050: 1f0c a6be 8832 cf3c 43fa cc3e a64b e13e
00000060: 4fc6 a73c a734 fa3d a3eb 863e c1c1 c33d
00000070: d131 3bbe dae2 9b3e d110 fcbe e8cf 61be
00000080: 262f 2a3e cb90 87be 66f7 173e 509b e73e
00000090: c3b7 ec3d 4286 eb3e 77b2 34be 4365 27be
000000a0: c68d 7dbe d6ba bcbe bb5a 2dbe 5995 423e
000000b0: 9027 8c3d 8046 bebe 87b4 313e 3b59 503e
000000c0: 835f 1b3e ebec 993e 77c1 aabe 6935 bb3e
000000d0: 0c63 243d 23ef 1ebf 24db d63e e940 483e
000000e0: 63f6 e5bd 4c18 0b3e c728 09be c74d 72bd
000000f0: 1436 0f3e 10c7 603e 964c 64be 2c5a 613e
00000100: 43d0 80be fc76 5cbc 2a7c 64be 7339 073f
00000110: d396 423e 8c4d 99be 7479 423e 4bf5 8a3d
00000120: 3d8d 24be d641 ed3d af60 fcbe ed28 3c3c
00000130: 8c17 7f3d d3d9 91bd 5d13 0c3f ff8f c33e
00000140: 9fd2 c03e a1e7 75be bbbb 15bd 3824 f73e
00000150: f58f 7b3d cdfe df3b 9218 adbe d1f5 83be
00000160: 537a b23e 5d12 be3e 948c 493e bf2e 143e
00000170: 8a86 913c 8785 323e 3d15 d43e 2233 823e
00000180: ec0a 403e 9b4c 96bd a070 2a3e f500 d53d
00000190: bc58 b1bd 7418 0fbe 65b6 06bc a65c a5bd
000001a0: c01c cf3d 708f fd3d a649 703e 7934 bbbd
000001b0: 7174 5d3e 3daf 02be a2f7 8fbe 743b 81be
000001c0: 27b7 75be f575 fb3d 9fb4 43be c3de 3bbe
000001d0: 3839 b7be aebe 29be f9d7 803e d91e ac3e
000001e0: cd6a 8d3c 8341 4a3e 6b57 02bb e653 20be
000001f0: 2593 09be c6c8 39be 6639 0bbf 92c2 c7bd
00000200: fa68 653e 04ce 193f 4804 83be 8ba7 de3d
00000210: 1704 1fbe bec5 4c3d 8546 be3d 0fe4 d4be
00000220: 46b3 85bc ce1c 0cbe d34a a83e ef32 9cbd
00000230: 4797 7b3d 5535 02be 013d a03d 645a 62be
00000240: 6a0e 023e 453c 9f3e adad 21be cf23 6ebe
00000250: fdba b53d 1585 98bc 3192 183e dbcd 893e
00000260: e10e bebd b231 6a3c 60ab da3d 2c85 17be
00000270: 6830 d03e 2531 c33d 5189 ba3d 221f c1bd
00000280: 0eb5 213d 6fce ad3d d095 a7bd 5f4e c53e
00000290: 3f7a 213e a58e 05bf 0f76 d83c e81f 8abe
000002a0: 6f7e f13e
0.45959708 0.46910688 -0.06394445 -0.29168263 -0.31281897 -0.12021395 0.043200556 0.36254093
-0.12312556 -0.21488759 -0.5087188 -0.18457517 -0.23198609 0.15492435 -0.09518772 -0.07114438
-0.13875996 -0.18416046 -0.25476944 0.025323149 -0.32431123 0.02529265 0.40034685 0.44003028
0.020480303 0.12217074 0.26351652 0.0955844 -0.18280722 0.30446512 -0.4923158 -0.22051966
0.16619548 -0.26477656 0.14840469 0.45235682 0.11558487 0.46000868 -0.17646204 -0.16347222
-0.24761114 -0.36861295 -0.16929142 0.19002284 0.068434834 -0.37163162 0.17354022 0.20346539
0.15173154 0.30063567 -0.33350727 0.36564186 0.04013352 -0.62083644 0.41964066 0.19556011
-0.11228635 0.13583487 -0.13394462 -0.059156206 0.13985473 0.21950936 -0.2229484 0.22007054
-0.2515889 -0.013456102 -0.2231299 0.52822036 0.19002847 -0.29941976 0.18991643 0.06785067
-0.16069503 0.11584823 -0.49292514 0.011484367 0.062278315 -0.07121625 0.54717046 0.38195798
0.3766069 -0.2401414 -0.036555987 0.4826982 0.061416585 0.0068357945 -0.33807808 -0.2577348
0.3485895 0.37123385 0.19682533 0.14470957 0.017764349 0.17433749 0.41422454 0.25429636
0.18754166 -0.0733883 0.16644526 0.10400573 -0.08659503 -0.13974172 -0.008222197 -0.08074312
0.101129055 0.12380874 0.23465595 -0.09140868 0.2162645 -0.1276216 -0.28118616 -0.25240672
-0.23995648 0.12278358 -0.1911187 -0.18346696 -0.35785842 -0.16576645 0.25164774 0.33617285
0.01726284 0.19751553 -0.001988853 -0.15657005 -0.13435037 -0.18142995 -0.5438446 -0.09753908
0.22403327 0.6007998 -0.25589204 0.108718 -0.15528904 0.04999327 0.09290794 -0.41580245
-0.016320836 -0.13682863 0.32869586 -0.07626902 0.061423566 -0.12715657 0.078241356 -0.22104794
0.12700811 0.3110067 -0.15788908 -0.23255847 0.08873556 -0.018618146 0.14899518 0.26914868
-0.09280182 0.014294075 0.106772184 -0.14796895 0.4066193 0.09530858 0.09108222 -0.09429766
0.039479308 0.0848664 -0.08182871 0.38536355 0.1576929 -0.52170783 0.026423482 -0.26977468
0.47166774

bias f4 [13]
00000000: 1df5 a83d 0ad8 44be 0c36 83bd aefd c13d
00000010: 85c0 023e d104 75bd 45e1 753a 10d9 2ebd
00000020: b94d 2f3e 42d2 94bd 4f5a 0a3e 21a9 12bd
00000030: b98a f23d
0.08249877 -0.19223037 -0.06406793 0.09472214 0.12768753 -0.059819046 0.0009379576 -0.042687476
0.17119493 -0.07266666 0.13511012 -0.035805825 0.118428655

weight f4 [169, 11]
00000000: af11 363e d9f8 2f3e fb28 69bd a0b4 fc3d
00000010: b3c3 303e 5f11 19be 803e 263e ef00 343c
00000020: d6e7 b53d b900 153e 23d4 b93d 5c9e 323d
00000030: 2679 0b3e 9640 ef3c 9dbd 0e3d 2668 cdbd
00000040: e0b9 9a3d a532 27bd 5428 ee3c 5028 293d
00000050: 86cc 79bd 6853 0fbd 579e 9bbd 8f5c f23d
00000060: 026d 533d 0c19 893d 6f40 49bd f9a0 be3b
00000070: ca2d 843c 534a a23d 5bcd dabc 8b9c 153d
00000080: a78a 583e c459 36be f043 afbd d38b 93bc
00000090: f3d2 05be 9de6 bfbc 3fef 67bc e10f e0bc
000000a0: 983c f7bd c99c dbb9 ddbc 51be 09b7 ffbd
000000b0: 2abb 1abd da75 ef3d 21d1 903b 1e44 f9bd
000000c0: 3ca2 d03d 95d3 a3bd 0f26 483e e19a f1bd
000000d0: c7ac 903d 68b7 333e 48b5 0cbe eb6b 8ebd
000000e0: acb7 063d a89a 5a3c f167 9bbc 6bb6 1d3e
000000f0: 0e0d 89bd 5396 80bd 74d7 0abe 92d1 373c
00000100: 889b 56bd 71d9 053d f73a 183d 20d0 fb3c
00000110: 6590 eebd ecbf d8ba 672b dc3d 8bb0 4ebe
00000120: 35f8 b139 71f1 8fbd dadb 953d 85cc 12be
00000130: bfcc 9cbd f2b5 e83d 0064 03be c275 8d3d
00000140: 79f5 543d 61d1 463e 5a7d 0fbd 06c7 553e
00000150: 3b1f 0f3d 34a5 2e3e b1ae 2b3e 9250 12be
00000160: 589a a3bd b3fd 7b3d 29b2 a8bd 0fc7 1bbe
00000170: 5d53 dfbd e087 d3bd 8f02 83bd 1760 acbd
00000180: f1db 423c f7ae 1dbe d434 e63b 9841 6d3d
00000190: 5e30 063e bd60 863d 02ce 0b3e f7c1 363c
000001a0: e902 143d 8f1f 493d 9f15 7abd d66e b23c
000001b0: 5d77 303e d924 a53c a2f6 85bc 987b 683d
000001c0: e10b 6abd 2e07 2abe ea99 b0bd 4af4 adbd
000001d0: 69ad 9fbc e2a0 02be 9683 a2bd 3c2b 753d
000001e0: b9c8 943a 11b6 163e dc8f 453e c179 fc3d
000001f0: 2540 253e 8753 713e 4e23 533d 47f7 d83d
00000200: 8ed3 3c3d 3c12 5d3e a1a5 443e 0823 b73d
00000210: 2120 383d ee78 1b3e b4a4 a2bd b298 873c
00000220: 26e4 26bc 279d 1b3d ca21 4c3e 22d6 c4bd
00000230: e56c 6c3d d246 ad3d 4f0c a0bd 956c 2e3e
00000240: 8f65 183d d1ac 8f3d 6416 0bba 0ccc 2abc
00000250: 2518 113d e7d8 82bc 3fa5 07bc ab05 423d
00000260: 65c4 b43a 007c a1bd b6ba 933c fe94 313d
00000270: 6f1f 3dbd 9f96 083e 3df6 95bd 3c92 a8bd
00000280: b571 4ebc 3964 ae3d 13b7 83bc 9d8a 353e
00000290: 8da0 eabd d71c 313e a1a3 a73d efae 37bd
000002a0: 7f16 2dbd b5f1 b83d 25dc 7b3d d30c 533e
000002b0: 7426 1b3e b361 31bd 007b b6bc 3d18 95bc
000002c0: e42a b1bc 3669 8ebb 377f c9bd ada9 e03d
000002d0: ad8c 153e 02d3 a83d a45a 8dbd 904d f93b
000002e0: 0411 cb3c 2bea f83d e3bc 843d 84d5 a5bd
000002f0: c761 103e 251e 6cba b43c 8dbc 5cb5 6fbd
00000300: 294e 6c3d 146a 223d 2eb3 f8bd 4a0b e4bd
00000310: 9475 0d3d 6a61 fa3d 92c4 c63c 66e4 a1bd
00000320: 28e0 1ebe 9cc5 26bb a998 26bd daad 2cbd
00000330: d746 e0bd a58a ef3c 714c 37bd a7c3 5e3d
00000340: e7c8 e6bd 6942 313e 8eae ab3d 2360 30bd
00000350: 8437 243e 5676 80bd b24b 4a3e b803 d43d
00000360: 7210 c73d bc54 043e 9086 c93d fa11 423d
00000370: 9608 a83b 8541 10be fc49 873d 5c6d 80bd
00000380: 93d5 1fbe ebbb 71bd b684 293d 9bdd 01be
00000390: b5f3 13be 77d1 8bbc 2142 80bd 8e64 043e
000003a0: 7e46 57bd d061 6e3d 8d55 233e 9765 183d
000003b0: 97ef a43c 7115 3a3e a8c5 003e a952 a03d
000003c0: d314 33bd 8218 473e 0995 5fbc 266e a23c
000003d0: 6a58 a4bd 6c7e 0c3c 4ac9 993d b376 1c3d
000003e0: c6b1 393e ccb7 023d 0ad0 2f3d 6796 723d
000003f0: 70d1 82bc e971 323d d0e7 e03d 4084 683e
0.17780183 0.17184772 -0.056923848 0.12339139 0.17262153 -0.14948033 0.1623478 0.010986551
0.0888211 0.14551057 0.09073665 0.043608055 0.13620433 0.029205602 0.034848798 -0.1002963
0.07554984 -0.040819783 0.029071964 0.04129821 -0.060986064 -0.03499165 -0.0759856 0.118340604
0.05161763 0.066942304 -0.049133714 0.0058175293 0.016135115 0.079243325 -0.02670925 0.036526244
0.21146642 -0.1780768 -0.0855788 -0.01801101 -0.13068752 -0.023425395 -0.014156162 -0.027351322
-0.12072104 -0.0004188775 -0.20482202 -0.12486083 -0.03777615 0.116924 0.0044194614 -0.121711954
0.10187194 -0.079993404 0.19545768 -0.11797119 0.07064205 0.17550433 -0.13741028 -0.069541775
0.032890007 0.013342537 -0.018970462 0.15401618 -0.06691943 -0.06278672 -0.13558751 0.011219399
-0.05239442 0.03267807 0.03716561 0.03073889 -0.11648635 -0.0016536689 0.10750466 -0.20184533
0.00033945 -0.07028473 0.07317324 -0.1433583 -0.0765624 0.11362828 -0.12831116 0.06907226
0.051991913 0.19415809 -0.035031654 0.20876703 0.034941893 0.17055207 0.16765858 -0.14288548
-0.07988423 0.061521243 -0.08237106 -0.15212654 -0.10904572 -0.103286505 -0.063969724 -0.08416765
0.011893258 -0.15398775 0.0070253406 0.057923883 0.13104388 0.0656142 0.13652804 0.011154643
0.036135588 0.049102362 -0.061055776 0.021781366 0.17233033 0.020159172 -0.016352955 0.056758493
-0.057140235 -0.16604301 -0.08623107 -0.0849386 -0.019491868 -0.12756684 -0.07935254 0.059855685
0.0011351324 0.1471789 0.19293159 0.1232791 0.1613775 0.2356702 0.05154734 0.105940394
0.04610019 0.21588987 0.19203807 0.089422286 0.044952516 0.1518285 -0.07941571 0.016552303
-0.010186231 0.03799167 0.19934765 -0.09611155 0.057721037 0.084607735 -0.07814848 0.17033608
0.03720623 0.07015384 -0.00053057657 -0.010424625 0.035423417 -0.015972568 -0.008279144 0.047368687
0.001379144 -0.07884979 0.018033367 0.04335498 -0.046172556 0.13338707 -0.07322357 -0.08231017
-0.012600352 0.0851521 -0.016078508 0.17728658 -0.11456404 0.17296158 0.081855066 -0.044844564
-0.042257782 0.09030477 0.061489243 0.20610361 0.15151387 -0.043306064 -0.022275448 -0.018200034
-0.021626897 -0.004346038 -0.098387174 0.10969863 0.14604445 0.082433715 -0.06902054 0.007608123
0.024788387 0.12154039 0.0648134 -0.080973655 0.14099799 -0.00090071774 -0.01724086 -0.058522567
0.057691727 0.039651945 -0.12143551 -0.11134966 0.03453596 0.122256115 0.024263654 -0.07904892
-0.15515196 -0.0025447374 -0.04067293 -0.042157985 -0.10951012 0.029240916 -0.044750635 0.054385807
-0.11268788 0.1731049 0.08382903 -0.043060433 0.16036803 -0.06272571 0.19755438 0.10352272
0.097199336 0.12922949 0.09840119 0.047380425 0.0051279766 -0.14087494 0.06605908 -0.06270859
-0.15608816 -0.059017103 0.04138633 -0.12682192 -0.14448436 -0.017067654 -0.06262613 0.12928984
-0.05255746 0.05819875 0.15950604 0.03720626 0.020133777 0.18172242 0.125754 0.07828266
-0.04372103 0.19442943 -0.013646373 0.019827913 -0.08024676 0.008575063 0.07509096 0.038199138
0.18134221 0.031913564 0.04292301 0.059225466 -0.015969008 0.043565664 0.10981715 0.227067

weight f4 [13, 13]
00000000: 01e2 c33d 4e90 d8be 58d4 09be 7e69 813e
00000010: b42a bb3e 9c6f 5bbe 8a51 123e b930 0fbe
00000020: dcfb 8b3e 7628 07be 059b 94bd 93fc 85be
00000030: c995 303d b7db 27be ee17 a9be cc54 8a3d
00000040: dcd3 34be a8e7 ec3c cdae dbbc 2f19 9b3d
00000050: 2258 99be d059 a13d 6e6d c6be 6e10 47be
00000060: d80a 8fbd 71e8 353d 3e04 203d df9c 873d
00000070: 943c a6bd 5c17 c8bd e0cf 943e 2ef2 87be
00000080: 1486 cc3d f131 bbbd 1889 40be eb1a 913d
00000090: 7134 193e 536d 0c3e 5abc 53be 88e1 bc3d
000000a0: bcd6 33bd 5467 7c3e 18e4 30be 92a4 a1bd
000000b0: b8e9 8c3e 491e 45be 2141 babc 73ae 853d
000000c0: 80f9 a0bd d03c 82be 1241 f1bd 222f 22be
000000d0: 65f2 223d e68e 2dbd dbc3 4c3d fbc2 90bd
000000e0: 6d0b bdbd 8112 553e 198b 5ebb 4dbf 9f3d
000000f0: 704c 75be 7546 3dbe f789 7d3d 5659 c63e
00000100: be3c 353d d5f3 b2bd ee89 4abd c02b a73d
00000110: 1863 f23d dcd2 c9bd acf9 06be 0a70 ca3d
00000120: 8362 563d 7ff3 afbd 1325 383e 445c 8a3d
00000130: 240f 05be 7241 583e eff9 db3e eb02 a1bc
00000140: fa91 d23e a73a b93e b884 17be 12f9 f83d
00000150: 6ff0 a7bc c49b 2c3e e288 f43d caf8 593e
00000160: 959f 1ebe 0ee4 23be 8d24 3abe 027a c0bc
00000170: 594d 34bc 26e2 553e 2273 01bd 9ac8 173e
00000180: a4dd debe 4445 883e 71aa 0bbe 698d cabd
00000190: f3cb b5bd b3a0 22be 6414 003e c458 91bc
000001a0: 91b3 ab3d 8a80 c6be 2bdf dbbc 409c 83be
000001b0: f65e 943e 953c 003e 089e ee3d 1569 033e
000001c0: dbec f0bd a0eb 773e d569 6e3d 3aec c93b
000001d0: 05d6 ac3e b416 5cbe 22fe 863d d95a 543d
000001e0: a3ec efbd 2d6b 7a3e 38a4 16bd 660d 333e
000001f0: a773 073c 7eff 3b3e 3d2f 813d 3882 35bd
00000200: b4f4 40be 497b b4be 3f42 cdba 76eb 86be
00000210: fd6e debc b190 02be 066b 093e 924c 2bbe
00000220: f749 893e dd8e 5abe 5ad5 373e f914 433e
00000230: 62c5 5ebe e1b3 cdbd 2ef9 82bd 2052 19be
00000240: 695c 3bbe f550 4c3e e2d4 143d 8510 0bbd
00000250: cf50 74be f53f 0c3e f164 983c 7ff1 39bd
00000260: 4e4e 2b3e 57ac 21be 4314 29be daa6 0dbe
00000270: 9925 c13c af31 82be cf37 a4bd 5ade b73d
00000280: 4560 a43d 7fd2 9abe 30f9 74bd 62b8 5dbd
00000290: 0a86 e03d 4e59 c9bc b86a 11be c830 9bbe
000002a0: 4762 b3bd
0.09564591 -0.42297596 -0.13459909 0.25275797 0.36556017 -0.21429294 0.14288917 -0.1398343
0.2734059 -0.13199028 -0.0725613 -0.2616926 0.043111596 -0.16392408 -0.3302607 0.06754455
-0.17658943 0.028919056 -0.02681675 0.07573163 -0.29950052 0.078784585 -0.38755363 -0.19439861
-0.0698449 0.044411127 0.039066546 0.06621718 -0.08117023 -0.097700804 0.29064846 -0.26551956
0.09986511 -0.09140385 -0.18802297 0.07085212 0.14961411 0.13713579 -0.20677319 0.09222704
-0.04390596 0.24648792 -0.17274511 -0.078927174 0.27522063 -0.19249834 -0.022736134 0.06527414
-0.07860088 -0.2543702 -0.11779989 -0.15838292 0.039781947 -0.042372607 0.04999147 -0.070684396
-0.09230695 0.2080784 -0.003395742 0.078001596 -0.2395494 -0.18483908 0.06189915 0.38740033
0.04424738 -0.087379135 -0.049447946 0.081626415 0.11835307 -0.09854671 -0.1318118 0.09884651
0.05234004 -0.08591365 0.17982893 0.067558795 -0.12994057 0.21118715 0.42964122 -0.019654712
0.41126996 0.3617756 -0.14796722 0.121568814 -0.02050039 0.16856295 0.11940171 0.21286312
-0.15490563 -0.16004965 -0.18178006 -0.023495678 -0.011004769 0.2088705 -0.03160394 0.14822617
-0.43528473 0.26615345 -0.13639237 -0.09890253 -0.08876791 -0.15881614 0.12507778 -0.017742522
0.08383859 -0.38769943 -0.026839813 -0.25705147 0.289787 0.1252311 0.11651236 0.12833054
-0.117639266 0.24210978 0.058206398 0.0061621936 0.33757034 -0.21493036 0.06591441 0.05184445
-0.11715057 0.24454947 -0.036777705 0.1748558 0.00826732 0.18359181 0.06307838 -0.04431364
-0.18843347 -0.3525031 -0.0015660002 -0.26351517 -0.027152533 -0.12750508 0.13419732 -0.16728428
0.26814243 -0.2134356 0.17952481 0.19050969 -0.21754983 -0.10044075 -0.063951835 -0.14972734
-0.1829697 0.19952758 0.036335833 -0.0339513 -0.23858951 0.13696273 0.01860282 -0.045396324
0.1672909 -0.15788399 -0.16511635 -0.1383318 0.023577498 -0.2542853 -0.08018457 0.08977957
0.080261745 -0.3023872 -0.059807956 -0.05413092 0.10963066 -0.024578717 -0.14200866 -0.30310655
-0.08758979

bias f4 [13]
00000000: 8d5c dabd 24d7 f53d c0ed 033d 3247 ab3b
00000010: e952 9e3d 12e3 a23d 4a5e d0bd fc02 603d
00000020: 5b61 4a3e 7e87 0bbe a720 dbbc 4bbd a1bd
00000030: c829 08be
-0.10662184 0.120039254 0.032209158 0.005226993 0.077306576 0.079534665 -0.10174234 0.054690346
0.197637 -0.13625905 -0.026748968 -0.07897433 -0.13297188
