data/results/GAT/843/full_model.pth (torch, 31215 bytes, 6 tensors)

att_src f4 [1, 13, 13]
0	0x3d54289e	0.051796548
1	0x3e6090d7	0.21930252
2	0x3e97e956	0.2967021
3	0xbeba6a6c	-0.36409318
4	0x3e9f3e4e	0.31102222
5	0x3e84aee3	0.25914678
6	0xbe109920	-0.14120913
7	0x3efe280d	0.4963993
8	0xbcd89711	-0.026439222
9	0x3e6b1e28	0.22960722
10	0xbf075ba0	-0.52874184
11	0x3efcf436	0.49405068
12	0x3e99fd0e	0.30075878
13	0xbea5d21f	-0.32386872
14	0xbeae439f	-0.34035966
15	0xbe506adb	-0.20353262
16	0xbe5d2998	-0.21597898
17	0x3e225740	0.15853596
18	0x3e8a46ab	0.2700704
19	0xbe145f3e	-0.14489457
20	0x3ed59172	0.41712528
21	0xbdee9863	-0.11650159
22	0xbe2211e8	-0.15827143
23	0xbf07d320	-0.53056526
24	0x3d6fb794	0.058524683
25	0xbeca1b11	-0.39473775
26	0x3dc30767	0.09522896
27	0x3d6b72a9	0.057482395
28	0xbe8dc409	-0.27688625
29	0x3dc14a5f	0.09438013
30	0x3e07b34a	0.13251987
31	0x3eaf1867	0.34198305
32	0x3e9e67f4	0.30938685
33	0xbee65e32	-0.4499374
34	0xbeab93d8	-0.33511233
35	0xbe54f5ea	-0.20796934
36	0xbebcf282	-0.3690377
37	0x3df020d4	0.117250115
38	0xbe8070b3	-0.25085983
39	0xbf023266	-0.5085815
40	0x3e33fdec	0.17577332
41	0x3e2bb00c	0.16766375
42	0xbd7128e6	-0.058876894
43	0xbed90316	-0.42385167
44	0x3dde8a18	0.10866183
45	0x3da7ccff	0.08193397
46	0x3eb6a794	0.35674727
47	0x3e3d1f18	0.18468893
48	0x3ec7e404	0.3904115
49	0xbed3acbd	-0.41342726
50	0x3edde4f2	0.43338734
51	0xbe9a0b45	-0.30086723
52	0xbec442c0	-0.38332176
53	0x3e8508d6	0.25983304
54	0xbe2355c7	-0.1595069
55	0x3eadbaf3	0.33931693
56	0xbe97002c	-0.2949232
57	0x3efa5007	0.4888918
58	0x3ef16b41	0.4715214
59	0x3d8feba9	0.070273705
60	0x3ea6e2ce	0.32594913
61	0xbec0a25d	-0.37623873
62	0xbdb3ba19	-0.0877573
63	0x3dab6b3a	0.08370061
64	0x3e9e5df5	0.3093106
65	0xbe7c5f2b	-0.24645679
66	0x3e2f1ad5	0.1710008
67	0xbe359136	-0.17731175
68	0xbeb19e67	-0.34691164
69	0x3d27ffdc	0.04101549
70	0xbedae5d9	-0.42753485
71	0xbed78d70	-0.42100096
72	0x3e736e79	0.2377261
73	0x3e51ee73	0.20501117
74	0x3e1cea2f	0.15323709
75	0xbd5dff86	-0.054198764
76	0xbe6c6830	-0.2308662
77	0xbee0bed2	-0.43895584
78	0x3e92719c	0.28602302
79	0xbefd1564	-0.49430382
80	0x3d9cfe4d	0.076656915
81	0x3eae0291	0.33986333
82	0x3eeef9fd	0.466751
83	0xbe69114a	-0.22760502
84	0xbe5c5c6b	-0.2151963
85	0xbee9fb5d	-0.45699587
86	0x3e977679	0.29582575
87	0xbee6dc4c	-0.45089948
88	0xbea1e9e8	-0.3162377
89	0xbee04bfc	-0.4380797
90	0x3ec9afd4	0.3939196
91	0x3e0f086d	0.13968058
92	0x3ea592c0	0.32338524
93	0x3ec4124f	0.38295218
94	0xbdc43227	-0.09579878
95	0xbe1d532e	-0.15363762
96	0xbea0af38	-0.3138368
97	0x3e813a2a	0.25239688
98	0x3e364939	0.1780137
99	0x3e5b5d70	0.21422362
100	0xbead4a50	-0.33845758
101	0xbd2a5ca9	-0.041592274
102	0xbe43ae5e	-0.19109485
103	0xbe00cf6c	-0.12579125
104	0xbe1869e4	-0.14884144
105	0xbcbdfaa6	-0.023190808
106	0xbecd8ab3	-0.40144882
107	0x3ea1f6c1	0.3163357
108	0xbe9dc153	-0.30811557
109	0x3e473ca4	0.19456726
110	0x3eac2790	0.33623934
111	0x3e3e2d46	0.18571958
112	0x3eae4b71	0.34041932
113	0x3e9ebf39	0.31005266
114	0x3eb16b75	0.34652296
115	0x3db2ce25	0.08730725
116	0x3ea997d4	0.33123648
117	0xbe5e23c5	-0.21693332
118	0xbe8893b4	-0.2667519
119	0x3e2140d3	0.15747385
120	0x3ac31bf1	0.0014885647
121	0xbd7d5282	-0.061846264
122	0xbec8de88	-0.39232278
123	0x3df99115	0.12185875
124	0x3efd0329	0.49416474
125	0xbe1d359b	-0.1535248
126	0xbd5d5f50	-0.054045975
127	0x3eb040ea	0.34424525
128	0xbeadcd98	-0.33945918
129	0xbe159dd6	-0.14610991
130	0xbe4b3270	-0.19843459
131	0xbe45e452	-0.19325379
132	0x3ee7b4d7	0.45255157
133	0x3eb3247c	0.34988773
134	0x3df2fc76	0.11864559
135	0x3e6ec12b	0.23315875
136	0xbe2fed65	-0.17180403
137	0x3dac94e6	0.084268376
138	0xbdcc77dc	-0.09983799
139	0xbedd4ca1	-0.43222526
140	0x3e6e0107	0.2324258
141	0x3e1d45c5	0.15358646
142	0x3dd9a18d	0.106265165
143	0x3e715d4e	0.23570749
144	0x3e9d68a5	0.307439
145	0x3eb82ead	0.3597311
146	0x3dadca09	0.08485801
147	0xbdd53e3d	-0.10412262
148	0x3df34005	0.11877445
149	0x3d38c6a1	0.045111302
150	0xbe40f690	-0.18844056
151	0xbd89fb3d	-0.06737373
152	0xbeac3f2d	-0.3364195
153	0xbee3895c	-0.44440734
154	0xbec5bc8f	-0.3862042
155	0x3e6ed07b	0.23321716
156	0xbe911b2a	-0.28341037
157	0xbcf81f3e	-0.030288335
158	0xbcdeda3c	-0.027203672
159	0x3eb01ffc	0.34399402
160	0x3eaeec63	0.34164724
161	0xbed0c23e	-0.40773195
162	0x3eeff6de	0.46868032
163	0xbef34e74	-0.47520792
164	0x3c35d9c8	0.011099286
165	0x3e91443b	0.28372368
166	0x3ef805c9	0.48441914
167	0xbe4d23a6	-0.2003313
168	0xbe65daba	-0.22446719

att_dst f4 [1, 13, 13]
0	0x3e7ca0ca	0.24670711
1	0x3ea336eb	0.31877837
2	0xbe687e8c	-0.22704524
3	0xbdacf86b	-0.084458195
4	0xbed74f8b	-0.42052874
5	0x3e3254d0	0.17415166
6	0x3df16c30	0.11788213
7	0x3e93089c	0.28717506
8	0xbe53c6e5	-0.20681341
9	0xbee7215e	-0.45142645
10	0xbea3a87c	-0.3196448
11	0xbea8fb7f	-0.33004376
12	0xbe4c06f3	-0.19924526
13	0x3e3effb3	0.18652229
14	0xbef72846	-0.48272914
15	0xbd8451f2	-0.06460942
16	0xbf1e3b28	-0.61809015
17	0xbe557cc1	-0.20848371
18	0xbf0c17ed	-0.5472401
19	0x3da5a65a	0.0808837
20	0xbee45d36	-0.44602364
21	0x3ea69f90	0.32543612
22	0x3ed069ba	0.40705663
23	0x3f1b4adc	0.606611
24	0x3ed2b899	0.41156462
25	0x3e399bd1	0.18125845
26	0xbe761ab6	-0.24033627
27	0x3e4d4933	0.20047455
28	0xbf0e27c8	-0.5552945
29	0x3e9dd307	0.30825064
30	0xbf2427dd	-0.64123327
31	0xbf0a5255	-0.5403188
32	0xbe18a1a5	-0.14905412
33	0xbe8673d1	-0.26260236
34	0xbdba46f9	-0.09095568
35	0x3e1d7b50	0.15379071
36	0xbb1701d6	-0.0023041866
37	0x3f33f29a	0.70292056
38	0xbefbd2f3	-0.4918438
39	0xbf2b72f4	-0.6697228
40	0x3ee6db19	0.45089033
41	0x3ec28884	0.37994778
42	0xbef77037	-0.483278
43	0xbefda0ea	-0.4953683
44	0x3f5ecc44	0.87030435
45	0xbed19dc4	-0.40940678
46	0x3c9249e6	0.017857503
47	0x3f29ef0d	0.6638039
48	0x3f4d0a9a	0.800943
49	0x3e7d0544	0.2470904
50	0x3e867d0a	0.26267272
51	0xbe2fea2a	-0.1717917
52	0xbf077484	-0.52912164
53	0x3d9fb080	0.077973366
54	0x3f2c5ea3	0.67331904
55	0x3f0bdc4a	0.5463301
56	0xbf31729d	-0.6931551
57	0x3f225d71	0.6342383
58	0xbd5b9132	-0.053605266
59	0x3eccce44	0.40001118
60	0x3f58e8b4	0.84730077
61	0x3c92489d	0.01785689
62	0x3d3ece31	0.04658336
63	0x3f143845	0.5789836
64	0x3e61bc6e	0.22044536
65	0xbe00e6bf	-0.12588023
66	0xbe324dae	-0.17412445
67	0x3edc1879	0.4298742
68	0x3de573c2	0.1120372
69	0xbe1584de	-0.14601466
70	0xbda46c66	-0.08028488
71	0x3da809cb	0.08204993
72	0xbe9288d9	-0.2862003
73	0x3e4e3fe1	0.20141555
74	0xbeaae58e	-0.3337826
75	0xbd82d08b	-0.06387433
76	0xbd95cf0c	-0.07314882
77	0xbe8fa03e	-0.28051943
78	0x3efb6d6b	0.49106917
79	0xbe4c753f	-0.19966601
80	0x3e8b1864	0.27167046
81	0xbf2391dc	-0.6389444
82	0x3ebf32d5	0.3734347
83	0x3ec4b678	0.38420463
84	0x3efe056b	0.4961351
85	0xbef2f33d	-0.474512
86	0x3e982e5f	0.29722878
87	0xbf402cc5	-0.7506831
88	0x3e50fa10	0.20407891
89	0x3b86374e	0.0040959483
90	0x3f133e1b	0.5751664
91	0x3ed30a6b	0.41218886
92	0x3f1c394d	0.61024934
93	0x3ddaf2fe	0.10690878
94	0x3f01c02a	0.50683844
95	0x3e2976c6	0.16549215
96	0x3ecf79a0	0.4052248
97	0xbeea59ed	-0.45771733
98	0x3da8f48c	0.082497686
99	0x3ecd8c1f	0.40145966
100	0xbf172c20	-0.59051704
101	0xbf134dda	-0.5754067
102	0xbe948e37	-0.2901475
103	0xbf040814	-0.51574826
104	0x3e93a38d	0.28835717
105	0x3f177cab	0.59174603
106	0xbd128ac1	-0.035776857
107	0x3d2cad05	0.04215719
108	0xbd92e4fa	-0.0717258
109	0x3e0e7d4c	0.13914984
110	0xbdd09748	-0.101851046
111	0xbeb601ee	-0.35548347
112	0xbea2ed93	-0.3182188
113	0x3effb9ea	0.4994653
114	0x3bad541a	0.0052895667
115	0xbe59c881	-0.21267892
116	0x3ba84334	0.0051349644
117	0xbf230e26	-0.63693464
118	0x3db4d300	0.088293076
119	0x3ec9f705	0.39446273
120	0x3e14d6a7	0.14535008
121	0x3e4f5dd3	0.20250635
122	0xbf17da06	-0.5931705
123	0xbd3dbbc0	-0.04632163
124	0x3eae458e	0.3403744
125	0xbed84f7f	-0.4224815
126	0xbd71a4db	-0.05899511
127	0x3ee97409	0.4559634
128	0x3eba4168	0.36378026
129	0x3dd0d268	0.10196382
130	0xbf019018	-0.50610495
131	0x3e88768a	0.26652938
132	0x3c243130	0.010021493
133	0xbe434367	-0.1906868
134	0x3e9f9b06	0.3117296
135	0xbf44bded	-0.76852304
136	0x3ec61988	0.38691354
137	0xbeb10d81	-0.34580615
138	0x3ed74e28	0.42051816
139	0xbaba6017	-0.0014219311
140	0x3e3b6a39	0.1830224
141	0xbe9c8a38	-0.30574203
142	0x3ec6ec28	0.38852048
143	0xbf38d5f8	-0.7220149
144	0xbe94e84f	-0.29083487
145	0x3f58fcb5	0.847606
146	0xbc7ceee9	-0.01543782
147	0x3e403822	0.18771413
148	0x3e05b67a	0.1305789
149	0x3f081322	0.53154194
150	0xbe973b46	-0.2953741
151	0x3f3dfb03	0.7421114
152	0xbf2aa3f6	-0.66656435
153	0xbe08a449	-0.1334392
154	0x3f34902b	0.7053248
155	0xbe10e945	-0.14151485
156	0x3ee3cd26	0.44492453
157	0x3ec832a8	0.39101148
158	0x3e12988c	0.14316005
159	0xbe42c308	-0.19019711
160	0x3f043b30	0.5165281
161	0xbec21049	-0.3790305
162	0x3c3204a1	0.010865361
163	0x3e6b8a3d	0.23001952
164	0x3efd7fa1	0.49511436
165	0xbef4ab74	-0.47787058
166	0x3d9a8f46	0.075468585
167	0xbe77d157	-0.2420095
168	0x3e71204c	0.23547477

bias f4 [13]
0	0xbde3a6b2	-0.11115779
1	0x3d7681f1	0.060182516
2	0xbe270383	-0.16309933
3	0x3d69a6d0	0.05704385
4	0xbd8f392e	-0.06993328
5	0xbceae9ad	-0.028675878
6	0x3cce586d	0.02518865
7	0x3c723f45	0.014785592
8	0xbcb55334	-0.0221344
9	0x3dfdc30f	0.1239072
10	0x3d1bd8fe	0.038048737
11	0x3c66155c	0.014043178
12	0xbd25054d	-0.04028826

weight f4 [169, 11]
0	0x3e12af09	0.14324583
1	0x3e063432	0.13105848
2	0xbdb14d47	-0.086573176
3	0x3e09b4de	0.13447902
4	0x3e03fccc	0.12889403
5	0xbd6f0753	-0.058356594
6	0x3e5bbd84	0.21459013
7	0x3d6479d8	0.05578026
8	0x3b8466e5	0.0040405863
9	0x3e102219	0.14075507
10	0x3e0cd056	0.13751349
11	0x3cfa9114	0.030586757
12	0x3dcdb2df	0.100438826
13	0xbb4496a5	-0.0029997018
14	0x3d03a0c2	0.032135732
15	0xbdd6412b	-0.104616486
16	0x3db6121a	0.08890171
17	0xbdb6c429	-0.08924133
18	0x3dab0da4	0.08352211
19	0x3d73847f	0.05945253
20	0x3d02e3c6	0.031955503
21	0x3d6e5f68	0.058196455
22	0xbda9f881	-0.082993515
23	0x3e04b10f	0.12958167
24	0x3d27cba6	0.0409657
25	0xbc379523	-0.011204991
26	0xbd82f7e1	-0.063949354
27	0x3d03ff5e	0.03222596
28	0x3c6a702f	0.014308973
29	0x3dae2b56	0.085043594
30	0xbbf1a332	-0.0073741907
31	0x3c3fe751	0.011712865
32	0x3de75a43	0.11296513
33	0xbe2919ce	-0.1651375
34	0x3bfac9fa	0.007653472
35	0xbcb5932a	-0.0221649
36	0xbdf74c0f	-0.12075054
37	0x3d2858fa	0.04110048
38	0xbde898e4	-0.113572866
39	0x3d032032	0.032013126
40	0xbe1f8072	-0.15576342
41	0x3ccd9a49	0.025097983
42	0xbdfc5007	-0.123199515
43	0xbd2b711b	-0.041855913
44	0x3d0d8d00	0.034558296
45	0x3e20e39c	0.15711826
46	0x3dd125b4	0.102122694
47	0xbda9ec6f	-0.08297049
48	0x3d8f91f9	0.07010264
49	0x3d296492	0.041355677
50	0x3dbf6f25	0.09347371
51	0xbd223485	-0.039600868
52	0x3d5d60cf	0.054047402
53	0x3e1da206	0.15393838
54	0x3b8bdc49	0.0042682034
55	0xbe0f781a	-0.14010659
56	0x3d661af4	0.05617805
57	0x3b2fcd13	0.0026825115
58	0xbc80ac1a	-0.015707064
59	0x3e046868	0.12930453
60	0x3ac3aa0c	0.0014927997
61	0xbc07967e	-0.008275626
62	0xbd4879c6	-0.048944257
63	0x3c80c206	0.015717518
64	0xbd2b401f	-0.041809198
65	0x3d4f872f	0.05066603
66	0xbd0e07ef	-0.034675535
67	0xbc9c3cb8	-0.019071922
68	0xbe03a37c	-0.12855333
69	0x3d20b204	0.03923227
70	0x3c329485	0.010899668
71	0xbe072575	-0.13197882
72	0x3ce61cd0	0.02808991
73	0xbda2d7df	-0.079513304
74	0x3d9d1291	0.07669557
75	0xbdedf8e5	-0.116197385
76	0xbd9b7e74	-0.075924784
77	0x3e42a021	0.19006397
78	0xbdab75a9	-0.08372051
79	0x3e145824	0.14486748
80	0x3dd8b1ae	0.10580765
81	0x3e2b90c7	0.16754447
82	0x3d118fec	0.035537645
83	0x3dbe1552	0.0928141
84	0x3e108e8e	0.1411688
85	0x3dbd9113	0.09256186
86	0x3e3d7547	0.18501769
87	0x3b2e972b	0.0026640396
88	0xbcd981a3	-0.026551073
89	0x3e1e7699	0.15474929
90	0xbd453ad1	-0.048151795
91	0xbd3d33e6	-0.046192072
92	0xbd057312	-0.032580443
93	0x3c19ecf4	0.009394873
94	0xbc745ede	-0.014915196
95	0x3c4413b7	0.011967591
96	0x3ddf821b	0.109134875
97	0xbd287a8a	-0.041132487
98	0x3e096362	0.13416818
99	0x3db5c7e0	0.08876014
100	0x3dff66a8	0.12470752
101	0x3d6c095a	0.057626106
102	0x3ddf8f7e	0.10916041
103	0xbd19685c	-0.03745304
104	0x3d1edab4	0.03878279
105	0xbc76aa86	-0.015055304
106	0x3c33b85b	0.010969247
107	0xbd0fa76c	-0.035071775
108	0x3e5b17d9	0.21395816
109	0xbb8d4751	-0.00431148
110	0x3cd2f48a	0.025751371
111	0x3de38e5b	0.111111365
112	0xbd278125	-0.040894646
113	0xbde24c06	-0.110496566
114	0xbd3e8309	-0.046511684
115	0xbd8f97ba	-0.070113614
116	0x3d24f1a5	0.040269513
117	0xbe01e6bb	-0.12685673
118	0xbd17f5db	-0.0370997
119	0x3d376894	0.044777468
120	0x3c2d5880	0.010580182
121	0x3d19d1a5	0.03755345
122	0x3d96dee5	0.073667325
123	0x3da4ea22	0.0805247
124	0x3e1f2468	0.15541232
125	0x3e1eb258	0.1549772
126	0x3d66cb12	0.056346007
127	0xbd896c5d	-0.06710122
128	0x3da4b2a9	0.08041889
129	0x3d10bebf	0.03533816
130	0x3d8dbfdd	0.06921361
131	0x3d082576	0.03323885
132	0x3d23e38e	0.040011935
133	0x3e0975b3	0.13423805
134	0xbce8e9f3	-0.028431868
135	0xbd5930cd	-0.053025056
136	0xbacb1a19	-0.0015495449
137	0x3a81b6ba	0.0009896376
138	0x3dfb4142	0.12268306
139	0xbcd331c9	-0.025780575
140	0x3d28ac0a	0.041179694
141	0x3cfff101	0.03124285
142	0xbbc452ff	-0.005991339
143	0x3dafa56e	0.08576475
144	0xbbc89956	-0.0061217947
145	0x3d7d70a4	0.061875
146	0xbd1a59ca	-0.037683286
147	0x3c3e5818	0.011617683
148	0x3d18ba08	0.03728679
149	0x3d42ea15	0.04758652
150	0xbbb7959b	-0.005602551
151	0x3cd0e9cf	0.025502114
152	0xbd971933	-0.07377853
153	0xbd859aff	-0.06523704
154	0xbd88d7cb	-0.06681784
155	0xbbf1f51e	-0.0073839566
156	0xbe27f9e0	-0.16403913
157	0x3e01883b	0.12649624
158	0xbdab73fc	-0.08371732
159	0xbdb0db0f	-0.08635532
160	0x3d12e394	0.035861567
161	0x3ddca869	0.10774309
162	0xbd35cb00	-0.04438305
163	0x3dbbeed6	0.09176414
164	0xbda0eed9	-0.078580566
165	0x3d73f8e0	0.059563518
166	0x3cd67333	0.026177978
167	0xbd7ddd3b	-0.06197856
168	0xbbfdbcea	-0.0077434676
169	0x3d701ab4	0.058619216
170	0x3cd396c5	0.025828728
171	0x3e0f6c5f	0.14006184
172	0x3dec32a9	0.115331
173	0xbd0fc2aa	-0.035097755
174	0xbdb5e4b0	-0.08881509
175	0xbd28a833	-0.041176032
176	0xbd39a53b	-0.04532359
177	0x3c74d4de	0.01494333
178	0xbdec5d81	-0.11541272
179	0x3c9bbb1b	0.019010117
180	0x3dbf7fc1	0.09350539
181	0x3da5eab0	0.08101404
182	0xbd3dbfc3	-0.046325456
183	0x3cee76e2	0.029109422
184	0x3cb750a3	0.022377318
185	0x3d7a652a	0.061131634
186	0x39c24fb6	0.00037061953
187	0xbd84fded	-0.06493745
188	0x3dca23e3	0.09870126
189	0xbbdef4ab	-0.006804069
190	0x3caa2dca	0.020773787
191	0xbd077922	-0.033074506
192	0x3cdeb77c	0.027187102
193	0x3cbbe424	0.022935934
194	0xbe10c624	-0.14138085
195	0xbdb88447	-0.09009605
196	0x3c9e6e39	0.019339668
197	0x3dc39437	0.09549754
198	0x3de5af34	0.11215058
199	0xbde4e0bf	-0.111756794
200	0xbe20526a	-0.15656438
201	0x3d0f1aa2	0.03493751
202	0xbbb3ef9c	-0.00549121
203	0xbd323cc0	-0.043514967
204	0xbdcb9534	-0.099405676
205	0x3c5f0c00	0.013613701
206	0xbda2f563	-0.0795696
207	0x3da1a46c	0.07892689
208	0xbe42ccc0	-0.19023418
209	0x3d6aaa4b	0.05729131
210	0x3cdc7d4e	0.026915219
211	0xbdcfc282	-0.10144521
212	0x3d3fcdcc	0.046827123
213	0xbddab8c8	-0.106797755
214	0x3e008521	0.12550785
215	0x3d8a71f1	0.06760014
216	0x3d4f03c6	0.050540708
217	0x3d1eba8a	0.038752116
218	0x3cd1f14a	0.02562775
219	0x3da12e5d	0.07870171
220	0xbce54f5b	-0.027991941
221	0xbe42a671	-0.19008805
222	0x3cbce0bf	0.023056386
223	0xbd0f76c7	-0.035025384
224	0xbdfe03d5	-0.12403075
225	0xbd80d16e	-0.062899455
226	0x3c94805c	0.018127613
227	0xbe2bc2b9	-0.167735
228	0xbe0b91ef	-0.13629888
229	0x3e139228	0.14411223
230	0xbd9655dd	-0.07340596
231	0x3da395e2	0.07987572
232	0xbd1d86c0	-0.038458586
233	0x3cfa2937	0.03053723
234	0x3dafd6f2	0.085859194
235	0xbc8aa3a0	-0.016923726
236	0xbc5cf3fd	-0.013485906
237	0x3df443e1	0.119270094
238	0x3dba6140	0.0910058
239	0xbc885370	-0.016641349
240	0xbe2aa8d6	-0.16665968
241	0x3ddca09f	0.107728235
242	0x3ceee24a	0.029160637
243	0x3d46616c	0.048432752
244	0xbd65133f	-0.055926558
245	0xbd43e955	-0.047829945
246	0x3d5d1335	0.053973395
247	0xbcca9b0e	-0.024732139
248	0x3e345911	0.17612101
249	0x3ba0d476	0.00490814
250	0x3c77fb2e	0.0151355695
251	0x3dba0b26	0.09084158
252	0xbcdfa44d	-0.027300024
253	0xbd540796	-0.051765047
254	0x3d105776	0.03523966
255	0x3e2373a1	0.15962078

weight f4 [13, 13]
0	0x3c96e402	0.01841927
1	0xbde3230d	-0.1109067
2	0x3d99546b	0.074868046
3	0xbc8eb0fc	-0.017418377
4	0x3d9057bf	0.07047986
5	0xbd0795a5	-0.033101697
6	0x3cace231	0.02110395
7	0xbd92c4a5	-0.07166413
8	0x3bba5de1	0.005687461
9	0xbd787775	-0.060660798
10	0xbd5adcd7	-0.053433266
11	0xbd983aad	-0.074330665
12	0xbd79e629	-0.061010513
13	0x3cd9293b	0.026508918
14	0xbdd9ea25	-0.10640363
15	0x3c6ee127	0.014580048
16	0xbc9a4b12	-0.018834624
17	0x3d391682	0.04518748
18	0xbc02a173	-0.007973063
19	0x3d8dd52e	0.069254264
20	0x3cac1953	0.02100817
21	0x3d805e1a	0.062679484
22	0xbcce9e1a	-0.025221873
23	0xbd89538f	-0.06705391
24	0xbd4ca689	-0.049963508
25	0xbd4ec96c	-0.05048506
26	0x3d479176	0.048722707
27	0xbdc91ad9	-0.09819574
28	0x3cea200c	0.028579734
29	0x3a1c57bd	0.0005964002
30	0x3d8175f9	0.063213296
31	0xbc942487	-0.018083824
32	0x3d28f3ef	0.04124826
33	0xbcdedf03	-0.02720595
34	0x3c514a8e	0.012774123
35	0xbd7c9bbc	-0.061671957
36	0xbd8ec518	-0.069711864
37	0xbd8bcebb	-0.0682654
38	0xbcdbc148	-0.026825562
39	0x3c655aa2	0.013998659
40	0xbd7a36b6	-0.061087333
41	0x3d09eaa8	0.03367105
42	0xbd49729c	-0.049181566
43	0x3d4be0c8	0.049774915
44	0xba6347b7	-0.0008670049
45	0x3d88c538	0.066782415
46	0x3bf7087a	0.0075388523
47	0x3d674c0b	0.056469005
48	0xbd40797c	-0.046990857
49	0xbd7b4ada	-0.06135068
50	0xbcd7806d	-0.026306355
51	0xbd804e50	-0.06264937
52	0x3d1dbb92	0.03850896
53	0xbdb2bf74	-0.08727923
54	0x3d1ea7bc	0.038734183
55	0xbd221a3c	-0.0395758
56	0x3d5abc16	0.05340203
57	0x3cb63cf8	0.022245869
58	0x3d9d87af	0.07691895
59	0x3a0c4bb5	0.00053518574
60	0x3d1710f7	0.036881413
61	0xbd9044bf	-0.07044362
62	0xbd7d0e4b	-0.06178121
63	0xbd40c366	-0.047061346
64	0xbc8c35cf	-0.017115502
65	0x3d082482	0.03323794
66	0xbdd95619	-0.10612125
67	0x3d537851	0.051628415
68	0xbc86eaba	-0.016469348
69	0x3d28b9e7	0.041192915
70	0xbc5ed789	-0.013601192
71	0x3d10eac0	0.035380125
72	0xbd209f2e	-0.039214306
73	0x3d5bea3d	0.053690184
74	0xbd808206	-0.062748
75	0xbd62c46f	-0.055363115
76	0xbd47326d	-0.048632074
77	0xbd33bc2b	-0.043880623
78	0xbbcbed85	-0.006223383
79	0xbd4f8ac3	-0.050669443
80	0x3d9ce164	0.07660177
81	0xbd1d881b	-0.03845988
82	0x3d8823be	0.06647442
83	0x3c4b95a6	0.012425816
84	0x3dd9b6cb	0.10630568
85	0xbc123341	-0.008923353
86	0x3cd8a241	0.026444556
87	0xbd8a0746	-0.067396685
88	0xbd7f5698	-0.06233844
89	0xbcf80763	-0.03027696
90	0xbd844ca9	-0.06459934
91	0x3d17939e	0.037006013
92	0xbdff738a	-0.12473209
93	0x3ca4a179	0.020096527
94	0xbc585814	-0.013204593
95	0x3d2c0635	0.041998107
96	0xbcc5332d	-0.024072254
97	0x3d1b9b25	0.037989754
98	0xbb27ae3a	-0.0025586025
99	0x3d459cf9	0.048245404
100	0xbd13ce14	-0.036085203
101	0xbd39107e	-0.045181744
102	0xbd60133a	-0.054705836
103	0xbd3fb0f9	-0.046799634
104	0xbc14bf4a	-0.00907881
105	0xbe0c9aab	-0.13730876
106	0x3ce1d291	0.027566226
107	0xbce0e6ee	-0.027453866
108	0x3d1c81f5	0.038209874
109	0x3cb80493	0.022463119
110	0x3c8d1402	0.017221455
111	0xbda7993e	-0.081835255
112	0x3ce2a29b	0.027665427
113	0xbcf13807	-0.029445661
114	0xbd435a3f	-0.047693487
115	0xbd19f097	-0.03758296
116	0xbd9b44d8	-0.0758149
117	0x3d2d7515	0.042347986
118	0xbda952b0	-0.082677245
119	0x3bb3a5cb	0.0054824105
120	0xbd1154a4	-0.03548111
121	0x3d6636ac	0.056204483
122	0x3c6405f0	0.013917431
123	0x3da1801b	0.07885762
124	0x3c064707	0.008195645
125	0x3d62d345	0.055377264
126	0xbd3e603e	-0.046478502
127	0xbd84f182	-0.064913765
128	0xbd12cdf6	-0.03584095
129	0xbd172e4c	-0.036909387
130	0x3d36d969	0.044640932
131	0xbdcac2ea	-0.09900458
132	0x3ca952b8	0.020669326
133	0xbc876f74	-0.016532637
134	0x3d59062c	0.0529844
135	0xbcd3bc22	-0.025846545
136	0x3d3d4bd0	0.04621488
137	0xb9bf649d	-0.00036505322
138	0x3da8760b	0.0822564
139	0xbd55b0cf	-0.05217057
140	0xbd34ed1c	-0.044171438
141	0xbd24d1a1	-0.04023898
142	0xbdaff1ec	-0.08591065
143	0x3be86d4e	0.0070931083
144	0xbdebbd2d	-0.11510692
145	0x3d887c84	0.066643745
146	0x3cac4aee	0.021031823
147	0x3cdb2f66	0.026756
148	0xbb9480f3	-0.0045319735
149	0x3c165a0e	0.009176744
150	0xbdb53658	-0.08848256
151	0x3cd80370	0.026368827
152	0xbd436f67	-0.047713663
153	0xbda27f78	-0.07934469
154	0xbcd595bc	-0.026072375
155	0xbd8b5fd3	-0.068053864
156	0x3d20e78f	0.03928333
157	0xbda52960	-0.08064532
158	0x3d08eadd	0.033427108
159	0xbd1fdbcb	-0.03902797
160	0x3d6307c7	0.05542734
161	0x3cc228d0	0.023701102
162	0x3d94b5ee	0.07261263
163	0xbbe0b26c	-0.006857207
164	0x3d6e96a8	0.058249146
165	0xbd72de19	-0.05929384
166	0xbd89d6df	-0.067304365
167	0xbc588346	-0.013214892
168	0xbd9ae0aa	-0.075623825

bias f4 [13]
0	0xbec92fb9	-0.39294222
1	0x3dda854b	0.10669955
2	0x3e18c7cb	0.14919965
3	0x3e73c4b7	0.2380551
4	0xbd273bd4	-0.04082854
5	0xbd9c9f5b	-0.07647582
6	0xbd1f90f0	-0.038956583
7	0x3e5b5adb	0.21421377
8	0xbdf3b044	-0.118988544
9	0xbd49d92f	-0.049279388
10	0x3deddde3	0.11614587
11	0xbd92104b	-0.07132014
12	0xbded445d	-0.11585305
