data/assets/GAT_trained_model.pth (torch, 36843 bytes, 10 tensors)

att_src f4 [1, 13, 13]
000000 a6 d1 78 be 93 b1 14 3e f7 1b ea be 36 54 9a 3e
       -0.24298725 0.14520864 -0.4572446 0.30142373
000010 7c 06 e9 3e 6b f0 36 3d 03 4a f6 bd 44 f1 d5 be
       0.4551276 0.044662874 -0.12025835 -0.41785634
000020 10 db 51 3e 81 ac da 3e 3c 05 ed 3e a3 68 dc 3c
       0.20493722 0.42709735 0.46293056 0.026905363
000030 e4 d8 0d 3e 3d 6e ee 3e b7 5e 89 3d e6 21 79 be
       0.13852268 0.4656848 0.067075185 -0.24329337
000040 be db f8 be 1a 9a 6e 3e 1a ef 64 3e c8 b9 f3 3e
       -0.4860515 0.23300973 0.22356835 0.47602677
000050 cf a8 67 be 4b ec 61 3e c5 1a 1a be 67 8b 17 be
       -0.22622989 0.22062795 -0.15049274 -0.14799272
000060 71 1d 4d 3e 79 d7 d9 be 40 d5 a1 3e 2f 7b 70 3e
       0.20030762 -0.42547205 0.3160801 0.23484491
000070 dd 13 91 be 70 cf 55 3e 05 9d f3 bd 24 82 d4 3c
       -0.28335467 0.20879912 -0.118951835 0.025940962
000080 86 31 00 be d1 60 f5 be d5 c1 1e bd 42 76 86 3e
       -0.12518892 -0.47925428 -0.03875907 0.262621
000090 6a f1 62 bd cc f0 79 be a7 a6 fa 3c b5 dc 7a 3d
       -0.05540601 -0.24408263 0.030597044 0.06124564
0000a0 5b 67 a6 bd ca af c9 be e6 4f 81 be d2 c1 d3 bd
       -0.08125182 -0.3939193 -0.2525627 -0.10339703
0000b0 e2 65 2e 3e 5c 15 c9 3e eb cf 5e 3c 66 82 22 3e
       0.17031053 0.39274108 0.013599376 0.15870056
0000c0 5a dc a2 3e 81 86 4a be 7f 2d 43 be 87 fe a6 3e
       0.3180874 -0.19777872 -0.19060324 0.32616064
0000d0 f1 4c a0 3e a3 b8 f0 3d 4d 95 c5 be 51 05 93 3e
       0.31308702 0.11753967 -0.3859047 0.28714994
0000e0 64 df c0 be 12 8b 75 3e 73 37 95 3d 46 6d 10 3e
       -0.37670434 0.23978832 0.07285967 0.14104185
0000f0 02 c1 f1 be ab 1c 23 be 94 2e 5c 3e 47 a9 c1 3e
       -0.47217566 -0.15928905 0.21502143 0.3782446
000100 b5 d5 23 be a0 5e de 3e 78 ef c8 bd e1 1f 97 be
       -0.15999492 0.43431568 -0.098113 -0.2951651
000110 bf ab 62 be c9 f3 28 3d 1a 5c a1 bd 62 da 6e 3e
       -0.22135828 0.041248117 -0.07878895 0.23325494
000120 7b 7b 97 be 32 5a 85 bd b0 f4 fe be 67 d3 ca 3e
       -0.29586396 -0.06511344 -0.49796057 0.39614412
000130 58 f8 a2 bd fe 6e b6 be 65 5f 07 bd 4f b1 70 3c
       -0.07957524 -0.35631555 -0.03304996 0.014690711
000140 e6 eb fe 3d c0 05 3d bd 0d 0f 9a 3e 61 62 1c be
       0.12447338 -0.04614806 0.30089608 -0.15271904
000150 09 b4 15 be 8c 01 dc bd e1 8b 95 3d 23 44 cd 3e
       -0.14619459 -0.107424825 0.073020704 0.40091047
000160 f5 d5 9e bc 5e 76 b8 3e d8 26 c4 3e 07 d5 80 be
       -0.019389132 0.36027807 0.38310885 -0.25162527
000170 03 32 a9 bc a6 4b 7b be bf ff 67 3e 1b d2 2d be
       -0.02065373 -0.24540576 0.22656153 -0.1697468
000180 89 42 10 3e bd 74 0e 3d dd a9 a2 be c0 2c bf be
       0.14087881 0.0347793 -0.3177022 -0.3733883
000190 a1 07 d2 be f9 60 a2 be 5b 15 d3 3d 6d 10 8a 3d
       -0.41021445 -0.3171461 0.103068076 0.06741414
0001a0 c8 b8 c0 3e 3e e9 cc be c4 46 10 b9 22 b1 e6 be
       0.37640977 -0.400217 -0.00013759272 -0.45057017
0001b0 9f 8d 1d bc 65 b9 3f 3e 2e 44 cc be 21 41 dd 3e
       -0.009616285 0.18723066 -0.39895767 0.43213752
0001c0 a8 b3 03 be cf 03 00 3f 62 d6 35 bd d3 91 9f 3e
       -0.12861502 0.5000581 -0.044393905 0.31165943
0001d0 38 3d d9 3e 6e df 2b be c6 18 bb bd a2 15 72 3e
       0.4242952 -0.1678445 -0.091355845 0.23641065
0001e0 96 72 d7 be fd b6 85 3e e0 88 a1 be bd 7a e9 3e
       -0.4207961 0.2611617 -0.3154974 0.45601454
0001f0 0f 93 ab be 1a 3d 3c be b0 1a b3 3e 25 20 19 be
       -0.33510634 -0.18382683 0.34981298 -0.14953668
000200 f1 4c e4 3e 17 c2 b3 3e e4 84 e0 3e 32 34 fe be
       0.44589952 0.35109016 0.43851388 -0.49649197
000210 5f 5b 23 3c 72 89 32 be 1c a3 38 3e 9f 46 c9 be
       0.009970515 -0.17435244 0.18030971 -0.39311692
000220 30 62 43 3e 3a b3 b5 bc ac 6d 7c be c7 a6 d2 be
       0.19080424 -0.022180188 -0.24651212 -0.41142866
000230 74 0d 86 3e af 2b 2d be d4 20 ae 3e fd d2 ec 3d
       0.2618214 -0.16911195 0.3400942 0.1156368
000240 23 ac 2f 3e f6 5a a8 bd a9 24 8c bd fc be 1e be
       0.17155509 -0.082204744 -0.0684293 -0.15502542
000250 0d 44 e1 be 56 87 9e 3e a8 9c 94 be 14 16 90 3e
       -0.4399723 0.30962628 -0.2902577 0.28141844
000260 62 8b 06 be cb f1 8f 3e 65 24 d5 3e 92 c2 a4 be
       -0.13139108 0.2811416 0.4162933 -0.32179695
000270 ed d6 c1 3e 99 44 30 3d 74 9b eb be 8c 68 4f 3e
       0.37859288 0.04303417 -0.4601704 0.20254725
000280 af 66 8e 3e 76 70 e2 3e 91 53 f4 be 03 77 d6 3e
       0.27812716 0.44226426 -0.47720006 0.41887674
000290 10 3f af 3e 42 9b f5 3e 49 e2 88 3e 63 09 50 be
       0.342278 0.47970015 0.26735142 -0.20316081
0002a0 ad f3 bc 3e
       0.3690466

att_dst f4 [1, 13, 13]
000000 a8 8d 00 3f a3 09 cf be 9c 65 10 3e be e9 f1 3e
       0.5021615 -0.4043704 0.14101261 0.47248644
000010 82 dc dd 3e 30 7c f1 3d 22 c8 75 3e cf c5 ef bd
       0.43332297 0.11791265 0.24002126 -0.11707651
000020 21 02 64 be e9 0f 1b bd ad 98 80 3e 1a 4c 5c 3e
       -0.22266437 -0.03785697 0.25116482 0.21513405
000030 29 0d 16 bf 58 1e e0 bd 29 c5 c4 be 70 f0 da be
       -0.5861383 -0.109432876 -0.3843167 -0.42761564
000040 4a 67 dc 3e 80 f4 8d be 3d 07 16 3e 95 b0 34 be
       0.43047553 -0.277256 0.14651199 -0.17645486
000050 4a 0a 1c be 34 5e 1c bd 56 88 e7 3e 0d 5d d4 bd
       -0.152383 -0.038175777 0.45221204 -0.103693105
000060 f1 1f e9 3e 78 55 72 3e d2 4b be 3e f9 47 89 be
       0.45532182 0.23665416 0.3716722 -0.26812723
000070 ef 15 cd be 3d c1 10 bf 3a af e1 be fa 80 d5 be
       -0.40055797 -0.5654486 -0.44079 -0.41699964
000080 30 56 3e be 10 09 2b 3f 67 d6 be bc ef d1 c2 bd
       -0.18587565 0.66810703 -0.023295594 -0.09512698
000090 fc 94 c5 bd 1b 5f b8 3d 84 4a ba 3e e1 4e ad 3e
       -0.09647557 0.09002515 0.36384976 0.33849242
0000a0 cd d8 c2 be 71 d9 bd 3c e9 88 60 3e b4 87 93 be
       -0.3805603 0.023174973 0.21927227 -0.2881447
0000b0 08 ad de 3e 97 ea 90 3e 06 21 c7 be c9 3c 3b be
       0.43491387 0.28303978 -0.38892382 -0.18284906
0000c0 56 7e 09 be f5 ab 0c 3e 85 28 02 be c1 99 bc 3e
       -0.134271 0.13737471 -0.1271077 0.36836055
0000d0 1f 6b a1 be 34 09 23 be 27 07 38 be 04 78 c4 bb
       -0.3152704 -0.1592148 -0.17971478 -0.0059957523
0000e0 ec 9b 22 3d 2d 05 b1 bd 68 ee 9f 3e d1 04 b6 be
       0.03969948 -0.08643565 0.31236577 -0.3555055
0000f0 19 ca 7f 3d 62 96 94 be 8b 09 c8 be e2 4e 1a bf
       0.062448595 -0.29020983 -0.3906978 -0.60276616
000100 5c 3d 23 be bb 08 c1 be 10 75 81 3e 26 9b 03 be
       -0.15941375 -0.37701973 0.25284624 -0.12852153
000110 76 13 40 3e f7 9e 42 be 6c 6d 90 bd 55 78 fb 3c
       0.18757424 -0.19005953 -0.070521206 0.030697027
000120 bf ad a1 3e bc ca 01 be 19 b6 5e 3e de e1 be 3d
       0.3157787 -0.12674993 0.21749152 0.093204245
000130 c2 aa ac 3e d6 99 aa 3e 82 b9 c9 3e 50 fb 04 bb
       0.33724028 0.33320493 0.39399344 -0.0020291395
000140 5d 01 a0 bc 29 c6 9a 3e 47 b9 e6 3e ad a6 8a bd
       -0.0195319 0.3022931 0.4506323 -0.06770072
000150 5e f8 ac 3e 9c 33 9f be c8 9e cf 3e 3f ec 46 bd
       0.3378324 -0.31094062 0.40550828 -0.048565146
000160 8a de 62 be 0e 45 56 be e9 6b 83 be b6 f5 18 3e
       -0.22155204 -0.2092478 -0.25668266 0.14937481
000170 8c 28 9f be 11 d7 1d be 2e ef 31 3a 39 fc 95 be
       -0.31085622 -0.15414073 0.0006787655 -0.29293993
000180 46 63 2b 3d 0b 82 88 bd a1 f0 37 3e 79 64 b3 3e
       0.04184272 -0.06665429 0.17962886 0.35037592
000190 3a c2 98 be 28 93 5e 3e a5 61 9f bd 2a e9 89 be
       -0.29835683 0.21735823 -0.07782296 -0.26935703
0001a0 b4 4d 22 be 76 8a b7 3d de 09 9b 3d 58 e9 a2 3c
       -0.15849954 0.08961956 0.075702414 0.019886658
0001b0 e4 8d 34 be 2d 25 32 3e d3 b6 06 3e 99 af dc be
       -0.17632252 0.17396994 0.1315568 -0.4310272
0001c0 78 bd f9 bc 05 4b 29 bd 3f 36 5c be de e3 41 be
       -0.030485854 -0.04133131 -0.21505068 -0.1893458
0001d0 36 ba aa be 2e 8c e0 3e df bd ae be 1f c2 ec 3e
       -0.33345193 0.4385695 -0.34129235 0.46241853
0001e0 56 df 9c be f0 28 46 be f4 98 3f be 6f 0a 2d be
       -0.30639142 -0.19351554 -0.1871069 -0.16898511
0001f0 8e 04 49 3e 8c 6f 8c 3e 5b 9c b5 be 34 12 18 be
       0.19630644 0.27428854 -0.35470852 -0.14850694
000200 a4 7f 73 3e d0 e5 dc bc d3 89 86 3e 84 cb 7c 3e
       0.2377916 -0.026965052 0.26277027 0.2468701
000210 c9 a9 82 bd 10 5c 1a be 46 b5 2f 3e 0f 1c 23 be
       -0.0638004 -0.15074182 0.17158994 -0.15928672
000220 1c e2 85 be fb f5 19 be 44 7a b3 be d8 38 e7 3e
       -0.2614907 -0.1503524 -0.3505422 0.45160556
000230 7f 5a 1e bc 9d e2 33 3e e2 c7 6b 3d 25 fd a1 be
       -0.009665131 0.17566915 0.05756367 -0.31638446
000240 d7 cb 98 3e 57 49 88 bc 63 e9 21 be dd 79 03 3f
       0.29843017 -0.016636534 -0.15811686 0.51357824
000250 5a a1 77 be 73 34 0e 3e c1 c0 c8 be 53 65 82 3e
       -0.24182644 0.13887195 -0.3920956 0.2546793
000260 ce fe 00 3e b9 41 ac be 68 59 a9 3e e3 da 89 3c
       0.125972 -0.33643892 0.33076024 0.016828006
000270 a4 c6 92 be 1a 81 ee 3e c9 35 1c 3d df 8e 13 3e
       -0.28667176 0.46582872 0.03813723 0.1440997
000280 6d b5 64 be ed 63 1a bd 28 a3 f5 be be 09 b0 3e
       -0.22334833 -0.037692953 -0.4797604 0.34382433
000290 09 83 4b 3c b1 57 4b be cc 98 ec 3e 83 4f 55 3e
       0.012421378 -0.1985767 0.46210325 0.20831113
0002a0 63 d0 93 bd
       -0.07217481

bias f4 [13]
000000 81 8e 30 bc 95 f2 d9 3c 06 36 5f bb 4a ca 1a bc
       -0.010776163 0.02660493 -0.00340593 -0.0094476435
000010 8e 4b 81 bc 16 a6 90 bc 61 17 8c 3d ce 62 92 bd
       -0.015783098 -0.017657321 0.06840397 -0.07147752
000020 b7 71 36 bd 5f a8 95 3c 04 d0 57 bd df 87 80 3c
       -0.04454204 0.018268762 -0.052688614 0.015689788
000030 de 84 e5 3b
       0.0070043644

weight f4 [169, 9]
000000 de 7a 98 3d b3 2d 03 3e 49 ab 3d 3e 36 55 66 3c
       0.0744531 0.12810402 0.18522371 0.014058402
000010 de b2 4f bd 99 99 46 bd 26 3c b9 3c 26 f3 2a 3c
       -0.05070769 -0.048486326 0.022611689 0.010433948
000020 01 de 63 bc 92 ce 95 3d 55 89 9e 3d b2 39 17 be
       -0.01390791 0.07314791 0.07741038 -0.14768103
000030 d6 a6 ae bd 09 3d 84 bd 62 b5 2b be 42 88 fb 3c
       -0.08527915 -0.06456954 -0.16768411 0.030704621
000040 d9 03 59 bc d4 07 26 bd 23 83 2f bd 30 79 42 bd
       -0.013245546 -0.04053481 -0.04284967 -0.047478855
000050 76 ea 1d 3e b4 d3 1b 3d c8 b7 31 3e c6 1b 13 3d
       0.15421471 0.038043693 0.17355263 0.03591516
000060 ce de c6 3c b9 17 2b 3d 20 f9 5b 3d e8 1c 15 be
       0.024276163 0.04177067 0.05370438 -0.14561808
000070 fa a8 bc bd f8 8f 48 bd 7b 09 42 3c 97 d0 5c 3d
       -0.09211917 -0.048965424 0.011843081 0.053909864
000080 85 d6 f0 3d 86 04 2b 3e 79 0d c0 3c 55 0d d7 bd
       0.11759666 0.16700944 0.023443924 -0.1050059
000090 fb 29 35 be 72 26 09 be 98 bd b4 bd fd 49 71 3d
       -0.17691796 -0.13393572 -0.08825225 0.05890845
0000a0 c4 78 f6 3d 0e 47 39 3e fc 27 4d bd ff db 05 bc
       0.12034753 0.18093511 -0.05008696 -0.008170127
0000b0 6f 40 88 bd 29 ab 2b bd 90 b3 83 3d d4 10 ee bc
       -0.06652915 -0.041911278 0.06430733 -0.029060759
0000c0 dd 5e 5f bd 1e a9 9a 3c 97 15 69 3d d6 17 39 bd
       -0.054533828 0.01887947 0.056905355 -0.045188747
0000d0 f9 a1 8d bd 34 6e 30 3d a5 16 e8 3b 99 e8 c3 bd
       -0.069156595 0.043073848 0.0070827776 -0.09565849
0000e0 66 a4 98 3d 7a fa 85 3c 5e 7a cb bc 4e ea ff bd
       0.074532315 0.016354788 -0.024838623 -0.12495862
0000f0 b8 74 34 bd 7f 64 45 be 01 12 dc 3c 6c 5f af 3c
       -0.044056624 -0.19276617 0.026864054 0.021407805
000100 ce 76 02 3e 03 c0 c9 3b 0d bc 76 3c f2 2b ad 3d
       0.12740633 0.006156923 0.015059483 0.084556475
000110 0f 8d 32 3e 4a 05 b1 bd 3a 8d f4 3d d4 4e 8a 3d
       0.17436622 -0.08643587 0.11940999 0.067533165
000120 cb b1 17 be f5 6a 93 3d 91 70 72 bd 92 c4 6f bc
       -0.14813916 0.07198135 -0.059189383 -0.014634268
000130 47 82 07 be 3a f9 2a be 17 43 78 3d f9 bc 4a be
       -0.1323329 -0.16696635 0.060610857 -0.1979865
000140 c8 6c 93 3d b4 96 0e be 7d 02 71 3a ea e5 22 bd
       0.07198483 -0.13924676 0.0009193791 -0.039770044
000150 44 b6 d6 3d 0a e9 ec bd 98 cc 4f 3d db ec 02 3d
       0.10483983 -0.11567886 0.050732225 0.031964164
000160 12 a0 e7 3d e7 a8 02 bd 8d 1d 04 3b 3a 00 1c be
       0.11309828 -0.03189936 0.0020159215 -0.15234461
000170 c6 10 15 be 0d 32 f7 3d 97 e5 29 be a0 d7 35 bd
       -0.1455718 0.12070093 -0.16591488 -0.04439509
000180 ce 99 35 bd bf 16 66 3e 53 72 a3 bd f2 9c 28 be
       -0.044336133 0.22469614 -0.0798079 -0.1646612
000190 e0 f6 bf bd 63 17 81 3d 46 21 65 3d b7 08 0f 3e
       -0.093732595 0.06303289 0.055939935 0.13968168
0001a0 b1 70 13 bd e8 dd e1 3d a7 01 32 be 2f ce 57 ba
       -0.035996143 0.110286534 -0.17383443 -0.0008232323
0001b0 fe e3 10 3d df 7f ae 3d 21 de f9 bd 6e a7 04 bd
       0.03537368 0.08520483 -0.12200571 -0.032386236
0001c0 f1 14 6d 3d a3 fb 02 be 69 fb 22 be c6 0a 01 be
       0.0578813 -0.12791304 -0.15916218 -0.12601766
0001d0 4b 34 27 3d 0e 9a 08 3e 79 ba 4b 3d 43 3d ce bc
       0.040821355 0.13340017 0.04973838 -0.025175696
0001e0 db 10 2b 3d f9 a0 d6 bd ed 2b 31 3d 9b 0e 24 bc
       0.04176412 -0.10479922 0.04325478 -0.010013248
0001f0 5b fd 9f bd 43 db 34 3e ad 78 88 bd fb 2a b3 3c
       -0.078119956 0.17661767 -0.06663642 0.02187108
000200 fc f4 99 bd 0e ec 2a 3d c0 1b 47 bd 08 94 b4 3d
       -0.0751743 0.041729026 -0.04861045 0.08817297
000210 46 37 a3 bd 24 33 ee 3d b0 8b d0 bd 61 cb 01 3e
       -0.07969527 0.11630848 -0.10182893 0.12675239
000220 57 f7 0f be a0 e4 c8 3d 13 34 92 bd d7 4b 56 3c
       -0.14059196 0.09809232 -0.071388386 0.013079605
000230 59 7b 03 bd 65 d2 01 3e 0d 99 13 3d 65 2f 60 be
       -0.032100055 0.12677915 0.036034632 -0.2189308
000240 9f 9c 9f 3c 2d 69 ff bd f1 cb 0f 3e 56 9f d8 3c
       0.019483862 -0.124712326 0.14042641 0.026443165
000250 bd 2d 48 bd 58 da c4 bd 0b 63 cf 3d 39 d2 ce bd
       -0.048871744 -0.09611958 0.10126313 -0.100986905
000260 83 98 80 3d aa 81 a7 3d f7 6a d5 3d 2e 2f ca 3c
       0.06279089 0.08179028 0.104207925 0.0246807
000270 2e a5 3e be 78 2b 2a 3e d7 52 55 bd 54 04 18 bd
       -0.18617699 0.16618145 -0.052080955 -0.037113503
000280 d5 e5 5a bd 28 c5 68 3d d6 2a 36 3e c1 5f e2 3d
       -0.05344184 0.056828648 0.17789778 0.1105342
000290 45 7b 16 3e 4a b1 0c be 13 01 89 3c d4 e4 3d be
       0.14695461 -0.13739505 0.016724145 -0.18544322
0002a0 dc ce 41 3d 4e ef 0f be 04 97 4e bd a5 9c 32 3e
       0.047316417 -0.14056131 -0.05043699 0.17442568
0002b0 b8 56 66 3e af 70 d4 bd 19 80 bd bd 62 34 83 3c
       0.22494018 -0.10373055 -0.09252948 0.016016189
0002c0 b3 b1 8d 3d 0d fa 4c bd c4 78 80 bd 87 6e e7 bd
       0.06918659 -0.050043155 -0.06273034 -0.11300378
0002d0 b4 a1 bb 3c bd 6f 30 3e 2b 40 b7 bd 44 a4 f1 3d
       0.022904254 0.17230125 -0.08947786 0.11798909
0002e0 ce 98 f7 3d 70 a0 24 3e bb a8 96 bc 3b c6 a5 3c
       0.12089692 0.16076827 -0.018391004 0.020236125
0002f0 fa 16 1a 3e 87 33 7a 3d a5 3b 18 3e 43 76 03 be
       0.15047827 0.061084297 0.14866503 -0.12838082
000300 d1 ad 43 3d 11 de 2b 3e 3f 94 a1 bd 33 a0 80 3d
       0.047773186 0.1678393 -0.07889604 0.062805556
000310 1b 7b 88 bd e0 8e a6 3d 8d f0 85 bd 47 9f d7 bb
       -0.066641055 0.0813272 -0.06540022 -0.0065802666
000320 c5 6a a7 3d 6b 57 70 be 12 8d 3a be 0b bf f1 bd
       0.081746615 -0.23470847 -0.18217877 -0.11804017
000330 c0 29 e8 3d 3a d6 14 3e 0c 07 dd bd 61 04 ae 3c
       0.11336088 0.14534846 -0.1079236 0.021242322
000340 16 e9 e9 bd 7c ff f0 bd c1 c1 10 3e 01 33 c7 3d
       -0.11421411 -0.1176748 0.14136411 0.09726525
000350 11 16 3f bd 46 02 c7 3d 79 2f ab 3d f0 ec cc 3d
       -0.046651904 0.097172305 0.08358664 0.1000613
000360 0c fc 9c bd 1f 48 d8 bd aa b7 cf 3d 38 bc 4a bc
       -0.076652616 -0.10560631 0.10142453 -0.012373976
000370 92 5e 83 3d cd d8 9b bd 5a 7b 24 3d 7f c5 ab 3d
       0.06414522 -0.07609711 0.0401567 0.08387279
000380 f4 97 19 3d 71 50 18 3d 2d 58 18 3e 5e 03 3a 3d
       0.03749843 0.03718609 0.14877386 0.045413367
000390 1d 23 9b 3d 05 c0 45 3e ce 6d 47 3e 76 11 a8 bd
       0.07575057 0.19311531 0.19475481 -0.082064554
0003a0 f5 af 2d 3e 50 c2 e8 3d 1b 35 0d bd 05 ad 14 3e
       0.16961654 0.11365187 -0.034474473 0.14519127
0003b0 74 c5 bf bd 5d 72 e0 3d 45 dd 38 3e 1d 0c cf bd
       -0.09363833 0.10959313 0.18053158 -0.10109732
0003c0 3b fa cb bd db db 27 be 26 f1 01 bd 61 6e 18 be
       -0.09959837 -0.16392462 -0.031724118 -0.14885856
0003d0 51 bf 90 bd b0 83 86 3d fc 26 ce 3d 78 07 d0 3d
       -0.07067741 0.06568086 0.100660294 0.101576746
0003e0 69 17 d0 3d 62 8f c4 3d e9 9e 07 be 81 72 60 be
       0.10160715 0.095976606 -0.13244213 -0.2191868
0003f0 3d 00 c8 3c 7f 8c 52 3e e9 1a ac bc 61 87 c1 bc
       0.024414176 0.20561408 -0.021008926 -0.023624124

weight f4 [26, 13]
000000 bb 71 05 3e 84 81 46 be 1d 5b b9 3c 8d fe 73 3e
       0.13031666 -0.19385344 0.022626454 0.23827572
000010 43 97 a1 be 52 13 fe bd 9c 77 4d bd 8b ef 98 3d
       -0.31560716 -0.12406029 -0.050162897 0.07467564
000020 a4 96 2a be 6e 81 7e be 5e 6f ad bd f5 a4 83 3d
       -0.16659027 -0.24854061 -0.08468507 0.064279474
000030 1b 9e 62 3d a7 40 47 bc a6 db 76 3d 6b c9 19 3d
       0.055326562 -0.01216141 0.060268067 0.037545603
000040 9e c7 20 3c 83 7a 3b bd 50 db f2 3d 12 81 59 3e
       0.009813217 -0.045771133 0.11858237 0.21240643
000050 2e 08 30 be 0d 6a 36 be 78 97 d9 3d 4e f6 1d be
       -0.1719062 -0.17813893 0.106245935 -0.15425989
000060 da b6 04 3e c2 8b f0 3d f4 da 9f bd e2 58 69 be
       0.12960377 0.11745407 -0.07805434 -0.22787812
000070 5e 6b 6d 3b e9 03 3b be de 9a af be 16 9c a1 3e
       0.0036227326 -0.1826321 -0.34297842 0.31564397
000080 81 68 6c be 55 0d 89 be b2 90 a4 bd 65 eb 6f 3d
       -0.2308674 -0.26767984 -0.08035411 0.0585741
000090 03 f9 52 3c ed f6 9f be 8b 2c 8f bd 88 82 25 be
       0.012876752 -0.31243077 -0.06990918 -0.16163075
0000a0 58 27 88 3e 34 66 ca 3e 07 ec 1d 3e 56 0a 1a 3c
       0.26592517 0.395311 0.15422069 0.009401878
0000b0 32 9d de 3d 11 72 17 be ff a9 70 3d e6 95 82 be
       0.108698264 -0.14789607 0.05875587 -0.25504988
0000c0 94 af 7f 3e c7 4e c7 be 80 96 0b 3e 0a da 56 be
       0.24969321 -0.3892729 0.1363163 -0.20981613
0000d0 9d 99 08 3e ff 92 2d 3d 20 00 92 3e 62 9b 02 be
       0.13339849 0.042376515 0.2851572 -0.12754586
0000e0 17 58 8d 3e 2d 59 3b be e7 72 39 be 0a eb 8a 3d
       0.2760627 -0.18295737 -0.18110238 0.067831114
0000f0 2f ad a3 bd 08 53 7b be 8c a4 64 be 29 05 91 bd
       -0.079920165 -0.24543393 -0.22328395 -0.07081062
000100 f3 f2 4e 3d 96 43 6d 3e 7f dd 62 3e 63 b6 95 bc
       0.050524663 0.23170313 0.22154807 -0.018275445
000110 5c 66 93 be df ec a4 be 9d 2d 8a 3e c5 f1 5e be
       -0.28789032 -0.32211968 0.26987925 -0.21771915
000120 b8 d7 a6 bd 37 84 9b be 5f f8 71 be ef d7 8e 3e
       -0.08146614 -0.3037431 -0.23629902 0.2789912
000130 c7 00 37 3d e6 c7 c4 ba 2d f3 1d bd ba 1a 37 3b
       0.044678476 -0.0015013188 -0.03856199 0.0027939514
000140 3f 6c 65 bc a6 51 7a bc 68 e4 e3 3d dc d2 7a 3e
       -0.014002859 -0.015278256 0.111275494 0.24494499
000150 26 28 4b 3e 43 04 ac be cf 71 87 be a3 0a cb bc
       0.19839534 -0.33597 -0.26454017 -0.024785345
000160 0a 7f 9c bd 4f 19 fa 3d d4 19 a6 3e d2 e3 0e 3e
       -0.07641418 0.122118585 0.3244158 0.13954094
000170 7f 00 5d be dd 89 6e 3c a6 18 45 3e dc 96 01 3e
       -0.2158222 0.014559236 0.19247684 0.12655205
000180 be 4a 6a be e2 7d 2c 3d 0e 34 b9 be 94 d5 7e bd
       -0.22880074 0.04211224 -0.36172527 -0.062215403
000190 d9 62 39 3e cd f0 21 be f2 c6 14 3e b3 50 81 be
       0.18104114 -0.15814514 0.14529017 -0.2525688
0001a0 2f e9 9e 3e e7 d6 11 3e 37 f1 66 3e 21 91 99 3d
       0.3103728 0.14242135 0.22552954 0.07498384
0001b0 ea 6e c1 bb c1 d5 61 be 04 7c 23 be 84 21 09 be
       -0.0059031146 -0.22054197 -0.15965277 -0.13391691
0001c0 2a c6 3c 3e 3c 19 5d bd c7 73 03 bc d9 d1 67 be
       0.18434969 -0.053979144 -0.008023209 -0.22638644
0001d0 0a 4e e5 3d a0 53 9f bc a4 f6 6f be 32 d5 5c 3d
       0.111965254 -0.019449055 -0.2343393 0.053914256
0001e0 10 ab 90 be a5 af a4 bd 6d e6 82 be 85 5d 1d 3e
       -0.2825551 -0.08041314 -0.25566426 0.15367706
0001f0 95 1e 0e be ad 54 35 3d 34 05 c8 3d a9 a2 c9 be
       -0.13878854 0.044270206 0.097666174 -0.39381912
000200 5a 5b 9f 3e 8c a4 9a 3e 60 13 51 be a3 0c 94 3d
       0.31124383 0.30203664 -0.20417547 0.07228973
000210 e2 1e ce 3d 84 95 55 3e db a0 6a 3e 2d d3 6a be
       0.10064484 0.20857817 0.22912924 -0.2293212
000220 10 b5 8e be 36 fd 74 be 52 ce 5f be ae 11 c6 bd
       -0.27872515 -0.23924717 -0.21856049 -0.09671341
000230 cd e9 70 bd 45 d1 6c 3e 0e 73 58 be 40 28 91 be
       -0.05881672 0.23126705 -0.2113764 -0.2835102
000240 7f 57 37 be 3e c4 40 be 4f cb 93 3e 51 94 e7 3d
       -0.17904471 -0.1882486 0.2886605 0.11307586
000250 21 e7 02 be 06 15 65 bd 76 2a 93 be b6 43 dc bd
       -0.12783481 -0.055928253 -0.28743333 -0.10755102
000260 54 38 23 3e 5d 65 7b 3e d9 e7 82 3e bd 36 ca bd
       0.15939456 0.24550386 0.2556751 -0.09873722
000270 7c 0f 29 be 72 85 3a be b6 cf 87 3e 75 26 8c be
       -0.16509813 -0.18214968 0.26525658 -0.2737309
000280 fd fd bb 3d fd 15 c2 3c 83 0f 73 3e 06 56 3b 3e
       0.09179304 0.023692125 0.23736386 0.18294534
000290 99 77 1d be 13 cd 89 be 74 41 da bd 33 75 5c be
       -0.15377654 -0.26914272 -0.106570154 -0.21529083
0002a0 e6 0a ec bc 23 c5 df 3d 72 45 35 3e ba 18 0d be
       -0.02881379 0.10926273 0.17702273 -0.13778964
0002b0 b4 2b 27 be 73 02 3c be a2 39 95 be 04 03 82 3d
       -0.16325265 -0.1836031 -0.29145533 0.063482314
0002c0 36 93 77 be 16 7b cc 3c f1 b3 d5 bd 94 7e 2a be
       -0.2417725 0.024961036 -0.10434712 -0.16649848
0002d0 5b ee 05 3e 29 f6 1c 3e 90 60 7e 3e 4e 69 9f 3e
       0.13079207 0.15328278 0.24841523 0.3113503
0002e0 b7 be 77 be 68 16 4f be b5 b4 46 be 7c 13 00 3e
       -0.24193846 -0.20223391 -0.19404872 0.12507433
0002f0 31 98 33 3e aa bc 3b 3e d3 a5 8e be 86 07 ef bd
       0.17538525 0.18333688 -0.2786089 -0.11671357
000300 5d fa 8d 3e f8 9e 64 be ea 47 13 be 05 c3 0d 3e
       0.27730075 -0.22326267 -0.14382902 0.13843925
000310 49 60 8d be dc d3 d3 bd ce 30 a2 3d 07 75 6c 3e
       -0.27612522 -0.10343143 0.07919465 0.23091517
000320 54 f7 1d bb 1d a6 87 be 63 c5 47 3e f9 b2 84 3e
       -0.0024103718 -0.26493922 0.19508891 0.25917795
000330 79 fd 4f be 24 c2 1c be 5c e9 2e be b8 51 17 be
       -0.20311536 -0.15308434 -0.17081207 -0.14777267
000340 54 6f e5 3d ab 20 06 3e 5f f9 9b 3d eb df a0 be
       0.11202875 0.130984 0.07615923 -0.31420836
000350 f1 2d 5d be b4 0e ab 3d f7 9a 8b bd fe dd 1b be
       -0.21599557 0.08352414 -0.068166666 -0.15221402
000360 ab c6 d9 bd 52 bb 88 3e fd a0 b1 be a3 bc 66 be
       -0.10633596 0.26705414 -0.34693137 -0.22532897
000370 71 37 81 3e 01 e2 08 be 1f 23 45 3e 23 ac 04 be
       0.2523761 -0.13367464 0.19251679 -0.1295629
000380 d2 85 6d bd 2e 63 e5 bd ff d6 65 3e 5f 4a 4a 3e
       -0.05798895 -0.11200558 0.22445296 0.19754933
000390 37 e0 8e 3d 82 6f 06 bb 96 43 04 be 25 cc 3f be
       0.06976359 -0.0020513241 -0.12916407 -0.18730219
0003a0 5d 18 01 bd 38 00 eb 3d 15 97 50 bd 37 da 8a 3e
       -0.031517375 0.11474651 -0.050925333 0.2711961
0003b0 6d f1 63 3b 67 07 ad 3c 97 6f 33 be 4d 43 9b 3e
       0.0034781352 0.021121694 -0.17523037 0.30324784
0003c0 4f ac 6c be 51 d9 56 3d 94 3d 0d 3e 5d 1f fe 3c
       -0.23112606 0.052453343 0.13793021 0.031020815
0003d0 91 3c 45 3e db 8e 8b 3d 1a 3e 65 bd f9 6c b3 be
       0.19261386 0.06814357 -0.055967428 -0.35044077
0003e0 39 d7 81 be c2 d5 97 3d c9 e5 7e 3e ff 0e b9 be
       -0.25359514 0.07413818 0.24892344 -0.36144254
0003f0 8e fc 5b bd 71 a9 06 be bd 2c 9f 3e fb 13 ce bd
       -0.05370765 -0.13150574 0.3108882 -0.10062405

bias f4 [26]
000000 22 22 a1 bd f9 cf 5e 3e 5f 5c ea 3d 66 6d 01 be
       -0.078678384 0.21759023 0.114434 -0.12639388
000010 8d 61 54 3e 3c b9 80 3d 54 99 1d bd ed 8d 81 3e
       0.20740338 0.06285331 -0.038476303 0.25303593
000020 93 5c e0 3c 36 ec 15 3e 1c 38 86 be d3 63 84 3e
       0.027387893 0.14640889 -0.26214683 0.2585741
000030 d7 39 6f 3e ac 9d ca bd 04 79 5c be c4 da 01 be
       0.23361908 -0.09893355 -0.21530539 -0.12681109
000040 ff dc 11 be 8f 72 d9 3d eb 38 76 3d 83 ae ee bc
       -0.1424446 0.106175534 0.060112875 -0.029135948
000050 63 e0 00 3e e4 d1 02 bd 70 d3 a4 bd e5 73 5c be
       0.12585597 -0.03193845 -0.08048141 -0.21528585
000060 f6 cb d7 3d 43 1b 8a be
       0.10536949 -0.26973924

weight f4 [26, 26]
000000 da 6f e1 3c 95 6d 1b 3d b1 8c 2b be e5 df ae bd
       0.027519155 0.037946302 -0.16752888 -0.08538798
000010 63 8f af ba a4 d3 77 bc 6a 3a 28 3e d4 32 22 be
       -0.0013394173 -0.015126143 0.16428533 -0.15839702
000020 7b e7 38 be 70 c6 0b be 0b cd d2 3a 7a 27 cc 3d
       -0.18057053 -0.13649917 0.0016082836 0.09968467
000030 dd 6e fe bd da 85 39 be 4b 8a 94 3d d2 5a 87 3e
       -0.12423489 -0.18117467 0.0725294 0.26436478
000040 9c 71 2f 3d 60 cf 07 be 3b ef ba 3d ae 8d b2 3c
       0.042832956 -0.13262701 0.09127661 0.021796074
000050 ed 9b 41 3e 0a b3 13 3d 7d 63 0f 3e f2 f0 8b be
       0.18907137 0.036059417 0.14002796 -0.27332264
000060 af b8 74 3e db 00 a5 bd 55 c2 1c be c9 e1 0e 3e
       0.23898576 -0.08056804 -0.15308507 0.13953318
000070 aa 6d e4 bd 39 da 0e 3e 03 f5 53 be 73 2d 3e 3e
       -0.11153729 0.13950433 -0.20698933 0.18572025
000080 18 3d 44 3e 00 25 ac 3d 32 79 46 3e 8f a1 1e be
       0.1916393 0.08405495 0.1938217 -0.15491317
000090 e6 d7 96 bd 23 99 a0 3d e8 42 5e 3e ea a3 e7 bd
       -0.07365398 0.078417085 0.2170521 -0.11310561
0000a0 c4 81 b4 3d 46 11 d8 bd 03 0b b0 bd c5 1a 13 3d
       0.08813813 -0.1055017 -0.0859585 0.0359142
0000b0 84 11 42 be 4f 77 2b be 04 63 8d 3d 59 f7 cf 3d
       -0.18951994 -0.16744731 0.06903651 0.101546
0000c0 4d 15 e8 3d 49 57 20 bd 7b 55 60 bd 14 14 22 be
       0.11332188 -0.03914574 -0.05476902 -0.15827972
0000d0 16 a3 06 3e 89 54 51 be 55 8f c8 bc 2c 99 8b 3e
       0.1314815 -0.20442404 -0.024482409 0.27265298
0000e0 cb a8 18 3e 28 3f 78 be 60 71 b1 bd e8 ad 6e be
       0.1490814 -0.24242842 -0.08664203 -0.23308527
0000f0 bb a8 0e 3e aa 1c 7f be 3c ab 55 be 97 d2 99 bd
       0.13931553 -0.24913278 -0.20866102 -0.0751087
000100 6b 34 28 3e 49 79 63 3d c8 e0 ee 3d bd 8c 2a 3e
       0.16426246 0.05553559 0.11663967 0.1665525
000110 0c 43 c4 bd 81 a3 ae bd 2e 4e 8c 3c 7b 73 92 bb
       -0.09583101 -0.0852728 0.017127123 -0.0044693328
000120 49 ac 2f 3e 88 f0 01 3e 9a 30 23 be 3a 2a af 3c
       0.17155565 0.12689412 -0.15936509 0.02138244
000130 a4 2f 55 be 02 c4 51 bd 9d 52 44 bd b8 2f 97 bb
       -0.20818955 -0.05121232 -0.04793035 -0.004613843
000140 0b 2b b5 be 4f 9a ba 3e 37 60 8f bd 94 e5 d3 3c
       -0.35384402 0.36445853 -0.070007734 0.025866307
000150 aa 5c e0 3d 7c c0 87 3d b1 37 02 3e d3 31 6e 3d
       0.10955174 0.0662851 0.12716557 0.058152985
000160 2d e6 f6 39 29 e0 b1 3d 0e 03 24 3e 29 76 e5 bd
       0.0004709227 0.08685333 0.1601679 -0.11204178
000170 2b 29 44 be 88 0f 4c 3d 3d f8 b5 3d f0 35 e6 bc
       -0.1915633 0.0498195 0.08885238 -0.028101891
000180 de 1e 7d bd 28 cb 00 be 0e 50 ee 3d a5 f9 8e 3d
       -0.061797015 -0.12577498 0.11636363 0.0698121
000190 2d 4b c2 3b 58 0c 26 3d 4b f9 87 be 68 51 eb bc
       0.005929372 0.040539116 -0.26557383 -0.028725341
0001a0 be a0 0f be 03 3e 07 be e0 a0 b1 bc e4 47 81 3e
       -0.14026162 -0.1320725 -0.021683156 0.2525016
0001b0 6d 96 96 3a 04 6b 9c 3e b1 26 f7 bd f4 89 ec bb
       0.0011488922 0.30550396 -0.12067927 -0.0072185937
0001c0 2a 50 7b bd 6a ef 07 be f0 1e 1e 3c 56 95 b9 3d
       -0.061355747 -0.13274923 0.009650931 0.09061687
0001d0 9a 52 4d bd 46 a3 b6 3d a7 d2 0e 3e 16 3b 18 3e
       -0.050127603 0.08917861 0.13947545 0.1486629
0001e0 d1 c5 41 bd ed 8f 94 bd 8c 45 39 3d 7e dd c2 bd
       -0.047307793 -0.07254014 0.04523234 -0.095149025
0001f0 60 a1 f4 bd 9e 52 61 bd 79 9a 25 be 3a fc 2d be
       -0.11944842 -0.05501043 -0.16172208 -0.16990748
000200 52 37 05 be 96 d9 31 3e 8a 10 da bd 5a 3d 18 bb
       -0.13009384 0.17368159 -0.10647686 -0.0023229928
000210 2b b1 e2 3c 5f af 63 3e bd e5 4b 3e 5d 63 aa be
       0.02767237 0.22234868 0.19911857 -0.33278933
000220 bc 61 64 3e 73 ad 4c be 8f c7 38 bc b6 7c 48 3e
       0.22302908 -0.1998804 -0.011278047 0.19578823
000230 a1 5b c9 3e 7e 73 98 b9 8d 5d 55 be 6e 57 aa 3d
       0.3932772 -0.00029077748 -0.20836468 0.08317457
000240 81 b7 c6 3d 73 b3 01 be 0e 19 c5 3d 10 31 bc bd
       0.09702969 -0.1266611 0.096239194 -0.091890454
000250 5c 81 fa 3d 91 2b 2b be 59 26 ca 3d c9 1a 96 be
       0.122317046 -0.16715838 0.098705955 -0.2931731
000260 92 f5 90 be d9 dc 2b be 94 54 68 be dd 6b 84 bc
       -0.28312355 -0.16783465 -0.22688514 -0.016164714
000270 8a 46 93 3d 29 22 53 be e5 53 5e be 01 99 d2 be
       0.07191189 -0.206185 -0.2171169 -0.41132358
000280 17 ee b2 bd b1 3d dc bd 6f 8c 9d bd 8d 60 02 be
       -0.08736818 -0.10753954 -0.07692801 -0.12732144
000290 ce cc 77 3d 63 4c 1d 3e 2b 4d 65 3d 2c fa 31 3d
       0.06049805 0.1536117 0.055981796 0.043451473
0002a0 d3 56 91 bd c3 f5 d3 3b 6f 3a 2c 3d 6e 6e 37 bd
       -0.070966385 0.006468506 0.042047914 -0.04478305
0002b0 10 c2 07 3e 51 74 8a be 70 d6 09 be 91 fe 30 3d
       0.13257623 -0.27041867 -0.13460708 0.043211523
0002c0 ec 10 f9 bd e3 01 5f 3d dd 6f 1e 3e fe ae 05 3e
       -0.12161431 0.05444516 0.1547236 0.13055035
0002d0 64 47 10 3e fb dc 08 be 82 5b df bd 92 75 63 bd
       0.14089733 -0.13365547 -0.109061256 -0.055532046
0002e0 f2 fe 58 3e 1c 80 f7 bd 3a 6e 64 3d 5e ac 85 3e
       0.21191004 -0.12084982 0.055769183 0.26108068
0002f0 90 02 03 be 6d 97 57 3d 01 e0 f1 3d 5d 16 b2 3d
       -0.12793946 0.052634645 0.118103035 0.08695672
000300 56 b0 c1 3d 3c 72 ca bd 82 2f 40 3d 6f 10 8a bd
       0.094574615 -0.0988507 0.046920307 -0.06741416
000310 ec 2e ef bd e4 55 41 3e 68 aa 3c 3e cf 70 92 be
       -0.116788715 0.18880421 0.1842438 -0.2860169
000320 62 f2 29 3e a1 d3 d4 3d 26 a9 19 3d 5f 84 90 3d
       0.16596368 0.103919275 0.03751483 0.07056498
000330 4f 67 d9 bb f1 48 06 be e8 75 08 3e ec 40 ac bd
       -0.00663463 -0.13113762 0.13326228 -0.0841082
000340 fe 94 c8 bd 8e 0c e7 bd 15 61 47 3e 36 bb 2d 3d
       -0.09794043 -0.112816915 0.19470628 0.042414866
000350 d3 45 dd 3c de 8b cc bd 72 05 e8 bd e4 f6 f3 bd
       0.027010834 -0.09987615 -0.113291636 -0.11912325
000360 31 c6 e2 3d 65 16 71 be 85 49 1d bd 7f 51 8f bd
       0.11072958 -0.23543699 -0.03840019 -0.06997966
000370 9a 9a ff bc 20 1a 40 3e 80 bc c1 3d e7 87 31 3d
       -0.03120165 0.18759966 0.09459782 0.043342497
000380 87 90 2f be 62 1e 05 bc 9f c0 ea 3d 4a ae 39 3e
       -0.17144977 -0.00812492 0.11462521 0.18132892
000390 ff 9c 43 bd a4 4b 90 3c 77 01 22 be df 55 79 bc
       -0.047757145 0.017614193 -0.15820871 -0.015218227
0003a0 7a ed 48 3e ea 58 8e 3d ad 51 d5 3d a0 00 e1 3d
       0.1962184 0.06950553 0.10415969 0.10986447
0003b0 98 7f 49 bc 67 cf 6c 3e ea 7f f9 3b 3e ca b2 3d
       -0.012298487 0.23125993 0.0076141255 0.08729981
0003c0 4d 75 e0 bd af 72 e6 3c c3 a1 0d bc e9 49 70 be
       -0.10959873 0.028130857 -0.008644524 -0.23465694
0003d0 63 53 b4 bd 54 69 be bd 0e ea ac bd f0 f0 ca 3d
       -0.08804967 -0.092974335 -0.0844308 0.099092364
0003e0 cd 6b 36 3e 9e d4 d1 bc 53 81 84 3d 0d 7d ce bb
       0.1781456 -0.02561408 0.06469979 -0.0063015283
0003f0 b9 1f 34 be d1 1d 08 3c 50 4d 0d be b7 1a d8 bd
       -0.17590226 0.00830789 -0.13799024 -0.105519705

bias f4 [26]
000000 05 c7 79 be 92 b1 24 be ff 6f 5e be 47 7d be 3d
       -0.24392326 -0.16083363 -0.2172241 0.093012385
000010 53 63 0d bc 2b 19 c3 bd 04 60 15 bc a5 3d 2a be
       -0.008629638 -0.09526285 -0.00911713 -0.16625078
000020 b3 5b db bd 30 19 00 be bb 6e 40 be 3e 3b 12 3e
       -0.107108496 -0.12509608 -0.1879224 0.14280412
000030 c3 b0 37 bd c6 ea f0 bd cf 8a 4e be 83 4d fa 3c
       -0.044846307 -0.117635295 -0.20170139 0.030554539
000040 7f 21 b5 bd 41 9d 9c bd ce 67 5b 3d 88 30 0a 3e
       -0.088442795 -0.07647181 0.053565793 0.13495076
000050 ca 14 33 be 96 52 67 3e b5 01 0a bd b5 e1 a9 ba
       -0.17488399 0.22590098 -0.033693034 -0.0012960943
000060 a6 8e a2 3d 09 0b 12 bd
       0.07937364 -0.035655055

weight f4 [13, 26]
000000 dd 83 df 3d 43 95 84 3d 60 06 ee bd 19 e8 0a be
       0.10913823 0.06473782 -0.1162231 -0.135651
000010 a3 1a ad be 13 ac d4 3d 3d fc 3f be 01 f0 4a be
       -0.33809385 0.10384383 -0.18748565 -0.19818117
000020 74 67 85 be cc 3e 51 be 6c 50 86 be a6 89 2c 3e
       -0.2605549 -0.20434111 -0.26233232 0.16849384
000030 27 ac 55 3e e1 2f 0c 3e 2d c5 a9 bd fd b6 31 bd
       0.20866452 0.1369014 -0.082895614 -0.0433874
000040 21 9d 96 bd db b0 c8 3d 2a 4e 15 be ac 81 b6 3d
       -0.07354189 0.097993575 -0.14580598 0.08911452
000050 07 48 09 be a1 d5 d4 3c 37 8c 42 3e f7 d6 0b 3e
       -0.13406383 0.025980772 0.189988 0.13656221
000060 3c 17 f1 3d 15 84 90 be 6a 62 73 3d 89 bb ab bd
       0.1177201 -0.2822577 0.059420027 -0.08385379
000070 30 25 82 3c 9e ee 33 bd ad 53 3a be 67 6c 56 be
       0.015886873 -0.043928735 -0.18195982 -0.2093979
000080 c2 9c 80 3d af 82 b9 3d 93 a2 6c 3d e4 be 3e be
       0.06279899 0.09058129 0.05777223 -0.18627506
000090 3c 7e 3b 3e d1 66 3f 3e fb 42 fa bd 8a 29 b1 bd
       0.18309873 0.18691565 -0.12219807 -0.08650501
0000a0 be 21 50 3e c0 6f 9f be 6e 8e 78 be b1 58 28 3d
       0.20325372 -0.31139946 -0.24273083 0.041100208
0000b0 2a 56 a3 3d 5a b1 95 3d b1 19 ee bc 6c 3f cb 3c
       0.07975419 0.07309218 -0.029064985 0.024810515
0000c0 c0 34 eb 3d 4b 16 e3 bd 5d ad 30 3d d2 12 71 be
       0.11484671 -0.110882364 0.043134082 -0.23542336
0000d0 c0 83 f4 3c a1 21 45 3e 7e af 89 be 2c 3c 78 3b
       0.02984798 0.1925111 -0.26891702 0.0037877662
0000e0 cc 40 59 3e 8d fe 2c be cf d4 d6 bd d0 10 96 bd
       0.21216124 -0.16893978 -0.10489809 -0.073274255
0000f0 92 e8 7f bc 33 7c 0d 3e 67 e9 0d be 8e fd 03 3e
       -0.015619414 0.1381691 -0.13858567 0.12889692
000100 50 8d 23 be 20 3f c4 3b da d6 82 3b 89 2b d1 3d
       -0.15971875 0.0059889704 0.0039928975 0.10213382
000110 d2 03 01 be 79 f7 19 be 5d 52 cc bd 69 6f fc bd
       -0.12599114 -0.1503581 -0.09976647 -0.12325937
000120 79 a7 ad bd 41 f4 5b 3e 9b 77 99 bd 81 5e 31 be
       -0.084792085 0.21479894 -0.07493516 -0.17321207
000130 5a 95 98 be 1e 7b 8f bd e7 7c 14 3d 98 b9 1f be
       -0.29801446 -0.070059046 0.03625193 -0.15598142
000140 06 1a 67 bd 78 b7 88 3d 6f a4 f6 bd 22 e4 a1 3d
       -0.056421302 0.06675619 -0.12043082 0.07904841
000150 6c 8f 9f 3c 9e 09 8b 3e 49 39 a7 bd 52 28 1d 3e
       0.019477569 0.27155775 -0.08165223 0.15347412
000160 c0 07 8b 3d 3a 78 1f 3d 62 bc 4d 3d 0f 0f be be
       0.067885876 0.038933016 0.050228484 -0.37120864
000170 4a b3 86 be c5 3a 0d 3e b6 00 e4 3d 7f 52 9b 3e
       -0.26308662 0.1379195 0.11132948 0.30336377
000180 0c d1 ea bc 95 12 e4 bd 8c d7 aa 3d 8a 78 2f 3d
       -0.028664134 -0.11136357 0.083418936 0.042839564
000190 49 b9 12 3e d9 26 73 be f8 4c 43 be d4 1e 11 bd
       0.14328493 -0.23745288 -0.1907233 -0.03542979
0001a0 6f 0f 28 3e 8e dd 25 be 92 85 90 bd bf 6d c8 3d
       0.16412137 -0.16197798 -0.070567265 0.097865574
0001b0 0f e7 b4 3d 15 59 4b 3e 52 38 9f bd e9 69 e4 bd
       0.088331334 0.19858201 -0.07774414 -0.11153013
0001c0 6e 31 fa bd e1 79 ae bd 1e 42 ad bd 95 d9 b8 3d
       -0.12216459 -0.0851934 -0.084598765 0.090258755
0001d0 be a2 f9 3d d5 34 e8 bd eb fa 42 3e 26 ec 59 3d
       0.12189244 -0.11338202 0.1904103 0.053203724
0001e0 07 9a 3c 3e 48 69 35 bb f8 ef 08 3e 58 27 55 be
       0.18418132 -0.002768116 0.13372791 -0.2081579
0001f0 51 1a 22 3e fe af 23 be de 98 d3 3d b6 03 12 be
       0.15830351 -0.15985104 0.103318915 -0.14259228
000200 d1 f7 54 3d ee 28 14 be 5d 36 ac 3c 14 52 50 b8
       0.05199415 -0.14468738 0.021022016 -4.9667506e-05
000210 0e 21 f4 bd ef c8 f8 bd f4 17 96 bd 9d 7e 91 3d
       -0.11920367 -0.121477 -0.073287874 0.07104228
000220 93 68 01 3e 56 3a 22 be f7 c5 80 3e 60 fc 0b be
       0.12637548 -0.15842566 0.25151035 -0.13670492
000230 82 9e de bc 68 ae f6 3c 97 7c c6 3c 75 a9 0f be
       -0.027175192 0.03011246 0.024229331 -0.14029486
000240 0d 1b 08 3e d1 8f 6f 3e 55 36 2d be 3d a1 27 be
       0.13291569 0.23394705 -0.16915257 -0.16370101
000250 6f 2c ca 3c 69 ee 88 be 62 11 72 3d d3 0e 52 3e
       0.02467939 -0.26744393 0.05909861 0.20513467
000260 1a 07 ca 3d 4a 30 97 3c 3f a2 57 bc 98 e2 d4 bd
       0.09864636 0.018455643 -0.013161241 -0.10394782
000270 58 df 0c be 22 6b 01 3e e9 6c b8 bd ba 58 65 3d
       -0.13757074 0.12638524 -0.09005148 0.05599282
000280 35 c6 04 be 5c 0f 0b be 29 8d 02 bd 6a 85 3e be
       -0.12966235 -0.13580078 -0.031872902 -0.18605581
000290 0b be d4 3c 3d 11 0e be c1 3e 7a be 5b f9 e0 3d
       0.025969526 -0.13873763 -0.24438001 0.10985061
0002a0 e4 b4 70 3e c9 09 00 3d 6c 53 d3 bd 9f 06 89 be
       0.23506504 0.03125933 -0.10318646 -0.26762864
0002b0 40 a2 0d be 08 4b 87 be 5d 76 b5 3d b1 08 04 be
       -0.13831425 -0.26424432 0.08860467 -0.1289394
0002c0 02 bb ca 3d e2 5a 8f 3b 2f de e5 bd 23 36 39 3e
       0.0989895 0.0043748477 -0.11224019 0.18087058
0002d0 a8 20 7b be be 40 ef 3c 41 21 76 be fb 62 a6 bd
       -0.24524176 0.029205676 -0.24036123 -0.08124348
0002e0 c3 81 9b 3d 1c 2b 70 3e 89 63 99 bd b5 d4 d8 bd
       0.075931095 0.23453945 -0.07489688 -0.10587446
0002f0 b8 7b c0 be 14 17 2e 3d 23 f4 8c 3e a7 d5 04 3e
       -0.3759439 0.042502478 0.27530012 0.12972127
000300 72 37 0c be 7b f1 15 3e 00 b3 11 be 8c e3 e8 3d
       -0.13693026 0.14642899 -0.1422844 0.11371526
000310 16 2f ee 3d c1 c9 18 be 88 17 b1 3d 5b 65 a3 3d
       0.11630075 -0.14920713 0.08647066 0.079783164
000320 28 8b 5c be b4 3f 1f 3e 8f bc 1d 3e 19 c4 1e 3e
       -0.21537459 0.15551645 0.1540396 0.15504493
000330 0c 25 5d bd 9e e6 35 be 2a 0f b1 be d8 b8 05 3e
       -0.05399041 -0.17763755 -0.34581882 0.13058794
000340 fd 6b 90 bd 40 8e 32 3e 74 bf 40 3e 8f b5 83 3c
       -0.07051847 0.17437077 0.18823034 0.016077785
000350 62 b8 76 be c1 41 14 3c 73 ec 36 3e 69 10 e8 ba
       -0.24093774 0.00904888 0.17863636 -0.0017705086
000360 a4 c3 20 be c9 36 d2 bd f0 1b 93 bb 3f bd 32 be
       -0.15699631 -0.10264356 -0.0044894144 -0.17455004
000370 b0 8a ea 3d 81 3f 10 3e 98 69 c5 bd c1 fa c9 bd
       0.11452234 0.14086725 -0.09639281 -0.09862281
000380 45 2c 37 be 1c 6b 08 3e 40 cd fa 3d a0 37 d7 3d
       -0.17887981 0.13322109 0.122461796 0.105086565
000390 7c b8 a5 bd 56 ba 21 3d 02 57 b9 3d c6 f1 57 3d
       -0.08091828 0.039484344 0.090497985 0.052720807
0003a0 7c 94 38 be 13 05 29 3e 9a f4 01 be 87 54 36 bd
       -0.18025392 0.16505842 -0.12690964 -0.044514205
0003b0 9e 22 84 bd cd bf 9a bd 3a 32 b9 bc c3 9f 2a be
       -0.06451915 -0.07556114 -0.022606958 -0.16662507
0003c0 26 e2 a3 3d 34 0b 2a 3e c6 76 12 be ce b0 9f 3d
       0.08002119 0.16605836 -0.14303121 0.07797395
0003d0 8f cc 15 be 8a bc 13 bd 91 db 8a 3d 36 43 48 3c
       -0.14628814 -0.036068477 0.0678016 0.012223056
0003e0 87 dc df 3b 4f 32 2b be 4f c7 43 3e 70 76 5d be
       0.006831709 -0.1671841 0.19118999 -0.21627212
0003f0 46 cd bb bc 6f c4 67 3d 47 87 31 3e 5d 89 31 bd
       -0.02292503 0.056583818 0.1733676 -0.04334389

bias f4 [13]
000000 7c ee bc bd 7e b2 8f bd d9 2d 21 3d 28 32 0f 3d
       -0.09225175 -0.070164666 0.039350364 0.034959942
000010 6b 4b 7d 3d af e4 d6 bd 91 bc 98 3c ae 1c 4d bd
       0.061839502 -0.10492837 0.018644603 -0.05007618
000020 c2 60 59 bd f9 f5 16 3e 85 84 4e bd 9b 88 8b 3b
       -0.05307079 0.14742269 -0.05041935 0.004258228
000030 ed 9f 9a bd
       -0.07550035
