data/results/GAT/927/full_model.pth (torch, 31215 bytes, 6 tensors)

att_src f4 [1, 13, 13]
00000000: 4d81 c93d 1a30 b83e 4ca7 a23e 39a5 a1be
00000010: 66bd 963e 1494 4d3e 189f 38be 84e0 c83e
00000020: e719 d53c c31b c93e f3f4 efbe f603 033f
00000030: 1e79 e73e 3b98 85be a1ff cbbe 5ae3 4abd
00000040: 35d9 87be df7c 8a3e 2a64 4f3e abfc 0fbe
00000050: ff16 773e 6fcd d0bc f9d6 2bbe 372b 39bf
00000060: 6e3f 803d 6d9a eebe d0a1 c83d 0061 1f3e
00000070: e56a 8ebe 42f4 3e3e 52d3 89bc 618e 983e
00000080: 3a84 723e 3952 f7be b070 71be 6b75 bcbe
00000090: d417 9abe bd62 5a3e 4359 a5be 7cbb 9ebe
000000a0: 6948 b03e e05d ed3e 88e1 8ebe 60f0 ddbe
000000b0: fd1f 28bd 6efd 583c 0b4d 7e3e 84d0 a03b
000000c0: ee39 fb3e 1c81 5abe 00fe fb3e 2439 a5be
000000d0: 14de 78be 4a00 b53e acce 9bbe 8fe6 e53e
000000e0: 766f 2ebe ee18 b53e 5a73 0b3f 9d25 e4bc
000000f0: 5ca0 743e 167a edbe eeb7 36be 1884 223e
00000100: 746d 743e bc04 68be eca7 633e 2d0f 7ebe
00000110: 2252 a6be feb8 d13d 7e2d 0cbf cf6c f4be
00000120: ad06 903e 8d22 3b3e 173b 543e 906d b9bd
00000130: 454d 5abe ca7c c6be 0e87 de3e 97d6 05bf
00000140: c05f 1e3e b50b 253e b51f e33e c000 3dbe
00000150: 4b54 11bd 641c febe 75e0 e63e fd30 0ebf
00000160: 3209 bebe f1e3 9cbe 94d3 da3e 0bec d93e
00000170: 952f d43e b883 c43e fca5 82be 4ec9 5bbe
00000180: 3075 7fbe 55e4 973e 17b0 4b3e f989 023e
00000190: 1d52 b2be 90b4 cebd c285 1dbe 48b2 65bd
000001a0: 2b18 5fbd baf5 253d c8d7 dcbe 58f4 e73e
000001b0: 02fc 90be 0e61 233e 3b90 cc3e 072f 453e
000001c0: 88ee 693e 66b2 8f3e 0819 da3e b1fe 073e
000001d0: 5474 cc3e 9035 65be 6413 8dbe 7125 103e
000001e0: 26f9 8d3d a4a0 1fbd 57f9 20bf e892 6e3d
000001f0: bee7 ce3e eb57 e2bd 67ed 993c 81f1 b23e
00000200: b023 c8be b0d5 d6bd 334a 6ebe c8b5 49be
00000210: 6bdb c43e d194 ef3e e12b ffbd 8085 1a3e
00000220: efdf d3be c2c8 2cbd e89f e1bd cab1 aebe
00000230: f821 0a3e e234 bb3e 833f 7b3d bba1 c93e
00000240: a2be 943e eaa0 c03e ff12 5fbd ff66 053c
00000250: 31a9 993d ec91 953d 2829 c8be fe3d d43c
00000260: 3875 dabe fea0 a8be c08d c8be 2f67 a93e
00000270: 206a 8cbe 20f3 49bd 58c4 dabd 6130 e13e
00000280: dc0c 8c3e bb9d 89be 3b04 ec3e e4bc c3be
00000290: 2148 3fbd 5920 093f 8b96 0e3f cd09 6bbe
000002a0: 3caf 72be
0.09839115 0.359742 0.31768262 -0.31571367 0.29441375 0.20076019 -0.1802944 0.39233792
0.026013328 0.39278993 -0.4686657 0.5117792 0.45209593 -0.26092705 -0.39843467 -0.049533226
-0.26532903 0.27048394 0.20253053 -0.14061229 0.24129866 -0.025488583 -0.16781224 -0.72331566
0.06262098 -0.46602193 0.09796488 0.15564346 -0.2781593 0.18647864 -0.016824398 0.29796126
0.23683253 -0.48304918 -0.23578143 -0.36808333 -0.30096304 0.21326728 -0.32294664 -0.31002414
0.34430245 0.46360683 -0.27906442 -0.43347454 -0.04104613 0.013244016 0.24834077 0.0049076695
0.49067634 -0.21338314 0.49217224 -0.32270157 -0.24303466 0.35351783 -0.30431116 0.44902465
-0.17034706 0.35370582 0.5447289 -0.027849967 0.23889297 -0.46382207 -0.17843601 0.15870702
0.23869878 -0.22658056 0.22232026 -0.24810477 -0.32484537 0.102403626 -0.54756916 -0.47739264
0.28130093 0.18274899 0.20725666 -0.090541005 -0.21318538 -0.38767081 0.43462414 -0.52280563
0.15466213 0.16117747 0.44360128 -0.18457317 -0.03548078 -0.49631035 0.45093122 -0.555435
-0.3711639 -0.30642655 0.42739546 0.425629 0.41442552 0.38381743 -0.2551726 -0.2146351
-0.24947047 0.2966639 0.19891392 0.12747945 -0.34828272 -0.10093033 -0.15383056 -0.056078225
-0.054466408 0.040517546 -0.43133378 0.45303607 -0.28317267 0.15954992 0.3995379 0.19256221
0.22844899 0.28065795 0.42597222 0.13280751 0.399325 -0.22383714 -0.27553856 0.14076783
0.06932287 -0.03897156 -0.6288046 0.05824557 0.4041118 -0.11051925 0.01878996 0.34949878
-0.39089727 -0.104899764 -0.23270492 -0.1969825 0.38448653 0.46793225 -0.12459541 0.15089989
-0.41381785 -0.042183645 -0.11016828 -0.34120017 0.1348952 0.36563784 0.061339866 0.39381203
0.2905169 0.37622768 -0.054461475 0.008142232 0.07502974 0.07303223 -0.390939 0.025908466
-0.42667556 -0.32935327 -0.39170647 0.33086535 -0.27424717 -0.049304128 -0.10681981 0.43982223
0.2735356 -0.2687815 0.46096978 -0.3823005 -0.046699647 0.53564984 0.5569846 -0.22952957
-0.23699659

att_dst f4 [1, 13, 13]
00000000: 5134 303e 148c e23d cd2f ccbe 0006 143e
00000010: db5a 39be 60ec d73e 21e4 da3e c085 bb3c
00000020: 4ab9 19be 89e4 21bf fc47 0cbd 0117 1bbf
00000030: ea1b 8fbe 003e da3d a329 2abd 0fd8 6bbd
00000040: d3e4 8ebe 9257 bebe e23a 743d cecf 4a3d
00000050: 6236 3bbe 58cb 32be 02b8 f43e 3192 843e
00000060: 0c55 b53d 2f7c 403c abe6 99bc 5de5 c23d
00000070: 01e4 49be 0954 b73e 0817 d6be ea75 bbbe
00000080: 8023 21bd 6b30 30be 7121 c4bb 1bdf e83e
00000090: 8ad8 023e fd43 d03e 1802 27be 36e0 35bc
000000a0: 7478 d9be 8299 b1be 1234 91bb 8f6b 4e3e
000000b0: 5c0a 843e 104f 58be 2fa5 353e ad16 b0bd
000000c0: cff4 b4bd 6e4f 333e 2bba c5be 8eee 9a3e
000000d0: 97cd bc3d 7e67 1fbf e880 0b3f eed6 f23d
000000e0: 4673 01be 92e5 7b3e cbea 31be 86a9 4e3e
000000f0: f824 2c3e 1035 d73e 4166 8e3c e18b 833d
00000100: 9604 32be e232 543e e6ca 1abd 7c93 013f
00000110: 500a 533e 3b57 713c 66be 0b3e 212c 3d3e
00000120: 3c4a 5cbe 7e3b 423d 95cd 89be 3951 753e
00000130: e0c5 e5bd 75b7 1f3e d7df fa3e 6f9a 913e
00000140: 2a9e 15bd c0e9 9abe 04f9 58bd b61f 283d
00000150: ff85 b53e 76dc d73a 2beb 6bbe 7b8c 68be
00000160: 4bd7 b23e 0a12 e33e 65bd 583e 0662 46be
00000170: 5744 a2bd dd1b 5c3e 8d31 c83e 1132 9e3e
00000180: daab f53c c637 0abf fe69 0ebe 9754 a23e
00000190: 7e83 9e3b df7c 443e 49f7 07be 3f1d 963c
000001a0: 8655 853d 34db 6f3d ac5e 6a3e 21f1 f7bd
000001b0: 18f3 3a3e 228e 25be 75e5 9ebe 8204 ddbd
000001c0: 63f2 c5be c0e1 0f3e 4f64 76be e79f 73be
000001d0: 1994 62be ede6 053c 8684 833e 634a 853e
000001e0: d301 30be 4553 f93d 5371 cc3c 4016 663e
000001f0: c4d5 9bbe ffb2 c4bd 2839 e4be 47e1 4ebe
00000200: e319 32bc d1b4 0f3f fc09 63be a3ae 173f
00000210: 84b6 74be e872 e23c 6c83 803e 02e0 67be
00000220: e225 6c3e 36fc dfbe 0b10 383e d7ba b73e
00000230: 07da a3be 9a9b dbbd 68a5 b73c f55d a9be
00000240: 1ed6 01be 05ba 083e f9a2 9cbe cd68 03be
00000250: 4f3d d3bd 4f2e 443d 61fe 5b3e 81ff 963e
00000260: 9f8c 423e 2b32 823e 7806 d03e ef26 d5be
00000270: d316 973e f651 853e 1430 a1bd e96e b1bb
00000280: fd1d 1b3f 45d4 9ebe 32e4 f23e ed3a 0e3c
00000290: 43d3 f23e cf8d 1fbe 703b 8e3e 4600 cabe
000002a0: 3033 f5bd
0.17207457 0.11061874 -0.3988022 0.14455414 -0.18101065 0.42172527 0.42752174 0.022890925
-0.15012088 -0.6323934 -0.034248337 -0.60581976 -0.27950984 0.10656357 -0.041543614 -0.057579096
-0.27908954 -0.37176186 0.059626468 0.049514584 -0.18282464 -0.17460382 0.47796637 0.25892785
0.08854112 0.011748358 -0.018786749 0.09516404 -0.19715883 0.358063 -0.41814446 -0.366134
-0.039340496 -0.1720597 -0.005985432 0.45482716 0.12777916 0.4067687 -0.16309392 -0.011100819
-0.4247471 -0.3468743 -0.004431256 0.20158218 0.25789154 -0.2112391 0.17738794 -0.08598075
-0.08835756 0.17510769 -0.38618597 0.30260128 0.09218901 -0.6226729 0.5449357 0.11857401
-0.1264163 0.24599293 -0.17374723 0.20181856 0.16810977 0.4203267 0.017382743 0.06423164
-0.17384562 0.20722535 -0.037791155 0.5061567 0.20609403 0.01473027 0.1364685 0.18473865
-0.21512693 0.047420017 -0.2691466 0.23956765 -0.11219382 0.15597327 0.489989 0.28438136
-0.03652779 -0.30256462 -0.052971855 0.041045867 0.35453793 0.0016468901 -0.23038928 -0.22709839
0.3492988 0.443497 0.21165998 -0.1937333 -0.07923191 0.21495004 0.39100304 0.30897573
0.029989172 -0.53991354 -0.1390762 0.31705162 0.0048374524 0.1918826 -0.13277926 0.018324492
0.06510453 0.058558658 0.22887677 -0.121065386 0.18256795 -0.161675 -0.31034437 -0.107918754
-0.3866149 0.1405096 -0.24061702 -0.23791467 -0.22126807 0.008172733 0.25687045 0.26033315
-0.17188196 0.121740855 0.024956381 0.22469425 -0.30436528 -0.09604453 -0.44574857 -0.20203124
-0.01087043 0.5613528 -0.22171777 0.5925085 -0.23897749 0.027642682 0.25100267 -0.22644046
0.23061326 -0.4374711 0.1797487 0.35884735 -0.3200228 -0.10723038 0.022417739 -0.33079496
-0.12679335 0.13352211 -0.30593088 -0.12832947 -0.10314428 0.047895726 0.21483757 0.2949181
0.18998955 0.254289 0.40629935 -0.41631266 0.295096 0.26039094 -0.07870498 -0.005414833
0.60592633 -0.31021324 0.47439724 0.008681041 0.47426805 -0.1558144 0.27779722 -0.39453334
-0.11972654

bias f4 [13]
00000000: 211a 91bd 6e83 11be a6ed 92bd 20b8 733d
00000010: 0a04 7ebd fe0a fd3b c7d9 08be f74b c0bd
00000020: 122f 703d 5edf 2d3d abf0 af3d f33f 93bd
00000030: 02fc d23a
-0.07085062 -0.14210293 -0.07174234 0.059501767 -0.06201557 0.0077222576 -0.13364325 -0.09389489
0.05863864 0.042449348 0.08590826 -0.07189932 0.0016096833

weight f4 [169, 11]
00000000: 3072 873d c3d3 483e 0ab7 bdbd 9327 4dbc
00000010: 813f 103d ab33 16be 3e3d 1f3e 8e3b 00bd
00000020: 2af5 413c 88cc 053e 3996 123e a0a3 f83d
00000030: 2f5d 553e 565f 9e3d e6dd f73d 9ffe e7bc
00000040: 8940 3e3e b6c1 96bc 74bf ec3d ead0 a33d
00000050: d068 dc3d 5061 f73d 8990 eebd c5eb ee3d
00000060: 8e9f 6cbd 52a8 773d 5b01 cebb 4e0d 8abc
00000070: 43dc 80bc feb5 f33d 465b 913c e5ff 1d3c
00000080: bcfd df3d e1a3 27be b1c6 18be b064 31bd
00000090: eca3 1dbe 0b9d 41bc 866f b3bd 9a32 803c
000000a0: a0d1 1fbe 1648 bfbc 475a 23be f12a 07be
000000b0: 0921 353d f38b 553e 271d 0b3d 8935 c6bd
000000c0: 0c3d bc3d 1d08 adbc 0018 ed3d 0999 57bd
000000d0: 797f 983d 0a5c fb3d 8dd9 61bd fd85 3ebe
000000e0: 868d 153e 03d8 643d 07a1 f5bc ab6c 103e
000000f0: 474a 3ebd 7ffe 0dbd 1811 02be 4254 803d
00000100: c8a6 ddbd d87e cd3d 51ef d3bd 2288 8b3c
00000110: 8fa7 dfbd 098e 9d3d e2dc 88bc d091 2ebe
00000120: 91db 2abd b036 30be cb24 81bd d818 54be
00000130: f498 47be 4c22 223e 0a75 76bd 4a9e d33d
00000140: 16eb c83d e324 3f3e 5c09 94bb 4d58 0a3e
00000150: 8d27 aa3d e4c1 b23d 58b5 063e deb6 f33c
00000160: 83cc 97bc 02da 443e 5ffe 453a 8ed3 a3bd
00000170: 9b05 4a3d 4834 92bd a6a7 4b3c 66ae a33c
00000180: 4ddb ef3d 1472 4abd db82 d93d c169 a53d
00000190: 8e4d 023e d84f 16bb df2b a63d 85e7 c3bb
000001a0: 5b9b e73c c698 82bc 2fa0 8fbd a38c d7bc
000001b0: 20a9 403e f189 c63d 57bb a53d 6c33 933d
000001c0: fa2e 0a3d 260b 17bd 4c0c 21bd 13a5 d8bd
000001d0: f256 2b3d 694c 03be 7a19 88bd 94ab df3d
000001e0: 6e29 943d 4121 2a3e 0763 623e 1ff2 1e3e
000001f0: cec6 213e 4626 4d3e 9da3 733d 4ac7 8ebd
00000200: 83c5 9a3d 7d34 283e 65ed c53d f1d0 063e
00000210: c5a2 ba3d 7589 1c3e 4e37 9ebd e6c3 76bd
00000220: 45f4 4dbd 8ce2 79bc c720 9e3d 8a07 7fbd
00000230: 6c43 2a3d d47d 3abc 069a e03c 9592 423e
00000240: 7973 0e3d 28f0 083d c414 783c 59f9 0e3c
00000250: 7b9c 6d3d c310 543d fc64 91bd eca3 563d
00000260: 143e 27bc eb57 6ebd 7ccd 0b3b dda1 fe3c
00000270: a848 81bd 5c1f 473e 6b7f 59bc 8a87 7abc
00000280: 4891 7c3d 0979 813d 17de 36bd 67b8 163e
00000290: 3dea b2bd c76e 163d 58e6 c93c 3916 d2bc
000002a0: 1a73 80bd 26dd 8d3d 0347 023e 02b8 0d3e
000002b0: 365b 233e ab1a e7bc 4753 02bd 1700 51bd
000002c0: 79d8 753d d2ca 753d 570b 90bb 96c7 263e
000002d0: 5c7f 373e fc30 033e 4c0f f03c d33c f43d
000002e0: 7166 973d de6f 003e 8044 903d ae09 aabd
000002f0: 5abe 8a3d d3a7 10bd 4536 d8bd f75f b7bd
00000300: 2b38 0cbd 6ae4 ffbc 0ed8 6abe ba6c 2abe
00000310: 3cae 92bc e412 22bd 56ee e63c d17e 95bd
00000320: 93d5 64be e9cc b6bc 6498 babc c6b0 6cbc
00000330: b075 82bd 2768 623d 126d 353c ea93 fe3d
00000340: 94ec acbd afe5 2f3e cf95 213d c918 b3bd
00000350: c659 a33d 9c8d 97bd e729 023e ba00 db3d
00000360: 9b11 d63d 6fd2 cd3d ac8c ad3d d6a8 db3d
00000370: 7e67 383d 4410 d7bd 8622 f53d 67d2 c7bc
00000380: b6cf b7bd 6ae8 06bd 6c6d bb3d 7180 bfbd
00000390: 0106 babd b69a 183d 1e2c c6bd 1833 e23d
000003a0: 7538 21be 54bd dcbc b4fd 633d b593 a7bd
000003b0: 8509 d0bd c7cc bd3d b24f a63d 26e5 a9bc
000003c0: 8899 01be 8199 a73d 18bf c43d 3b9c a03d
000003d0: e515 ba3c f010 283d fe3d 9e3d bc84 3c3d
000003e0: 0882 2e3e 5fca eb3c 9b50 423d cdc2 f23d
000003f0: 0568 13bd 7721 df3c 37ff 913d 8f69 7c3e
0.066135764 0.1961203 -0.092634276 -0.012521642 0.035216812 -0.14668147 0.15550706 -0.031306796
0.011838237 0.13066304 0.14315118 0.12140584 0.20836328 0.07733028 0.12102871 -0.028319655
0.18579306 -0.018402915 0.11559954 0.079988316 0.10762179 0.12079108 -0.11648662 0.11666063
-0.05776935 0.060463257 -0.0062867827 -0.016852047 -0.015730029 0.11899947 0.017743718 0.00964353
0.10937068 -0.16371109 -0.14919545 -0.043308914 -0.15394562 -0.011817227 -0.08761506 0.015649129
-0.1560731 -0.023349803 -0.15952407 -0.13199975 0.044220958 0.20854168 0.03396335 -0.0967818
0.09191331 -0.021122033 0.11576843 -0.05263618 0.074461885 0.122734144 -0.055139113 -0.186058
0.14604768 0.055870067 -0.02998401 0.14103954 -0.046457555 -0.034666535 -0.12701833 0.06266071
-0.108228266 0.10033959 -0.1034838 0.017032687 -0.10920631 0.07693107 -0.016706888 -0.1704781
-0.0417133 -0.17208362 -0.06305846 -0.20712602 -0.1949194 0.15833396 -0.06017021 0.103329256
0.09810464 0.18666415 -0.0045177173 0.13510247 0.08308325 0.08728388 0.13155115 0.029750284
-0.018530136 0.19223788 0.0007552858 -0.07999335 0.049321752 -0.07138878 0.012430107 0.01998062
0.1171175 -0.0494252 0.10620662 0.080768116 0.12724897 -0.0022935774 0.081138365 -0.005978527
0.028272321 -0.015941989 -0.070129745 -0.026312178 0.18814516 0.09694279 0.08092373 0.07187542
0.033736207 -0.036875866 -0.039318368 -0.105783604 0.041830964 -0.12822117 -0.06645484 0.10921398
0.072344646 0.16614248 0.22108088 0.1552205 0.15798494 0.20034131 0.059482206 -0.06971605
0.075572036 0.16426273 0.0966442 0.13165642 0.09113077 0.1528681 -0.07725392 -0.060245417
-0.05028178 -0.015251767 0.077210955 -0.06226305 0.041568205 -0.011382539 0.027417194 0.19001229
0.034778092 0.033432156 0.01514167 0.008726441 0.05801056 0.051773798 -0.07099339 0.05240242
-0.010207672 -0.058189314 0.0021332195 0.031083042 -0.06312686 0.19445556 -0.013275008 -0.015291104
0.06166199 0.06321914 -0.044645395 0.14718781 -0.08736084 0.03672674 0.02464597 -0.025645362
-0.06271954 0.06926946 0.12722401 0.13839725 0.15952763 -0.028210958 -0.0318177 -0.051025476
0.060020898 0.060007878 -0.004395883 0.16287073 0.17919677 0.12811655 0.02930417 0.11925664
0.07392586 0.12542674 0.07044315 -0.083026275 0.06774588 -0.0353163 -0.10557226 -0.08953851
-0.034233253 -0.031236846 -0.22933981 -0.16643038 -0.017905347 -0.039568797 0.02818982 -0.07299579
-0.22347097 -0.022314506 -0.022777744 -0.014446443 -0.06370103 0.05527511 0.011073368 0.12430556
-0.08443561 0.17177461 0.03944951 -0.08744962 0.07976107 -0.07400057 0.12711297 0.10693498
0.10452577 0.10049903 0.08474097 0.10725562 0.045020573 -0.10501149 0.119694754 -0.02439232
-0.089751646 -0.03293649 0.0915173 -0.0935067 -0.090831764 0.03725692 -0.096763834 0.110449016
-0.15744193 -0.026945747 0.055661872 -0.0818247 -0.10158066 0.09267574 0.081206694 -0.02073915
-0.12656224 0.081835754 0.09606761 0.078422986 0.022715518 0.041031778 0.07726668 0.046025023
0.1704179 0.028783021 0.047440153 0.118535616 -0.035987873 0.027237637 0.071287565 0.24649642

weight f4 [13, 13]
00000000: 2808 a2be 1b62 12bf 2cae 8f3e 795d 8a3d
00000010: 069e 1f3e e1ea 94be 06f7 403d ffb1 bcbe
00000020: ce50 e8bd 06f5 bdbd 5f0f 33bd 06ed f0bd
00000030: ff89 933d 29cb 38be 02c0 3abe ffc8 a43d
00000040: 2c17 3b3c c5f4 c23e e11b b9bd 876c 713d
00000050: 37ec f4bd 6ced 583e 9ae2 1abe 9b0d 903d
00000060: 833e 86bd 9c71 5b3c 83a1 833e ab30 22be
00000070: 8c93 873e 5b6a a83d 255d 3e3e ef41 143e
00000080: 39ed 6b3d ac60 14be 21a0 74be 5e23 4dbe
00000090: d49c 1abd caa0 5a3d 3bde bdbd 94bb 1d3d
000000a0: 75df 9b3d 91e0 833b aebe eabd 601e 58bc
000000b0: 71ba a5bd 026b a0bc b9b4 8fbd 5ed4 0c3e
000000c0: 6d39 e2bd 1dce 3bbe 638b 043c d6e6 66be
000000d0: fae9 713e ed0c a2bd f1c2 243e 2811 afbd
000000e0: 2fd8 933e 56ed 2dbc cb94 1e3e d48f 8f3c
000000f0: d279 75bd 7714 5e3e 6dcf 37be 13b4 943e
00000100: 4d67 43be 75f9 45bd e322 6ebd 98b5 6f3e
00000110: c0e5 8d3e 57ed 183e a7ca 52be 5a31 d93d
00000120: e70f 7b3e 6e6b 0bbe c131 e63d 60d8 36be
00000130: 4d49 b63c e140 753d 65fc ca3d 07f5 9cbe
00000140: 4725 18bc b00d b5bd e4c5 f7bd 8182 23be
00000150: b300 7cbe c413 fcbd 8ec6 3abe dbed 4bbc
00000160: 4383 3fbe 3c7e fb3d 31a2 543d 64ec c4ba
00000170: decf 30be 5fde b23d 8d2b b13e 986e 553e
00000180: 13ae 80be 0b02 97ba cbf0 84be 06cc dd3d
00000190: d834 0dbe d55f bbbd 6db4 c53d cbdb 0b3e
000001a0: 41cd 443e 4b11 2abe 4d0c 02be 0298 123e
000001b0: 96b6 35be 1b0a 693e 0cb7 fe3d d822 943d
000001c0: f036 0bbd 6972 9e3e 18b0 09be dc3a 7abe
000001d0: 578b 9c3d 43a5 173e 9def 093b 541a 26bd
000001e0: a550 45bd 3497 4d3e 8e4e 933d 1eec 843e
000001f0: fe36 8fba 16d8 9d3d 7bef 90be d432 393d
00000200: ddb2 143e 81ea 15be 5a5e fabb 63d6 11be
00000210: ac14 103e eb9c 713e ef05 8a3d 1130 fcbd
00000220: 2cbc 8abd 1d74 12bd 10b9 9f3d 65d9 2fbe
00000230: 6fe1 563e 8cd6 2d3e 18dc 1ebb 3b1a fbbd
00000240: 6dbe b9be 6aad 963e 1def 333e 4330 b73d
00000250: 7edf 3dbe c8be 4dbe 3a7c 1d3e 5679 7c3c
00000260: d711 16bd 06b2 04be 3ebe 0cbe 1083 6abc
00000270: 9e3b 0cbe a33f 953d 0f3b 723e 2605 9c3d
00000280: 0268 563e d1e2 15be 1574 20bd f538 083d
00000290: b55b 32be 77e1 debd 03b9 a73c 0a4c 9b3c
000002a0: ba1b 48be
-0.31646848 -0.5718095 0.2806257 0.0675611 0.15587625 -0.29085448 0.04711058 -0.3685455
-0.11343537 -0.0927525 -0.04371583 -0.11763959 0.07204055 -0.1804625 -0.18237308 0.080461495
0.011419099 0.3807737 -0.090385206 0.05894139 -0.11959117 0.2118432 -0.15125504 0.07033845
-0.06554892 0.013393786 0.2570916 -0.15838878 0.26479757 0.08223411 0.1859022 0.14478277
0.05759928 -0.14490002 -0.2388921 -0.20033023 -0.03774722 0.053375997 -0.09270903 0.038508967
0.076109804 0.004024573 -0.114621505 -0.013190836 -0.080922015 -0.019582275 -0.07016892 0.13752887
-0.11046109 -0.18340345 0.008089873 -0.22548994 0.23624411 -0.07912622 0.16089989 -0.08548194
0.28875872 -0.010615667 0.15486448 0.017524637 -0.05993063 0.21687494 -0.1795022 0.29043636
-0.19082375 -0.048333604 -0.05813874 0.23409116 0.27714348 0.14934288 -0.20585118 0.10605116
0.24517785 -0.136152 0.112399586 -0.17855978 0.02225175 0.059876326 0.09911422 -0.3065569
-0.009286231 -0.08840501 -0.120982915 -0.15967752 -0.24609642 -0.123084575 -0.18239805 -0.012446846
-0.18702416 0.12279937 0.05191249 -0.0015024063 -0.17266795 0.0873382 0.3460354 0.2084297
-0.25132808 -0.0011520995 -0.2596496 0.1082993 -0.1378969 -0.09149138 0.09653554 0.13658063
0.19218923 -0.16608159 -0.12700005 0.14315799 -0.17745432 0.22757761 0.12437257 0.072332084
-0.03398794 0.30946663 -0.1344608 -0.24436516 0.076437645 0.14809136 0.0021047362 -0.040552452
-0.04817261 0.2007721 0.071927175 0.25961393 -0.0010926423 0.07707231 -0.2830771 0.04521449
0.14521356 -0.14640237 -0.007640642 -0.14241938 0.14070386 0.23595016 0.06739413 -0.123138554
-0.06774172 -0.035755266 0.0779897 -0.17172773 0.20984434 0.16976374 -0.0024240073 -0.122608624
-0.36278096 0.2942918 0.17571683 0.08944752 -0.18542287 -0.20092309 0.1537942 0.015409788
-0.036638107 -0.12958536 -0.13744447 -0.014313474 -0.13694617 0.07287528 0.23655342 0.076181695
0.20938113 -0.14637305 -0.039173204 0.033257443 -0.17417796 -0.10882848 0.020473963 0.018957157
-0.19541827

bias f4 [13]
00000000: 30af cabe 09c1 2a3e 6d47 e03d f7bf e53d
00000010: 820e 7c3d c5cb 20be ea21 483e 494e 73bc
00000020: 79e0 c73c d409 b8bb 9ae0 1d3d 2c07 f8bd
00000030: aa92 8bbe
-0.39586782 0.166752 0.109511234 0.11218255 0.061537273 -0.15702732 0.19544187 -0.014850208
0.02439903 -0.005616406 0.038544275 -0.12110743 -0.27260333
