data/results/GAT/balanced/1/all_emo/2585-765/full_model.pth (torch, 490731 bytes, 16 tensors)

att_src f4 [1, 4, 128]
000000 28 e3 fa 3d 57 dd 8a ba d4 24 e0 3d 00 df 38 3e
       0.12250358 -0.0010594529 0.109445244 0.18053818
000010 d9 b3 d1 bc 14 dd 6a 3d 8e a7 d7 3b 82 1a 0f 3e
       -0.025598453 0.057339743 0.0065812534 0.13974956
000020 11 ea e0 3d fe 6a 4a 3c cf 72 20 be 61 62 89 3d
       0.109821446 0.0123546105 -0.15668796 0.067082174
000030 22 af 06 3e 93 9c 96 3c e5 b3 cc 3d e5 ad 4f 3d
       0.13152745 0.018385207 0.0999525 0.050702948
000040 72 b7 d6 bd ad 75 e0 bd 00 69 16 bd 6d 8e 3b be
       -0.10484208 -0.10959945 -0.03672123 -0.1831605
000050 a4 3e 8f bb da 0a 5b bd 76 84 39 be 75 f2 e1 3c
       -0.004371481 -0.053477146 -0.18116936 0.027581433
000060 e9 bf 19 3d a6 31 a9 3d e4 e1 b4 bb ed e7 a0 bd
       0.037536535 0.08261423 -0.0055200923 -0.07856736
000070 f9 98 10 bd 69 1d 2a be 16 65 cf 3b 71 7f e3 3d
       -0.035302136 -0.16612782 0.006329189 0.11108292
000080 3e 42 47 3b 90 3c bd 3c 1e 0c 3a 3e fd 2f 33 3e
       0.0030404474 0.023100168 0.18168685 0.17498775
000090 d1 96 45 3e 55 67 31 3e ba 82 eb 3d 11 8d b5 bb
       0.19295813 0.17324574 0.114995435 -0.005540498
0000a0 98 ee 4e be c4 81 d3 3c 1b b3 f3 3d eb 9b fb 3b
       -0.20208204 0.025818713 0.11899396 0.007678499
0000b0 3f 98 e2 3d a7 98 25 be 04 55 d9 bb 9f 8d 58 3e
       0.11064195 -0.16171513 -0.006632449 0.21147774
0000c0 c3 65 45 be 24 ec 04 bd 17 07 b7 3d 59 e3 51 be
       -0.192771 -0.032451764 0.08936899 -0.20496882
0000d0 be 27 a8 bd 43 00 bd bd 7d c7 12 3e 2a 4e 0c bd
       -0.08210705 -0.092285655 0.14333911 -0.03425423
0000e0 91 17 cb 3b 53 79 30 3e 63 a6 4b 3d 59 5e 94 bd
       0.0061978777 0.17233782 0.049719226 -0.07244558
0000f0 d0 02 e0 3d b3 48 b4 bd a6 c3 3d 3e 57 a9 7c bd
       0.109380364 -0.08802929 0.18531665 -0.061684933
000100 47 8e 44 3e 51 8c 84 bd 39 e0 e9 3d 77 40 41 3e
       0.191949 -0.06472076 0.1141972 0.18872248
000110 0c 96 9e bd 90 c3 82 bc bf 62 d7 bd 69 eb e0 3d
       -0.07743463 -0.015962392 -0.10516881 0.10982401
000120 26 20 94 bd 7c 06 21 3e 12 3a 0d be 89 e2 99 bd
       -0.07232694 0.1572513 -0.13791683 -0.07513911
000130 61 b1 46 bd 44 0e 34 3e 60 38 e9 3d 22 5e 13 bc
       -0.048509005 0.17583567 0.11387706 -0.008994611
000140 59 2f d6 3d b6 35 3e be c1 5c ab bc a7 c0 47 3e
       0.104582496 -0.18575177 -0.020918252 0.19507085
000150 61 e2 51 bd 05 39 f1 bd 66 63 cd bd f0 ab 2d 3e
       -0.051241282 -0.11778454 -0.10028724 0.1696012
000160 6a 08 ed 3c 6d 2f 55 3d c8 43 ca bd c1 e4 d9 3d
       0.028934676 0.052047182 -0.098762095 0.106393345
000170 15 be 0e bb a4 17 5c 3e 20 ef 0a 3e c8 72 3d be
       -0.0021780778 0.21493393 0.13567781 -0.18500817
000180 04 03 35 3e ca 04 12 be 1e c0 91 bd a7 ec fe 3c
       0.17676932 -0.1425964 -0.071167216 0.031118704
000190 0e ed 2c be 47 51 85 bc d4 0c e2 bd 3a 5e 5f bd
       -0.16887304 -0.016274108 -0.11037603 -0.05453322
0001a0 b1 87 03 bb 5f 59 0f bd 34 f0 93 3d ad 92 6f bd
       -0.0020069892 -0.03499734 0.072235495 -0.05848949
0001b0 ae b4 ee 3c ef db c5 b6 2d 1c 92 bd 0e 55 46 be
       0.02913889 -5.896661e-06 -0.0713428 -0.19368383
0001c0 36 45 dd 3d 32 22 37 be 3d 5b e9 3c 4b ee 05 3e
       0.108042166 -0.17884138 0.028485889 0.13079183
0001d0 2e 28 48 3e 78 a7 eb bd 10 b1 34 3e ab d3 e7 bd
       0.19546577 -0.115065515 0.17645669 -0.11319669
0001e0 32 b1 02 be 2c f8 01 3d cc 1b aa bd cc f4 09 be
       -0.12762907 0.031730816 -0.08306083 -0.13472289
0001f0 9f 9e 67 3d 56 44 32 3e b9 39 02 3e b7 53 9a 3d
       0.056547757 0.1740888 0.12717332 0.075354986
000200 8e 68 ef 3d 08 24 34 3e 21 c3 c1 bd f6 ef 2e 3e
       0.11689864 0.1759187 -0.09461046 0.17083725
000210 ba ab 66 3d 2d 35 15 3e 88 7c 56 be 0a d3 4c 3d
       0.056316115 0.14571066 -0.20945942 0.05000595
000220 d2 bd 25 bc ac 40 97 bb 7a 35 20 be 83 ae b6 bc
       -0.0101160575 -0.004615864 -0.156454 -0.02230001
000230 32 4e 48 bd df b3 94 bd 39 ed 33 3e e8 54 44 be
       -0.048902698 -0.0726087 0.17570962 -0.19173014
000240 da 66 a3 3c 75 a2 c9 3d f9 fd 23 3d 23 69 1b 3e
       0.019946504 0.09845439 0.04003713 0.15176825
000250 1d cd ba 3c 0f c0 09 3e aa df ce 3d 8e 2b 17 be
       0.022802884 0.13452171 0.10101254 -0.14762709
000260 1c 1f 3a be 1e 99 dc bd 3d 2a 05 be 70 e1 26 be
       -0.1817593 -0.10771392 -0.13004394 -0.16296935
000270 bd 1f 30 3d fe 6e 2b be d3 83 27 be ea e7 98 bd
       0.042999018 -0.16741559 -0.1635888 -0.07466109
000280 e6 f7 4b be 71 da 06 be f0 ba 42 bd 52 5b 23 3c
       -0.19918784 -0.13169266 -0.04754156 0.009970503
000290 c8 2c ba 3d 7d 19 3f 3e 28 6c 37 bd e2 71 ff bd
       0.090905726 0.18662067 -0.04478088 -0.12472893
0002a0 c1 9b 08 be 05 3d 1b be 56 4f 0b 3e 1c b4 43 3e
       -0.13340665 -0.15159996 0.13604483 0.19111675
0002b0 5d 3f 5d 3d 8f 02 62 3d bd 53 8b 3d c1 20 15 3e
       0.054015506 0.05517822 0.06803081 0.14563276
0002c0 a6 01 ec 3d b5 1d 14 3e ef bd 87 3d 69 44 a6 3c
       0.11523752 0.14464457 0.06628024 0.020296292
0002d0 19 b0 67 bd 91 9d 09 3e 76 8f 70 3d f0 fe 03 3e
       -0.056564424 0.13439013 0.058730565 0.1289022
0002e0 60 0a 52 3e 79 44 1f 3e 76 5a 4c 3e 6f a7 25 3e
       0.2051177 0.15553464 0.19956383 0.16177152
0002f0 31 46 54 bd 48 81 a9 bd ac 28 2d 3d bf b8 03 3e
       -0.051824752 -0.082766116 0.042275116 0.12863444
000300 9b d9 34 be 3a 26 7c 3d 2a 0c c7 3d da 0e d2 bd
       -0.17661135 0.061559893 0.09719117 -0.10256739
000310 80 d2 da bd 38 42 cd bd bc e3 58 3e 73 2b 01 bc
       -0.10684681 -0.10022396 0.21180624 -0.007883894
000320 d6 1e f0 bd 3c 5f da 3d 29 af 11 be 63 cc 53 be
       -0.117246315 0.10662696 -0.14226975 -0.20683436
000330 04 8e 0e 3e a3 9f e8 ba ca 3c a0 3c 28 30 01 3e
       0.13921362 -0.0017747771 0.019560236 0.12616026
000340 ee fc f8 bc bc c4 82 bc 0d 4e 16 bd 46 d3 d8 3d
       -0.030394044 -0.01596295 -0.03669553 0.10587172
000350 78 85 32 bd 95 6f 56 3c 01 a2 0f be e6 ed c1 bd
       -0.043584317 0.013088127 -0.14026643 -0.09469204
000360 54 be 35 be 39 7b 17 3e 0f a8 38 3e d5 19 af 3d
       -0.17748386 0.147931 0.1803286 0.08549849
000370 0f 1d 9e 3d e6 0d cd bd 1c db 94 3d 47 15 b5 3d
       0.07720386 -0.100124165 0.07268354 0.08841949
000380 ce 8e 4a 3e 6c d9 32 be ec f6 02 be ac 6d dc bd
       0.19781038 -0.17465752 -0.12789506 -0.10763106
000390 05 71 31 3e 62 fe 9e bb a4 56 2b 3e e1 4b a0 bd
       0.1732827 -0.004852102 0.1673227 -0.07826973
0003a0 29 fe eb bc 9e 48 06 3d 44 f1 70 bd 73 97 26 3e
       -0.028807716 0.032784097 -0.05882384 0.16268711
0003b0 68 7a 1e 3e 8f 9c 2e be eb 07 c9 bd 5a a4 0d 3e
       0.15476382 -0.1705191 -0.09815963 0.13832226
0003c0 39 87 09 3e e2 0c 5c 3a 9d 7c 2f 3e 89 99 c2 3c
       0.1343049 0.00083942537 0.1713738 0.023754852
0003d0 a0 01 54 be ae 8f 8d bd 6b ec 1e 3e 97 ca 42 bd
       -0.20703745 -0.0691217 0.15519874 -0.047556486
0003e0 f0 41 23 be f2 ff 50 bd 82 31 fe bd 05 92 b6 3d
       -0.15943122 -0.05102534 -0.124117866 0.0891457
0003f0 26 63 8e 3d 58 b7 cb bd 2e cf 63 3d fa 87 14 3e
       0.06952505 -0.099470794 0.055617504 0.14504996

att_dst f4 [1, 4, 128]
000000 a9 7d 44 be 44 f4 5d bd 48 dd 42 bd 69 33 09 3d
       -0.1918856 -0.054188028 -0.04757431 0.033496294
000010 51 9d dc bd e3 5d 66 3d d2 1e 51 3e a2 9e d6 3c
       -0.10772193 0.05624188 0.20421913 0.026198689
000020 9b ff 0d 3e 0b 7c 08 be a3 2a 43 3e ea 9a 5a bd
       0.13867037 -0.13328569 0.19059233 -0.053370394
000030 f4 97 5a 3e 1a 7c 97 bd a6 f3 dd 3c af 8d 17 3d
       0.21347028 -0.07396717 0.02709372 0.037000354
000040 76 a8 62 3d de b6 1a 3c bd ed 1b bd 62 89 6c bd
       0.055336438 0.009443013 -0.03806852 -0.057748206
000050 2b 01 1a 3e be 54 47 3e b0 10 4e 3e 62 6b fa bd
       0.15039508 0.1946592 0.20123553 -0.12227513
000060 d3 cf 34 3e 23 d1 3f 3e 94 84 db 3d 60 32 6c bc
       0.17657404 0.18732123 0.10718647 -0.014416307
000070 20 10 15 be 69 7c 82 bd 1a 85 59 be f5 40 03 3e
       -0.14556932 -0.063713856 -0.2124218 0.12817748
000080 4d 81 14 3e f2 15 b1 3d fe 56 57 be cb 04 99 3d
       0.1450245 0.08646764 -0.21029279 0.07471617
000090 cc 2b de bd 35 36 d0 bd 02 1d 2a be 06 10 3c 3e
       -0.10848197 -0.10166589 -0.16612628 0.18365487
0000a0 d4 c3 f0 3d 98 06 42 3e ba ad 4a 3e b0 8b d7 bd
       0.11756101 0.18947828 0.19792834 -0.1052469
0000b0 3c 46 26 3e ab c4 23 3e c4 30 59 3d f7 3d 5c be
       0.1623773 0.15992992 0.053025022 -0.21508013
0000c0 44 c1 d2 bc fd 15 56 be 31 cd aa bc 25 3a 3c 3e
       -0.025726922 -0.20906825 -0.020849796 0.18381555
0000d0 5b 59 da bb de 40 2f be 25 71 4c 3e fe 47 c5 bc
       -0.006663484 -0.17114589 0.19965036 -0.02408218
0000e0 a5 42 e4 3d e3 d4 41 bd 77 f8 0e be e8 30 77 3d
       0.11145524 -0.047322165 -0.1396197 0.060349375
0000f0 85 4f 10 3d 02 d6 88 3d 66 2a a8 bb b3 65 36 3e
       0.035232086 0.06681444 -0.0051320074 0.17812233
000100 78 64 39 be e0 0a 2b be 61 60 33 be 38 5a 72 bd
       -0.18104732 -0.16703367 -0.17517234 -0.05916807
000110 eb 6c 56 3d ee 8b a3 bd 63 89 62 bd a0 73 d2 bd
       0.052349966 -0.07985674 -0.055306803 -0.1027596
000120 de 99 ad bd 4f 90 43 be 27 9b b7 3c 4e b0 89 3d
       -0.084766135 -0.19098018 0.02241285 0.067230806
000130 75 f2 a9 bd b2 67 57 3c 19 04 3c 3e b8 63 0b 3e
       -0.08298198 0.0131472815 0.18360938 0.13612258
000140 53 d5 50 be c9 90 30 be 6f f8 b6 3d aa 95 00 bc
       -0.20393877 -0.17242731 0.08934104 -0.007848183
000150 c1 4d 35 3e 09 fd 20 3e 89 ea 15 be eb 42 39 be
       0.17705442 0.15721525 -0.1464025 -0.18091933
000160 d4 b8 22 3d 83 dd 77 3d 01 77 41 bd 0c f4 0d 3e
       0.039727047 0.060513984 -0.04723263 0.13862628
000170 f2 64 4c 3e e3 75 d2 bc fd 08 97 3d a6 90 49 be
       0.19960383 -0.025690978 0.07374761 -0.19684085
000180 09 96 ce bc 89 b7 2c be e7 a3 35 3e 13 c1 89 3d
       -0.025218027 -0.16866888 0.17738305 0.06726279
000190 cd 78 ea 3d f9 fd 9d bd 2d ff b5 3d a8 e7 a8 3d
       0.11448822 -0.07714457 0.088865615 0.0824731
0001a0 5b 35 c6 bd 85 4b 0b bd 9d 8d f4 3d e5 73 47 3d
       -0.096781455 -0.034007568 0.11941073 0.04869451
0001b0 1d b1 25 bc 88 83 ea bb 8b 08 17 be cc ee 02 bd
       -0.010113028 -0.007156793 -0.14749353 -0.031966016
0001c0 e6 77 97 3c cf 15 b3 3d 6f 90 a4 bd 2a 2a a6 3d
       0.01848979 0.08744394 -0.08035361 0.08113511
0001d0 c2 98 02 3d 10 e0 46 3e e1 c2 b6 3d 81 8f 5a be
       0.031883962 0.1942141 0.08923889 -0.21343805
0001e0 9f 37 4e bd b2 26 ad bc 16 74 ca bd a9 8f a3 bd
       -0.050346013 -0.021136615 -0.09885423 -0.079863854
0001f0 96 4e 53 3c 2e 56 31 3b ff ed 6b bd c1 58 a5 bd
       0.012897154 0.0027059424 -0.057600018 -0.08073569
000200 28 21 c4 bd 47 3a 96 3d 04 19 89 3d 4f dc 1a 3d
       -0.095766366 0.07335334 0.066942245 0.03780776
000210 18 cb 1d 3e 54 1f 9e 3c 2b ee 49 3e 7e 4d 31 bd
       0.15409505 0.019302048 0.1971976 -0.043286793
000220 26 8a 9b 3a bd 80 de bd bb 35 2f be ee b1 bc bd
       0.0011866733 -0.10864399 -0.1711034 -0.09213625
000230 bf 9c 4f 3d 6d d0 83 3c b8 42 b5 3d ba b7 8c 3d
       0.050686594 0.016090596 0.08850616 0.068709806
000240 81 88 53 be aa 62 33 3e 12 00 6a bd 03 c2 29 be
       -0.20657541 0.17518106 -0.057128973 -0.16577916
000250 84 87 ac 3d 3b f6 5d 3d f5 a0 f9 bd 95 22 97 3b
       0.08424285 0.0541899 -0.12188903 0.004612277
000260 f5 bf 34 3e b1 e7 68 3d 47 11 7a bd 36 6f 5a bd
       0.17651351 0.056861583 -0.061051633 -0.053328715
000270 41 cf 92 3d d6 07 4f 3e 9a d4 73 bd a3 89 3d 3e
       0.07168437 0.20217833 -0.059528925 0.18509535
000280 79 6d af bd 84 a5 1b 3e 96 f4 a1 3c 6e 15 ba bd
       -0.08565802 0.15199858 0.019769948 -0.09086119
000290 0b 2e 35 3e 94 86 21 3e 45 38 20 bd 3a 00 52 be
       0.17693345 0.15773994 -0.039116163 -0.20507899
0002a0 8f 51 df bd e0 60 47 bc 98 4a 39 be e5 09 27 be
       -0.10904228 -0.012169093 -0.18094862 -0.16312368
0002b0 1c 53 8f bc 5e 05 5b bd f5 3a d6 3b 79 60 e0 bd
       -0.017495684 -0.053471915 0.00653779 -0.10955901
0002c0 29 f1 d9 bd 01 99 8c 3d 03 79 32 3c 81 4c 0f 3e
       -0.10641701 0.06865121 0.010893109 0.13994028
0002d0 24 a8 ec bd 4a 1c b9 bd 65 6a c7 bd e8 8b 0c be
       -0.11555508 -0.09038599 -0.0973709 -0.13725245
0002e0 54 57 f1 3d 49 5f 09 bd 18 ca 57 3e ce 7e fe 3d
       0.11784235 -0.033538137 0.21073186 0.1242653
0002f0 fd 34 d1 bd 63 1f 55 bd f6 53 bf 3d f8 d5 19 be
       -0.10215185 -0.052031886 0.09342186 -0.15023029
000300 5d 91 3c 3e 03 6a 0e 3d 44 ac 7a 3d 7c 78 3f 3e
       0.18414827 0.03476907 0.06119944 0.18698305
000310 3f e4 3a be f4 bf 9b bd 12 73 c3 bd db 90 0d be
       -0.18251131 -0.076049715 -0.09543432 -0.13824789
000320 e9 a5 0d 3e b2 fa 0f 3e 74 d5 24 3e 2d 7c 50 3e
       0.13832821 0.14060476 0.16097051 0.2035987
000330 dd 1d d7 bd 88 af 28 3b 31 92 53 3d a5 4d 89 bd
       -0.10503743 0.002573939 0.05165309 -0.06704263
000340 0a 06 fb 3d d5 b9 52 3e 78 11 58 be ea 9f 31 bd
       0.12257011 0.20578702 -0.21100414 -0.043365397
000350 44 b1 03 3e 1d 9b 18 be ae d5 1d bd 41 18 0b 3e
       0.1286059 -0.14902921 -0.03853386 0.13583471
000360 66 48 5a 3d 4b 93 e9 bd 19 2a 4c bd 71 ea 1d ba
       0.0532917 -0.11405047 -0.049844835 -0.0006024009
000370 4d 44 4e 3e f9 36 0d be 2f 04 87 bc ef 02 32 bd
       0.20143242 -0.13790502 -0.016481487 -0.04345983
000380 9f 46 5a 3e e6 06 27 3e 81 86 fe bc 16 d5 c4 bd
       0.21316002 0.16311225 -0.031069996 -0.096109554
000390 e6 08 56 3e c0 82 cf bc 38 ff 70 bd bc ea 29 3e
       0.20901832 -0.025330901 -0.058837146 0.1659345
0003a0 2e 16 80 3d 59 44 d3 3c 8c 73 46 3e d1 86 d6 bd
       0.062542304 0.025789427 0.19380015 -0.10474933
0003b0 4d d4 2a 3e c6 78 d6 3d a0 72 0a be 02 8f 46 3e
       0.16682549 0.104722545 -0.13520288 0.1939049
0003c0 6e 75 93 3d 70 2a 20 be 81 16 3c 3e c7 6c 34 be
       0.07200132 -0.15641189 0.1836796 -0.1761962
0003d0 50 0e ed 3c c0 65 c5 3d 64 52 e4 3d 1d 91 3f be
       0.028937489 0.09638548 0.11148527 -0.187077
0003e0 8f 8a 42 3e f6 5e 3d 3e 5a 23 fe 3d b4 e6 93 3d
       0.18998168 0.18493256 0.124090865 0.072217375
0003f0 a0 d5 0c be 76 c9 21 3e d8 0b 73 3c fb 9b ea bc
       -0.13753366 0.15799507 0.014834367 -0.02863883

bias f4 [512]
000000 14 0f a7 3d 04 54 71 3c a2 56 08 bd 1f 45 6c bd
       0.08157173 0.014729504 -0.033285744 -0.057683107
000010 55 ff 7b 3d 5d 35 c2 bc 18 20 6e bd a4 58 b9 3d
       0.0615228 -0.023707086 -0.058136076 0.0905011
000020 19 09 03 bd 5e 78 f0 3b 5f ff 5e 3b 59 3a 88 3c
       -0.031991098 0.0073385676 0.0034026725 0.016629385
000030 66 e1 20 3e 59 97 9e 3d 61 d0 b6 3d df 4e 8e bc
       0.15710983 0.07743711 0.08926464 -0.017371593
000040 4c 1d f1 3b e6 e8 ab bc 53 5c ae bd 74 b6 76 3d
       0.007358229 -0.020985078 -0.08513703 0.060232595
000050 93 90 9b 3d 3d d9 9d 3d 56 05 ab bd b0 1e dc bc
       0.07595935 0.077074505 -0.08350627 -0.026870102
000060 c9 f8 28 bc 26 fa 05 3e 67 85 98 3d 54 18 13 bd
       -0.010313221 0.13083705 0.074473195 -0.035911873
000070 82 a7 e9 3c d2 a0 c8 bc ef 93 91 3d 85 62 ca 3d
       0.028522257 -0.024490748 0.07108294 0.09882072
000080 e5 cf 07 3e d5 53 36 bc 25 e1 6c 3d 83 8e 86 bc
       0.13262899 -0.011128386 0.057831902 -0.016425377
000090 df df ca bd ce f3 61 bc 7e d6 0a 3e dd e6 62 ba
       -0.09905981 -0.013791038 0.13558385 -0.0008655617
0000a0 b4 07 cc 3d 80 23 a8 bc 88 28 58 3d 4f d1 9c 3d
       0.09962407 -0.02052474 0.05277303 0.0765711
0000b0 82 7d bb 3c 95 e2 b5 bb 0e c7 bf 3d cf fa 64 3d
       0.022886995 -0.0055506923 0.093641385 0.055903252
0000c0 3b c0 8c bb 05 fa cc 3d 88 32 16 bc af eb e5 3d
       -0.0042953766 0.10008625 -0.009167321 0.11226594
0000d0 e6 09 bc 3d 14 01 80 3d 49 1c 03 3e 26 e8 5f bd
       0.091815755 0.06250206 0.12803759 -0.054664753
0000e0 10 1e 3e 3e 3e 5d b1 3d f0 c4 2d bd d8 8c aa bd
       0.18566155 0.08660363 -0.042424142 -0.08327645
0000f0 6b ec 39 3d f2 39 c1 bb 92 77 53 3d 15 9a ab 3d
       0.04539148 -0.0058968 0.051627703 0.08378998
000100 f3 a6 a9 3c bf 57 27 bd b2 8e a2 bc 02 9c 0e 3e
       0.02070949 -0.040855166 -0.019843433 0.139267
000110 8b ff cf 3d 35 ff 68 bc cc 21 d9 bd 6f c5 87 3d
       0.10156163 -0.014221002 -0.10602149 0.06629454
000120 97 ad 91 3c 40 8f a8 3d c2 12 fb 3b 7f a5 af 3c
       0.01778297 0.08230448 0.007662148 0.02144122
000130 79 4e 34 bd 35 71 5b bd 98 47 94 3d d8 6c 2e bd
       -0.04402015 -0.05357476 0.07240218 -0.04258427
000140 ff fc 74 bd e9 f0 de bc 92 99 b0 bd 01 89 17 3e
       -0.05981159 -0.027214484 -0.08623041 0.14798357
000150 f7 c0 7e 3d 3a 15 b1 bd e9 f8 f9 3d b6 ca 33 3c
       0.062195744 -0.08646627 0.12205679 0.010973623
000160 3d 24 c4 bc dd 17 be 3d 0b f6 80 bc fd a9 95 3d
       -0.023943061 0.09281895 -0.015742322 0.07307813
000170 f8 1f c1 bc 56 37 07 3d aa cd 30 bc 8c 7e 94 3d
       -0.023574814 0.033011757 -0.010791222 0.072506994
000180 a7 c2 f1 bd 04 62 f3 bc fa f0 2f 3e 96 84 30 bd
       -0.11804705 -0.029709823 0.17181769 -0.043095194
000190 83 cc e4 3d e7 98 d7 3d df 02 a7 3d 11 32 82 3d
       0.1117182 0.10527211 0.081548445 0.06357206
0001a0 c2 6b cf bd 15 04 08 3c e7 db 23 3e 38 d0 aa 3d
       -0.10127975 0.0083017545 0.16001855 0.08340496
0001b0 f5 57 d9 3d 71 c3 db bd 97 63 e4 ba 78 69 be 3b
       0.106124796 -0.10730637 -0.00174247 0.0058109127
0001c0 10 11 c5 3d ff c1 19 3e dc 32 0f bc 32 ef 79 bd
       0.09622395 0.1501541 -0.008740153 -0.06101913
0001d0 5e c1 28 3d c4 b9 e0 3d a2 e7 ca 3d fa f0 a2 3b
       0.041200034 0.10972932 0.09907462 0.0049725743
0001e0 42 42 e0 3d fd 0f a8 3d 1b 5a 8e 3d 41 39 fe 3d
       0.10950138 0.082061745 0.0695078 0.12413264
0001f0 d2 c7 9e bd 9d 45 22 3e 0e 69 24 3e 4c 42 19 3e
       -0.077529564 0.15846868 0.160557 0.14966697
000200 8a bc 95 bd 97 28 af 3d a6 57 74 bd 2e 0d 48 3d
       -0.073113516 0.08552664 -0.0596539 0.048840694
000210 e7 5b a7 bd 3d 7a 03 be 3d 1a 81 bd 44 94 c7 3d
       -0.08171826 -0.12839599 -0.06303833 0.09745076
000220 25 8e ce 3c e4 7e 9c 3d b5 c1 f0 3d 18 46 1d 3e
       0.025214264 0.0764139 0.11755697 0.1535877
000230 ea a2 f6 3d 2f 94 1f 3c f3 2e 99 bd 26 8c 0b 3b
       0.12042792 0.00973992 -0.07479658 0.0021293252
000240 6f b5 06 3e 49 2f cd 3d 2a 07 2c bd 9d 31 22 bc
       0.13155149 0.100187846 -0.04199902 -0.009899524
000250 a9 73 01 3d ff 5f 1f 3d a5 8d 79 bd 32 12 ab bd
       0.031604443 0.03890991 -0.0609261 -0.0835308
000260 e6 8a 35 bd 53 3a 85 bc 42 1b 1d 3d a1 2c f8 bc
       -0.044321917 -0.016263163 0.038356073 -0.030294718
000270 02 55 84 bc fe d6 76 3c e9 47 fd 3c 01 18 96 bc
       -0.016153816 0.015065907 0.030918078 -0.018321993
000280 71 39 99 3d 5b 01 cf 3c b6 0e 3a bd 31 24 44 bd
       0.07481659 0.025269201 -0.045424186 -0.047886077
000290 99 d8 e1 3b bf ef cb 3d 01 8a 6d 3d 5d aa d1 3d
       0.0068922755 0.09957837 0.05799294 0.10237572
0002a0 c2 4a 48 bd f8 08 ae 3b 89 8f bf bb 9b 51 0d be
       -0.04889942 0.0053111278 -0.005845968 -0.13800661
0002b0 d7 3d 60 bd 07 46 0c 3e 82 66 36 3e 73 4b ca 3b
       -0.054746475 0.13698588 0.17812541 0.006173545
0002c0 ad bd dd 3d ee c2 dd bc 9d e9 b3 3d 35 b2 3a bd
       0.108271934 -0.027070489 0.087847926 -0.045580108
0002d0 54 c0 a1 3d d4 6c 34 3c 28 34 8e bc aa 27 96 bc
       0.07898012 0.011012275 -0.017358854 -0.01832946
0002e0 e0 c1 dc 3d 9c 5b f6 3d 40 79 0e 3e ea 31 45 3d
       0.10779166 0.12029192 0.1391344 0.048143305
0002f0 4a 56 9e 3c 88 0d 42 bd 5e bc 5d bd ca 9e 02 3e
       0.019328255 -0.047376186 -0.05413472 0.12755886
000300 be 67 69 3d 51 93 9a bc b4 bd b3 bd 4a 46 80 3d
       0.056983702 -0.018869074 -0.087764174 0.062634066
000310 eb 96 c1 3d d1 5c 52 3d 55 9f a2 3d e3 cd fd 3c
       0.094526134 0.051358048 0.079405464 0.030981964
000320 7e e0 59 3d 3c 76 c6 3d e0 ee c4 bc a0 7a a8 bd
       0.053192608 0.0969052 -0.024039686 -0.08226514
000330 a6 35 b5 3d ac da 5d bd 2a 3f 8c 3c b6 a1 eb bc
       0.08848123 -0.05416362 0.017119963 -0.028763633
000340 2f 64 a4 3d 81 7c 52 3c 45 05 ef bd ba d0 86 bd
       0.08026921 0.012847067 -0.11670927 -0.0658278
000350 42 a3 8b bc 23 51 7e 3d 7f 6b 99 3d 87 53 ef bd
       -0.01704562 0.062089097 0.074912064 -0.116858535
000360 7e 56 40 bd dd b5 07 bd 46 d6 2b 3c 17 7d a7 3d
       -0.046957485 -0.033132423 0.0104880985 0.08178156
000370 7e 34 da 3c fd 4a 4c bd 5e 28 3f bd ad 4a 09 3e
       0.026636358 -0.049876202 -0.046669357 0.13407393
000380 17 09 09 bd e0 89 5e bd 37 fb 15 bd c6 14 11 3e
       -0.033455934 -0.054330707 -0.03661653 0.1416808
000390 f3 e4 02 3c fa fe 4b bc f2 df f7 3d 20 86 2e bd
       0.007989156 -0.012450928 0.12103261 -0.04260838
0003a0 79 cb 7a bd 54 42 0b 3e 5c dd 77 3d 6c 83 d3 bd
       -0.061229203 0.13599521 0.06051384 -0.10327801
0003b0 e6 6f 18 3e 53 47 33 bc a7 bc 0f 3d 2b ba 93 3d
       0.14886436 -0.010942298 0.035092022 0.07213243
0003c0 7c 5a db bc 49 ca a2 bd 15 46 ac 3d df f3 c7 3c
       -0.026776545 -0.07948739 0.084118046 0.024408279
0003d0 51 a6 84 bc e0 01 2f bd 07 c5 14 3c 0a 15 d5 3d
       -0.016192587 -0.042726398 0.009080178 0.104044035
0003e0 fc df b5 bc d1 7f 91 bc f8 84 60 bd bc df 8c bd
       -0.02220153 -0.017761143 -0.05481431 -0.068786114
0003f0 e7 a7 57 3b 96 a2 0a be 2a 8e 00 3d 93 55 2f bd
       0.0032906474 -0.13538584 0.03138558 -0.04280622

weight f4 [512, 21]
000000 1e e1 7a 3c 59 60 bb 3d f1 60 97 3c c6 a9 13 3c
       0.015312461 0.09149236 0.018478842 0.009012645
000010 bf e0 df bc 0b f8 bd 3c 54 47 db bd f6 21 d9 bd
       -0.027328847 0.023189565 -0.10706964 -0.10602181
000020 a4 15 4b bc 1c f2 95 bd 65 e9 95 bd 1e f4 89 bc
       -0.012395296 -0.07321569 -0.07319907 -0.016840037
000030 83 51 7e 3d 99 7c 5c 3d 13 ab 13 bd a4 40 b2 bb
       0.062089454 0.053829763 -0.03605182 -0.0054398347
000040 53 ed c9 3d b4 55 c3 3c c0 a5 96 3d 58 a7 2a bd
       0.09859719 0.023844577 0.07355833 -0.041663498
000050 4a eb bd bd 6a d6 5f bd a0 d8 16 3c ae e4 c0 bc
       -0.092733935 -0.05464784 0.009206921 -0.023546543
000060 20 6c 63 bd d4 9a d9 3d 7c eb bf bd 0c 09 c9 3b
       -0.055523038 0.10625234 -0.09371087 0.0061351117
000070 8e c9 3a 3d d1 f3 dd bc a0 c5 3a 3d e6 50 91 b9
       0.045602374 -0.0270938 0.045598626 -0.0002771683
000080 fb 8a 7c bd a9 cc 61 bd 23 9b 3b bd 6a 0d d4 bd
       -0.06165598 -0.05512682 -0.045802247 -0.10354121
000090 c3 9c 81 3d 58 68 c2 3d 16 ab 60 bd bc a0 96 3b
       0.06328728 0.09492558 -0.05485066 0.0045967977
0000a0 d6 5d fb 3c 08 de cf 3c 83 ad 75 bd 42 91 87 bd
       0.030684393 0.025374427 -0.059979927 -0.066195026
0000b0 48 4d d7 3d ea bc 84 3d 2d 19 d2 3d 25 e3 9a 3d
       0.10512787 0.06481345 0.10258708 0.07562856
0000c0 cb cc 41 bc 3d be 96 3d 80 29 84 bb f3 ff 0c ba
       -0.011828612 0.07360504 -0.0040332675 -0.00053787156
0000d0 d5 84 3b bd 36 bc aa 3d 98 b6 a3 bc 8e da 90 3c
       -0.045780975 0.0833668 -0.019984528 0.01768234
0000e0 27 4d aa bd af f3 22 3d 5d 2c 47 bd fa b4 b1 bc
       -0.08315497 0.039783176 -0.048626292 -0.021692742
0000f0 ae 9a d4 bb 84 b2 31 3d 6c 9f 00 3c 18 f1 8e 3c
       -0.006488166 0.043383136 0.007850509 0.017448947
000100 6b 9f 92 bd ab 53 a1 bd b4 e7 25 3d 59 7e 24 bd
       -0.07159313 -0.078772865 0.040504172 -0.040159557
000110 c4 de b9 bd de 30 43 bd 16 9f d7 bd 60 b0 a8 3c
       -0.09075692 -0.047654025 -0.1052839 0.020591915
000120 b8 e8 fd 3b 18 bd c8 3d ef dc 6c bd 35 2a 57 bd
       0.0077486895 0.09801692 -0.057827886 -0.052530486
000130 68 43 e2 3c b3 6e d8 bc 36 30 b0 3d 95 a1 93 3c
       0.027620032 -0.026419973 0.086029455 0.018021384
000140 88 a1 2d 39 1a 95 19 bd 5e 32 8b 3d 45 25 3e bd
       0.00016558741 -0.03749571 0.06796716 -0.04642226
000150 b2 ef 2c 3d 2f 57 8d 3d 18 71 a7 bd c1 6a c1 bd
       0.04222078 0.069013946 -0.08175868 -0.0944419
000160 0e ee 77 bd 9f dd 51 3d 37 6d 60 bd 3a 8f 3a 3c
       -0.06052976 0.051236745 -0.054791655 0.011386687
000170 a8 fa 8a 3c 3e fa bb 3c 75 16 5a bd c1 df 80 3b
       0.016965225 0.022946473 -0.053244073 0.0039329235
000180 83 ea 92 3d 1d 74 56 3d b6 d8 97 3c 13 d6 b3 bd
       0.07173636 0.052356828 0.018535953 -0.08781066
000190 44 46 44 3d eb 58 36 bd a0 81 91 3d b8 41 25 3d
       0.047918573 -0.044518393 0.07104802 0.040345877
0001a0 ed 67 bb bc d6 8c 22 3d 48 75 40 bd 7c b0 a1 3c
       -0.022876704 0.039685093 -0.046986848 0.019737475
0001b0 1e e8 37 bb 71 46 92 3b 1e 50 19 3d 91 6d ce 3d
       -0.0028061937 0.0044639637 0.03742992 0.10079492
0001c0 e3 d1 42 bd c7 bd d3 3d 65 10 9d bc 70 29 ce 3d
       -0.047563445 0.103389315 -0.019172857 0.10066497
0001d0 83 9b c5 3c 53 ec 29 3c a8 b3 08 bd 8a 00 61 bd
       0.024122005 0.0103712855 -0.03337446 -0.054932155
0001e0 1b b9 ce bd ed 86 65 bd b0 14 ed bb f3 60 bd 3d
       -0.100939 -0.05603688 -0.007235132 0.09247007
0001f0 fb ab 7a 3d 41 fd b3 3c 81 28 cf bd 69 af 96 3d
       0.06119917 0.021971347 -0.101151474 0.073576756
000200 7d 8b 92 3d e4 9a 48 bd 33 3e 2a 3d 6a a4 b9 bd
       0.071555115 -0.04897584 0.041563224 -0.090645626
000210 65 86 65 bd 6e b1 07 bd 8f 0c c7 bd c0 b4 d6 bb
       -0.05603637 -0.033128195 -0.09719192 -0.006552309
000220 29 9f ad 3c f8 bf fc 3c 2e 78 cb 3d d5 42 7f 3d
       0.021194058 0.030853257 0.09935032 0.062319595
000230 ff 56 c2 bd 0e 9d f6 bc 91 58 7b 3d fe a2 cc bd
       -0.094892494 -0.030104186 0.06136376 -0.09992026
000240 5a 1b 92 bb 33 6b 2b 3d c6 23 8e bd 41 e2 b5 3d
       -0.004458827 0.04185028 -0.06940417 0.08881045
000250 56 20 92 bd ba 78 96 bd de b0 9b bd a9 ea 65 bc
       -0.07135074 -0.073472455 -0.07602094 -0.014032998
000260 04 05 16 3d a4 86 f9 3c be 5b 54 bd 08 40 be 3d
       0.036625877 0.03045971 -0.051845305 0.09289557
000270 93 bb 67 bd 21 74 ab 3d 94 d0 16 3d b0 2e 00 bd
       -0.05657537 0.08371759 0.03682001 -0.031294525
000280 c3 50 a2 3d da 16 11 3d c4 0b b6 bd e1 ed 5a 3d
       0.0792556 0.035422184 -0.08888963 0.053449515
000290 b2 a2 ce 3d d8 31 a0 bd 82 eb ab bc 4d 48 ac bd
       0.100896254 -0.07822007 -0.020986322 -0.08412228
0002a0 71 1f 8c 3d af 8f 5b 3d fb 54 a4 3d ab 04 0c 3d
       0.068419345 0.053603824 0.08024021 0.03418414
0002b0 6b f0 58 bc cd b9 19 bc 6c d3 a7 bd 68 3d 88 3d
       -0.013240914 -0.009382677 -0.081946224 0.06652337
0002c0 cd ff 2e bd e6 6e 42 3c e0 93 84 3b 2b 72 08 3d
       -0.04272442 0.011867261 0.0040459484 0.033312004
0002d0 2f 3a a8 bd b8 ee 74 bc 83 a2 4d 3d 7f 9b 9b bd
       -0.08214223 -0.014949493 0.05020381 -0.07598018
0002e0 87 11 37 bd 15 a6 69 bd 90 fc b2 bd 6e 1a db 3d
       -0.04469445 -0.057043154 -0.08739579 0.106984004
0002f0 61 bf c1 3d 7a ae 7a 3d f1 aa b4 bd 2f 57 47 3b
       0.09460331 0.06120155 -0.08821667 0.0030416956
000300 3a 65 b5 3c 5c a4 53 3d 27 c6 c4 3c b4 fb 74 bd
       0.022142995 0.051670417 0.024020268 -0.059810355
000310 40 33 09 3c 69 0f ac bd 9a d3 59 3d 78 4c 8a 3d
       0.008374035 -0.08401377 0.053180315 0.067528665
000320 32 ad 0f bd 86 39 b6 bd a9 a2 3c 3b 52 6c 5e 3d
       -0.03507728 -0.088976905 0.0028783476 0.05430252
000330 9f 5a 96 bd 8b 85 31 3d 7a 77 95 3d 00 cf b4 bd
       -0.07341503 0.043340247 0.07298179 -0.088285446
000340 be 4f 68 3d 5c c5 3b 3d 9f 9e 59 bd fb ae b9 3d
       0.056716673 0.045842513 -0.05312979 0.09066578
000350 01 bd 5e bd 25 49 9c 3d d5 48 ae bd aa a9 a9 3d
       -0.054379467 0.07631139 -0.08509985 0.08284314
000360 18 4f b2 bc 22 71 be bd 97 da 69 3d 07 36 0f bc
       -0.02176623 -0.09298922 0.05709323 -0.0087409085
000370 ef e8 f3 3c be fb 44 3d 9d 79 0d 3c 19 0e 04 3d
       0.029774157 0.048091643 0.008634952 0.032240007
000380 25 83 b9 bd 6e 5c c4 bd d8 60 4f bd 7a 46 6a bd
       -0.09058217 -0.09587942 -0.050629467 -0.057196118
000390 00 81 d1 bd 5e c5 51 3c ab da 3c bc 19 32 c6 bc
       -0.10229683 0.012803404 -0.011526744 -0.02419381
0003a0 c0 a8 ec bb be e0 54 3d bd 52 1d bd 42 b6 02 3c
       -0.007222265 0.051972143 -0.038408983 0.007978024
0003b0 6b 2c 23 bc cb fa 45 3d 2d 29 4e bc 5c 89 18 3d
       -0.009959321 0.048334878 -0.012583059 0.03724037
0003c0 2c dc 2b bd 49 11 a7 3d b6 b6 93 3c 85 24 a2 3c
       -0.04195802 0.08157594 0.01803146 0.019792804
0003d0 99 16 58 3d be a7 d7 bd 12 fc 4b 3d ec ee b1 3d
       0.052755926 -0.10530041 0.04980094 0.08688149
0003e0 07 31 87 3d b0 1c 94 3d a3 05 a7 bd 96 1a c2 3d
       0.06601148 0.07232034 -0.08155372 0.09477727
0003f0 43 b5 b9 3c d3 6b d8 bd 8d 8d cb 3d 45 9c b2 3d
       0.02266944 -0.10567441 0.09939108 0.08721212

att_src f4 [1, 1, 128]
000000 e7 42 23 be f6 fd ec bd eb 12 15 be b0 37 c8 3d
       -0.1594349 -0.11571877 -0.14557998 0.097762465
000010 33 09 ab 3d 48 c3 78 3d f0 c9 92 bd 14 e8 80 bd
       0.08351364 0.06073311 -0.07167423 -0.062942654
000020 a6 f6 dd 3d e3 63 12 be b1 a0 b6 3d d0 f8 48 be
       0.1083806 -0.14295916 0.08917368 -0.19626164
000030 33 a0 3f be 65 da 9a 3d 54 98 2b be be 41 3a bd
       -0.18713455 0.07561187 -0.16757327 -0.045472853
000040 13 27 b8 3c a9 e0 2b be bf 6f 44 3e 08 74 fd bc
       0.02247957 -0.1678492 0.19183253 -0.030939117
000050 22 ba 2b 3e 50 a9 78 bd f3 2f 4d 3e 76 b8 b1 3d
       0.16770223 -0.060708344 0.20037822 0.08677761
000060 26 d4 b0 bc a2 1e 83 3d 15 fa 6b 3d 1e 9a eb bc
       -0.021585535 0.06402327 0.057611544 -0.028760012
000070 83 1d 30 3e c3 ce 0c be 17 32 8d bb a7 09 07 bd
       0.17198758 -0.13750748 -0.0043089497 -0.03296819
000080 28 ac e9 bd 00 7f 66 bd 28 ce 1f be d8 55 a3 3d
       -0.11409789 -0.05627346 -0.15605986 0.07975358
000090 0d a9 bc bd 7e af 07 be d6 76 88 3c 35 3f 53 be
       -0.092119314 -0.13250539 0.016658228 -0.2062958
0000a0 56 cd 4d be 9b 56 6b 3d ad 8d 00 3e 76 32 a2 bc
       -0.2009786 0.05745564 0.12554045 -0.019799452
0000b0 f6 71 ac 3d b1 a6 0c be 3c 81 9f 3d 7e f7 ae 3d
       0.08420174 -0.13735463 0.077883214 0.08543299
0000c0 53 e2 26 3e 32 8c 3f be f3 f2 20 be 50 93 35 be
       0.16297273 -0.18705824 -0.15717678 -0.17731977
0000d0 20 75 43 be 4b 7b d6 3c a5 09 3f be 8a af 75 3d
       -0.19087648 0.026181838 -0.18656023 0.05998186
0000e0 17 f5 93 bd 9d e3 51 bd a1 ec d4 bd 38 32 3c bd
       -0.072244816 -0.05124246 -0.10396696 -0.04594633
0000f0 c5 ca 08 3e ec 9c df 3d 86 e8 0c 3d 7d 90 87 3d
       0.133586 0.10918602 0.03440144 0.06619356
000100 e0 ec 38 3e 7c de b0 bc d4 6e c4 3d c8 18 08 be
       0.1805911 -0.021590464 0.09591451 -0.13290703
000110 89 e6 9c bd ac cf dd bc c9 a0 b4 bc 20 5d 5a be
       -0.076611586 -0.027076565 -0.022049325 -0.21324587
000120 0e 74 42 be aa 5f c4 bc a3 87 b8 3d d3 0d 0a 3e
       -0.18989584 -0.023971397 0.09010246 0.13481836
000130 ac bd cf 3d 02 66 2d be 96 0a 8d 3d cf 10 67 3d
       0.10143599 -0.16933444 0.06886785 0.056412514
000140 28 6d 30 3d 8f 84 54 3d 89 fd 56 bd 99 fe 29 be
       0.04307285 0.05188423 -0.052487884 -0.16601028
000150 4b 6d 0a 3e 8f 80 4c 3e f8 70 15 be 0e fb 4f 3e
       0.13518254 0.19970916 -0.14593875 0.20310614
000160 32 42 ac 3d ec 6a 02 be 00 8a bf bd 79 b5 47 bd
       0.08411063 -0.127361 -0.09352493 -0.04875705
000170 bf 22 4f 3e 3d a9 43 be d5 0d 61 bd 53 dc b0 3c
       0.20228098 -0.19107528 -0.054944832 0.021589434
000180 b4 b9 06 3e 8b 44 81 bd 4d 50 4e 3e b7 bd 28 3e
       0.13156778 -0.06311902 0.2014782 0.1647862
000190 38 bd 0f be e6 76 d9 bd 8f 9f 5d bd 8a d9 13 be
       -0.14037025 -0.10618381 -0.054107245 -0.14438453
0001a0 2f 48 36 bd 99 8f 1f 3e 48 5e 5a bd 7b 6f b9 bc
       -0.044502433 0.15582122 -0.05331257 -0.022636166
0001b0 7c a3 9d 3c 1a 0a cf bd 01 c8 31 be 49 92 4b be
       0.019242994 -0.101093486 -0.17361452 -0.19880022
0001c0 b4 03 75 3d 29 d4 a4 3d 38 19 8d bc ff 4c e4 bd
       0.059817985 0.08048279 -0.01722394 -0.11147498
0001d0 1a 9d 27 3e 72 1a 29 bc a5 46 96 3d e9 d5 01 bd
       0.16368523 -0.010321246 0.07337693 -0.03169814
0001e0 da 7b 51 bd 47 28 34 bc 3b 81 16 be 96 24 18 bd
       -0.051143505 -0.010995931 -0.14697735 -0.037144266
0001f0 03 73 55 bd 65 e3 08 bd ea 64 a1 bd e5 e1 be bb
       -0.052111637 -0.033419985 -0.07880576 -0.0058252686

att_dst f4 [1, 1, 128]
000000 57 4f 30 be 75 2a e7 3d c1 73 2c bc 95 57 c6 3d
       -0.17217766 0.11287395 -0.010525645 0.09684674
000010 d2 cc 55 3e 41 d7 36 3e c8 cf c5 bd b0 80 b4 3d
       0.20878914 0.1785555 -0.09658772 0.08813608
000020 6f 97 17 3d 8d 87 f8 bd 6e dd 83 3d e5 4e d2 3d
       0.037009653 -0.12135229 0.06438719 0.10268954
000030 33 24 08 be 18 ea 8a 3d 1a 6e f6 bc e1 88 53 3d
       -0.13295059 0.06782931 -0.030081797 0.05164421
000040 53 41 15 3e a0 0e 62 bb 60 1e 5b bd be 9d 0a be
       0.145757 -0.003449358 -0.053495765 -0.13536736
000050 23 51 b8 bd 27 cd 4e be 0e 4d 16 3d 3c fc be bd
       -0.089998506 -0.20195447 0.03669458 -0.09325454
000060 63 5f 18 bd be c2 41 3e 35 61 18 be ab 91 3a 3d
       -0.037200343 0.18921944 -0.14880832 0.045549076
000070 44 9a 7c 3d 8e a4 3b 3e d4 83 ea bc d3 7b 1d 3e
       0.061670557 0.18324491 -0.028627314 0.15379266
000080 82 ab 7c bd d0 a2 32 3d 7f dd 24 3d bf 34 bb 3d
       -0.061687 0.0436123 0.040250298 0.0914092
000090 8e 62 d4 bd 60 34 a6 3d 14 d5 90 bd 70 b2 20 3e
       -0.1037036 0.081154585 -0.070718914 0.15693069
0000a0 4a 4a 31 3d 86 0a 39 3d a7 59 26 3d d5 bc 94 bd
       0.04328374 0.04517605 0.040612843 -0.07262579
0000b0 53 eb 50 bd 03 2e 81 3d 4e a9 05 be 80 a9 5e 3c
       -0.051005673 0.06307604 -0.13052866 0.013590217
0000c0 85 d8 0b be 98 6c 33 3b c8 a7 37 be af fb 01 bd
       -0.13656814 0.002737796 -0.17935097 -0.031734165
0000d0 22 c1 2b 3e 00 8a 33 be ef cf 3e be 2f ba b5 3d
       0.16772893 -0.17533112 -0.18634008 0.08873402
0000e0 04 e8 b4 bd 93 cf 44 3e ec 3f 2b be 27 49 56 3e
       -0.08833316 0.19219808 -0.16723603 0.20926343
0000f0 7a 00 08 be 23 1e 12 3e 48 ad e1 bd d8 fe 61 3d
       -0.13281432 0.14269309 -0.11019379 0.05517468
000100 f1 45 25 3e 8f 29 36 bd 2a ef 00 3d 50 0d 9d 3d
       0.16139962 -0.044473227 0.031478085 0.07668555
000110 3c 25 e9 3c 8c 14 2d be 50 7d 26 3e e9 9c 9a 3d
       0.028460138 -0.1690237 0.1625874 0.075494595
000120 9c 7f 78 bd 52 29 fe bd 84 7a ef 3b 11 f4 82 bc
       -0.060668573 -0.12410225 0.007308306 -0.01598552
000130 0b 2d 3b 3e 52 c9 19 3e 9e 65 ce bd fc 44 b0 3d
       0.18278901 0.15018204 -0.10077976 0.08606908
000140 bb 82 b8 bd 98 2a f0 3d 5e 16 43 3e 1a 0e 2d 3e
       -0.0900931 0.11726874 0.19051501 0.1689991
000150 2b 35 df 3c 51 4d 4c be 51 47 a1 bd ca d0 69 3d
       0.027247032 -0.19951369 -0.07874931 0.057083882
000160 13 09 a4 3d 7b 69 34 be ea 24 40 3e eb 04 84 bb
       0.08009543 -0.17618363 0.18764082 -0.0040289066
000170 c3 27 0e bd 14 81 e1 bd 31 d8 cc bc fc 15 16 be
       -0.03470589 -0.11010948 -0.025005432 -0.14656824
000180 01 1a 2c 3d d2 83 e7 bd 8c 8d 13 3e 2a d9 2a bc
       0.042016987 -0.113044396 0.14409465 -0.0104277525
000190 8c b7 0d be 38 eb 21 3e af 98 ab 3d 46 2a 93 3d
       -0.13839549 0.15812385 0.083787315 0.071857974
0001a0 a7 90 30 be 1d 16 39 3e 00 03 02 3d 58 46 ee 3d
       -0.1724268 0.18074842 0.031741142 0.11634511
0001b0 47 38 c7 3b 1a 44 2e be 42 09 16 be 2a 73 f4 3d
       0.006079707 -0.17018166 -0.14651969 0.11936028
0001c0 0e ca b4 bd f2 e9 de 3d 0f 90 c4 3c 13 78 5f bd
       -0.088276014 0.10884465 0.023994474 -0.05455787
0001d0 fc 7d 33 3e 3f 22 2c be 9d 77 85 bd a3 24 32 bd
       0.17528528 -0.16809939 -0.06516955 -0.04349197
0001e0 10 1e b1 bc b5 9d 40 bd f7 f0 38 3d 2e 77 49 3e
       -0.02162078 -0.0470254 0.045151677 0.1967437
0001f0 6b 86 a5 bd 17 c5 5b bd e9 84 9e bb b1 49 45 3e
       -0.08082279 -0.053654756 -0.0048376215 0.19266392

bias f4 [128]
000000 a7 75 38 3d 2a 97 08 bd 37 c7 03 3e d1 a0 54 3d
       0.045034077 -0.033347286 0.12868963 0.05191118
000010 8e 0c 7d 3d d6 2f 28 bd 81 b5 a4 3d 5a 6e 85 bd
       0.06177955 -0.041061245 0.080424316 -0.065151885
000020 55 82 b2 3d 5c a2 e5 bb 70 98 cb bd 2b b5 5e bd
       0.08716265 -0.00700788 -0.099411845 -0.054371994
000030 9c 38 a4 bc 0b 5f 89 3d 62 47 85 bd 05 c5 1a be
       -0.020046525 0.06707581 -0.06507756 -0.1511422
000040 f1 b6 12 be 6b 45 a7 bd 1c 1b 11 be 24 46 4b 3d
       -0.14327599 -0.08167537 -0.14170498 0.04962744
000050 b0 da 57 3b e9 e0 a9 bd 72 a7 af 3d 28 17 a0 3a
       0.0032936744 -0.08294851 0.085768595 0.0012213932
000060 96 a8 fe bd 64 c9 ef 3d 07 fe aa bd c6 5b d7 bc
       -0.12434499 0.11708334 -0.08349233 -0.026288878
000070 63 1e 31 bc 72 ab cc 3d 2f 45 30 3e 48 1f 8c 3d
       -0.010810467 0.09993638 0.17213891 0.06841904
000080 9e d7 ef 3d 7f 38 a6 3d a3 b2 8a bd e8 e4 84 bd
       0.117110476 0.081162445 -0.067723535 -0.06488973
000090 c2 92 c7 bc 72 90 73 bd 75 d9 07 be ad d1 96 3d
       -0.024361972 -0.059463926 -0.13266547 0.07364211
0000a0 95 21 a7 3d 01 55 b9 3a 04 2b ee bc de 96 21 bd
       0.08160702 0.0014139713 -0.029073246 -0.03945052
0000b0 39 ef 1c bd 4b 57 e4 bd b6 fd f6 3c 15 3a 11 be
       -0.038314078 -0.11149462 0.030150276 -0.14182313
0000c0 ed f6 49 bd 05 15 ac bd cf f9 24 be 4a 2a 42 3d
       -0.049307752 -0.08402447 -0.1611092 0.04740361
0000d0 d5 3a 23 3d de c4 bf 3c c9 b3 90 bc 37 47 a0 bd
       0.03985103 0.023409303 -0.017663853 -0.07826083
0000e0 4f 93 8e bc 6e e6 09 be 28 67 62 bd 40 d7 f0 bb
       -0.017404227 -0.13466808 -0.05527416 -0.0073498785
0000f0 54 94 56 3d 8a 49 0b bd ea ed 95 3d c3 8c b0 bd
       0.05238755 -0.03400568 0.07320769 -0.08620598
000100 50 60 d6 b9 7f 7d 31 3b 3b f4 43 ba de 77 35 3a
       -0.0004088902 0.0027082858 -0.0007475053 0.00069224637
000110 53 92 49 39 1a 23 03 99 25 f7 c7 39 d7 d3 99 3a
       0.00019223364 -6.77963e-24 0.00038140375 0.0011736107
000120 fa f9 ff b8 31 ef 86 39 9a 17 0c ba 0e ce 85 ba
       -0.00012205909 0.00025736683 -0.0005344093 -0.0010208504
000130 c2 29 76 ba 34 b4 4c 39 13 d8 47 3b 4f d1 d3 39
       -0.00093903777 0.00019522087 0.003049378 0.00040401003
000140 48 fe b0 b9 88 dc b6 38 af ea 28 39 39 c3 33 3a
       -0.0003375879 8.7195134e-05 0.00016109155 0.00068573985
000150 0f 19 ae b8 3a 62 7c 3a 8e ab 0f b9 68 94 1c 3a
       -8.301634e-05 0.0009627674 -0.00013701452 0.0005973042
000160 d4 f0 e2 ba 1d 3a 61 b9 4f 9c 61 ba 28 a1 00 80
       -0.0017314204 -0.00021479321 -0.00086063606 -5.7812e-41
000170 6c 5e e6 39 64 46 0d 3a 73 e9 22 3a 31 4f df 39
       0.00043939368 0.0005389212 0.0006214596 0.00042592877
000180 92 34 96 ba 1e 82 27 ba e2 54 97 39 ac 6d 37 ba
       -0.0011459759 -0.00063899334 0.00028864207 -0.00069972384
000190 49 a5 e4 38 9f 8c 00 80 dc ed bf 39 b8 a0 d3 38
       0.00010902674 -5.0445e-41 0.00036607578 0.000100912
0001a0 c1 f5 44 b8 26 87 bf ba a7 07 1c 3b 46 49 80 ba
       -4.6958918e-05 -0.0014612421 0.0023808272 -0.0009787462
0001b0 c7 ac 70 ba b4 25 a1 3a 15 88 06 39 1a 4e 86 3a
       -0.0009181019 0.0012294562 0.0001282993 0.0010246665
0001c0 b2 72 01 80 72 65 85 3a 20 1e 35 3a 9d 3e 77 3b
       -1.3298e-40 0.0010177328 0.0006909091 0.003772653
0001d0 fb 35 8b 3a 2b 83 ed b9 c6 ec 64 3a bf f7 3e ba
       0.0010620946 -0.0004530189 0.0008732792 -0.0007284842
0001e0 52 e4 56 ba 77 52 ee 3a dc f3 7c 3a 99 4d c3 3a
       -0.00081974745 0.0018182535 0.0009649375 0.0014900445
0001f0 d7 f0 43 3a a7 79 92 ba 2a 76 83 3a 9f 4e 96 ba
       0.00074745476 -0.0011175171 0.0010029722 -0.0011467523

weight f4 [128, 512]
000000 b8 b0 6f 3d 28 e2 34 3d 24 84 2b bd b7 d6 d9 bc
       0.05851814 0.044160992 -0.041874066 -0.026591642
000010 e1 d6 90 bd 59 de 4f 3d 14 1b 12 3d 7e 17 69 3c
       -0.07072235 0.050749157 0.035670355 0.014226792
000020 91 6d 4e bd ce 39 5e 3c 58 dc f1 bb 9e a1 b0 3d
       -0.05039746 0.013563586 -0.0073810034 0.08624576
000030 98 46 05 bd d6 c3 29 3d 57 2c 81 3b 8f 23 90 3d
       -0.032538027 0.04144653 0.0039420533 0.07038032
000040 35 1f e2 bc d8 99 2b bb d9 d9 89 3d b2 a1 2d bd
       -0.027602771 -0.0026184227 0.06731004 -0.042390533
000050 78 1a 88 3d 1f b6 0a bb bc 32 11 bd 12 71 39 3d
       0.066456735 -0.0021165682 -0.035448775 0.045273848
000060 6b 7b 2c 3c 68 f5 bb 3d 94 3e 24 bd 24 c9 87 bd
       0.010527472 0.09177667 -0.04009874 -0.066301614
000070 1f a6 02 3c 06 50 c7 3d e2 83 5b bd 73 4f 38 ba
       0.007974177 0.0973206 -0.05359257 -0.0007030882
000080 e7 0b 32 3d b2 60 a0 bd 99 7e 68 bd 21 de fe 3c
       0.043468382 -0.07830943 -0.056761358 0.031111779
000090 72 d0 02 bd b2 cc fe 3c 7b 3f c2 3d c0 33 06 bd
       -0.03193707 0.031103466 0.09484764 -0.032764196
0000a0 92 8b b4 3d a9 70 9e 3d dd c3 86 3c 45 d3 03 3d
       0.088156834 0.07736332 0.016450817 0.032183904
0000b0 4a 9d 38 3d 8c fc 57 bd d9 92 ab 3d 0f 8f bc bb
       0.045071878 -0.05273108 0.08377618 -0.0057543586
0000c0 c4 29 bb bc ec 00 03 bc 25 2c 3d 3c 88 2b dd bc
       -0.022847064 -0.007995825 0.011546169 -0.026998296
0000d0 00 19 cb bd 22 7b 32 bd b2 73 18 3d 8e 45 d4 bb
       -0.09916878 -0.04357446 0.03721971 -0.006478018
0000e0 76 bc 8e 3c 8c 11 bf bd 22 0a 05 3b 9c b8 44 bd
       0.01742385 -0.09329519 0.002030023 -0.04802762
0000f0 22 36 2e 3c 2b f8 63 3d 43 94 9a bd 40 aa c1 3d
       0.010633023 0.055656593 -0.0754781 0.09456301
000100 e5 bb 88 bd c2 f4 90 bd ec dd 0c bd 21 b7 9c bd
       -0.06676463 -0.07077934 -0.03439133 -0.076521166
000110 18 fd b7 bd c1 a6 3c 3a f7 f9 50 3d e2 ab 66 3d
       -0.08983821 0.0007196479 0.051019635 0.056316264
000120 65 ba 5b 3c 07 a1 58 3c ce f5 c0 3d 65 58 9d bd
       0.013411139 0.013221986 0.094218835 -0.076828755
000130 e6 83 9a 3d 00 76 bc bd 31 b5 f8 bc 80 62 30 bd
       0.07544689 -0.09202194 -0.030359836 -0.043062687
000140 3b ee 81 3d 9e 17 48 bd 3d d9 8c bc 9f e8 31 bd
       0.06344267 -0.048850648 -0.017193431 -0.043434735
000150 21 03 3f 3d b6 31 ec bb ce 17 9a bc 0f 0d fb bb
       0.046633843 -0.0072080744 -0.01881018 -0.007661469
000160 1c 55 96 bc 1d d4 15 bc 1c a6 26 bd d2 ef 8f 3c
       -0.01835113 -0.00914481 -0.040685758 0.01757041
000170 1b 2f ba bd 45 cc 79 bd f4 f2 29 3d 00 e5 96 3d
       -0.09091016 -0.060985822 0.041491464 0.07367897
000180 30 be 8b bd 0c 0c aa 3d da 1a 45 bd 00 34 a9 bd
       -0.06823385 0.08303079 -0.04812131 -0.08261871
000190 17 6a c5 3d fb 1a 60 bc 11 cb 28 bd 6c a7 b7 bd
       0.09639376 -0.013678308 -0.041209284 -0.0896748
0001a0 15 f8 09 bd 16 24 7f 3c 4f 10 a6 bd e4 86 d1 bc
       -0.033683855 0.015572568 -0.08108579 -0.025577016
0001b0 d3 3c 87 bb d7 45 4c bd fe 6e 95 39 50 70 c1 bc
       -0.004127124 -0.049871292 0.0002850219 -0.023613125
0001c0 93 79 04 3d 4b 85 13 3d 72 37 27 3d 93 e0 b8 3d
       0.032342505 0.03601579 0.04082436 0.09027209
0001d0 10 40 a5 3d 8b ad aa 3d c8 93 df bc 5f 41 97 bb
       0.080688596 0.08333882 -0.027292147 -0.004615947
0001e0 7a f9 b7 3d 29 34 6a bd 11 61 06 3d 8e 27 70 3d
       0.08983131 -0.05717865 0.032807413 0.058631472
0001f0 e1 11 c5 3c 80 44 84 3d 63 0e b7 3d 3e a1 a9 bd
       0.024056377 0.06458378 0.08938291 -0.08282708
000200 70 f3 0b 3c 40 ef 06 3d a9 9f 5f 3d 16 8b 14 3d
       0.008541927 0.03294301 0.054595623 0.036265455
000210 9a 08 68 bd 81 96 41 bc 2d ad 6d 3d 21 2b 93 bc
       -0.056648828 -0.011815668 0.05802648 -0.017964901
000220 4f bd d5 3b f8 30 bc bd b0 6a 74 bd d8 94 6c 3d
       0.0065228115 -0.091890275 -0.059672058 0.057759136
000230 f8 51 cf bb 2d f9 bc 3d 9d e9 ae 3c 60 76 bf bc
       -0.00632691 0.09227214 0.02135163 -0.023371875
000240 a4 19 b8 3d 98 f2 52 3d be 2f a6 3d d0 cc 8d 3a
       0.089892656 0.051500887 0.08114575 0.0010818485
000250 27 b7 48 bc 60 db 84 3c 85 5d 7e 3d 90 5a f3 bc
       -0.012250698 0.016217887 0.062100906 -0.02970627
000260 ca db 8e bd 4d 46 22 3d bf ee 5e 3c c0 83 08 bd
       -0.06975515 0.039617825 0.013606726 -0.03332877
000270 d3 a4 4c 3d d3 e7 1c bc dd 5a 4f bd aa ce 48 bd
       0.049961876 -0.009576756 -0.050623763 -0.049025215
000280 e2 2d b8 3d 1e 87 06 3c 60 87 47 3d a1 d4 91 bd
       0.089931265 0.008210925 0.048713088 -0.07120634
000290 d5 d4 3b b8 18 9e 2b bd 97 77 8c 3d d2 e2 a7 3d
       -4.478249e-05 -0.041898817 0.068587475 0.081975594
0002a0 b6 37 55 bd 48 7e 85 3d e5 0b dc 3c 4d 92 a5 3d
       -0.052055083 0.06518227 0.02686114 0.08084545
0002b0 5c 34 5e bd 47 31 af 3b 94 9c 92 bd 13 e5 53 3d
       -0.054249153 0.0053464505 -0.07158771 0.051732134
0002c0 d7 db a1 bd 22 06 1e 3d db d9 b8 3d 28 17 9c bc
       -0.07903259 0.038580067 0.09025928 -0.01905401
0002d0 f0 42 02 3d 81 a0 a9 3d b7 e9 8c 3d 00 56 d5 bc
       0.031802118 0.08282567 0.06880515 -0.026041985
0002e0 ac 57 a4 3d a2 01 b8 3d ac 3c 23 bc 12 d7 18 3d
       0.080245346 0.089846864 -0.009963196 0.037314482
0002f0 a7 86 8e 3c 6c 3f 9f bd 19 67 be bd 3a 82 9a 3d
       0.017398192 -0.07775769 -0.09297008 0.0754437
000300 b1 18 a2 bd 6f 2b 6f 3b bb bc 58 bd 80 ef f3 3c
       -0.07914866 0.0036494394 -0.052914362 0.029777288
000310 8b 76 14 3c a9 92 b9 bd 52 06 a8 bd 27 77 ad bd
       0.009061466 -0.09061176 -0.082043305 -0.08469992
000320 33 e3 9f bd 1d b2 96 bc 39 44 d6 bc ba 43 30 bd
       -0.07807007 -0.018395478 -0.026155578 -0.04303334
000330 65 3a d8 3c b8 45 40 bc db 25 8f bd 0d 1c 3b bc
       0.026395032 -0.011735372 -0.06989642 -0.011420262
000340 ff 7e b6 bd 7c e1 a4 bd 7e 0b 4a bd 57 7b a3 3d
       -0.08910941 -0.0805082 -0.049327366 0.079825096
000350 02 1f 60 bd 91 33 39 bc 72 3b 1b 3c fa 3d 89 bd
       -0.05471707 -0.011303798 0.009474622 -0.06701274
000360 e6 74 15 bd b2 2a 21 3d cd 01 78 bd 92 bf 3f bd
       -0.036488436 0.039347358 -0.060548592 -0.046813555
000370 66 fb 86 3d 73 52 0a 3d 72 cc a0 bd be b9 07 bb
       0.06590919 0.033770036 -0.07851495 -0.0020710076
000380 7a cb 1e 3d f9 0d 47 bd 4d bd 52 bd a5 86 be 3c
       0.03876827 -0.04859731 -0.051450063 0.023257563
000390 d1 8a c9 3d a3 c4 1d bd 60 fc 8a 3d bf 75 a8 bd
       0.0984093 -0.038517606 0.06786418 -0.08225583
0003a0 5a 00 10 bc 15 19 45 bd 9d 88 91 3d 7d ae c2 3d
       -0.008789146 -0.048119623 0.07106135 0.09505937
0003b0 b9 67 5f 3a 27 06 fd 3c 34 23 2c bd bf 59 71 3d
       0.0008522231 0.030886723 -0.04202576 0.05892348
0003c0 1e a1 35 bd 93 0b 90 3d f9 2d 5d bd 2d 2a 8a bd
       -0.044343106 0.070334576 -0.05399892 -0.06746326
0003d0 ab f1 a3 3c 3b 5c 95 3b e4 be 4f 3d 33 92 e1 3c
       0.020012697 0.004558114 0.050719157 0.027535534
0003e0 e2 95 87 3d 80 6a a6 bd 77 22 90 bc 3c d1 62 3d
       0.06620385 -0.08125782 -0.01759456 0.055375323
0003f0 5a 21 84 3d 26 df 43 3b ac 43 b3 bd 32 dc 8c 3d
       0.06451674 0.0029887646 -0.08753142 0.068779364
