data/results/GAT/balanced/1/all_emo/881/full_model.pth (torch, 31215 bytes, 6 tensors)

att_src f4 [1, 13, 13]
0	0x3d120284	0.03564693
1	0x3e86a485	0.26297393
2	0x3e98e14d	0.2985939
3	0xbea14954	-0.31501257
4	0x3ed670ef	0.41883036
5	0x3e86d065	0.26330867
6	0xbde9576a	-0.11393626
7	0x3ed9c867	0.42535707
8	0xbbaf5dc0	-0.005351752
9	0x3eb31638	0.3497789
10	0xbeca4c6a	-0.39511424
11	0x3edcf59a	0.4315613
12	0x3eda841b	0.42678913
13	0xbea5c4ca	-0.323767
14	0xbed210d5	-0.41028467
15	0xbe09de3a	-0.13463679
16	0xbe940c40	-0.28915596
17	0x3dd56d27	0.1042121
18	0x3e62dbd9	0.22154178
19	0xbda04cfa	-0.07827182
20	0x3ea72bc2	0.32650572
21	0x3c632c67	0.013865567
22	0xbe23ea87	-0.16007434
23	0xbede1305	-0.43373886
24	0x3e047e12	0.12938717
25	0xbee38518	-0.4443748
26	0x3b011b35	0.0019700055
27	0x3d996ac1	0.07491065
28	0xbe877638	-0.2645738
29	0x3e0ed006	0.13946542
30	0x3db41d17	0.08794611
31	0x3e9db2ef	0.30800578
32	0x3e9db20f	0.3079991
33	0xbec87b61	-0.3915663
34	0xbeab8f5b	-0.3350781
35	0xbe3909b2	-0.18070105
36	0xbeb8434f	-0.35988852
37	0x3e18ba16	0.14914736
38	0xbea3b7ce	-0.3197617
39	0xbeb7f5cf	-0.35929725
40	0x3e1367ef	0.14395116
41	0x3e9289f6	0.2862088
42	0xbe152643	-0.14565377
43	0xbeecff00	-0.462883
44	0x3db1e1c4	0.086856395
45	0x3e68bda4	0.22728592
46	0x3ebaa50e	0.36454052
47	0x3d7c721f	0.06163227
48	0x3eb43fa2	0.35204798
49	0xbed9b270	-0.4251895
50	0x3ee4aeb8	0.4466455
51	0xbeaa5091	-0.33264592
52	0xbea6089e	-0.3242845
53	0x3eb1dfe9	0.34741142
54	0xbd98ed02	-0.07467081
55	0x3e963053	0.29333743
56	0xbea68322	-0.3252192
57	0x3eb83aef	0.35982463
58	0x3ee66dec	0.4500574
59	0x3e04392e	0.12912437
60	0x3ec95512	0.39322716
61	0xbeb27c0a	-0.3486026
62	0xbddf9789	-0.10917575
63	0x3e26434b	0.16236608
64	0x3e89e454	0.26932013
65	0xbe851325	-0.2599117
66	0x3e99b2cf	0.30019233
67	0xbe475ac9	-0.19468226
68	0xbe89abff	-0.26889035
69	0x3d970ceb	0.07375511
70	0xbebea6f3	-0.37236747
71	0xbebd5bd4	-0.36984122
72	0x3e31bc74	0.17357045
73	0x3e208860	0.15677023
74	0x3e39fb44	0.18162256
75	0xbdb31267	-0.08743744
76	0xbeb26445	-0.34842125
77	0xbecf1ca4	-0.4045154
78	0x3eddebd7	0.43343994
79	0xbee68cf4	-0.45029414
80	0x3e2f5090	0.17120576
81	0x3ebb0e1f	0.3653421
82	0x3eba0702	0.36333472
83	0xbe901fb0	-0.28149176
84	0xbe02f570	-0.1278894
85	0xbecff8d6	-0.40619534
86	0x3ea91ebe	0.33031267
87	0xbef54c60	-0.47909832
88	0xbed02a5b	-0.40657315
89	0xbea6d459	-0.32583883
90	0x3ec4824e	0.38380665
91	0x3ea08abc	0.31355846
92	0x3ea88b80	0.3291893
93	0x3eb895ca	0.3605178
94	0xbe61ef82	-0.22064021
95	0xbe908666	-0.28227538
96	0xbe988ccc	-0.2979492
97	0x3e278865	0.16360624
98	0x3e20c951	0.15701796
99	0x3de65d48	0.11248261
100	0xbebcb2a6	-0.36855048
101	0x3d6a1a44	0.057153955
102	0xbe688d31	-0.2271011
103	0xbd9a3719	-0.0753004
104	0xbdd0ae17	-0.10189455
105	0x3c8ed5ef	0.017435996
106	0xbed275c5	-0.41105476
107	0x3ec7124b	0.38881144
108	0xbe667161	-0.22504188
109	0x3e2213ab	0.15827815
110	0x3ea1b5b9	0.31583956
111	0x3e4931cc	0.19647902
112	0x3eacd7d7	0.33758423
113	0x3e8a80f5	0.2705151
114	0x3ea0dd0e	0.3141865
115	0x3dccb7e9	0.099960156
116	0x3e915a47	0.2838919
117	0xbe427f5b	-0.18993895
118	0xbe7f5ba2	-0.24937299
119	0x3e64e7e8	0.2235409
120	0x3de15b9b	0.110038005
121	0xbc926955	-0.017872492
122	0xbedab059	-0.42712668
123	0x3e20cc09	0.15702833
124	0x3e92a5ef	0.28642222
125	0xbd3eb085	-0.04655506
126	0x3dc589f6	0.096454546
127	0x3e404bdc	0.18778938
128	0xbeef9df3	-0.46800193
129	0xbdbdbae5	-0.09264163
130	0xbe4509ef	-0.1924207
131	0xbe6378fb	-0.22214119
132	0x3e932d94	0.2874571
133	0x3efb6bce	0.49105686
134	0x3d60f09e	0.05491697
135	0x3ea43613	0.32072505
136	0xbeb02551	-0.3440347
137	0x3d7ecb07	0.06220534
138	0xbdbb6464	-0.09150007
139	0xbe927da3	-0.28611478
140	0x3dc5b944	0.09654477
141	0x3e18ec27	0.14933835
142	0xbd1811fb	-0.037126523
143	0x3e531871	0.20614792
144	0x3e720901	0.23636247
145	0x3ee4a495	0.44656816
146	0x3ca2c1b4	0.019867755
147	0x3c11a45b	0.008889283
148	0x3c19eb53	0.009394485
149	0x3d98f49c	0.074685305
150	0xbea2b9bc	-0.3178233
151	0xbd628620	-0.055303693
152	0xbeca3ed9	-0.39501074
153	0xbeabbfdc	-0.33544815
154	0xbec3b8d8	-0.38226962
155	0x3e92e841	0.2869282
156	0xbe881357	-0.26577255
157	0xbceeef45	-0.029166827
158	0x3d765b04	0.060145393
159	0x3ec53e5b	0.38524136
160	0x3e4cffdf	0.20019482
161	0xbead9ab5	-0.33907095
162	0x3ef15cdc	0.4714116
163	0xbededb69	-0.43526772
164	0x3d7e8ff2	0.062148996
165	0x3eed8271	0.4638858
166	0x3ed5a5f7	0.41728184
167	0xbe03a14a	-0.12854496
168	0xbea97349	-0.33095768

att_dst f4 [1, 13, 13]
0	0x3e733782	0.23751643
1	0x3ee4bc6d	0.44675007
2	0xbe874ef9	-0.2642744
3	0xbdf825ed	-0.12116609
4	0xbe8d0b6e	-0.27547783
5	0x3e076513	0.1322215
6	0x3e39be97	0.1813911
7	0x3e93d3b4	0.28872454
8	0xbe4adb7a	-0.19810286
9	0xbeea21e2	-0.45728976
10	0xbe80e3ee	-0.25173897
11	0xbe9c3dea	-0.30515987
12	0xbdeffa9b	-0.11717721
13	0x3db72c60	0.08944011
14	0xbef26696	-0.47343892
15	0xbd8c379a	-0.06846543
16	0xbf061caf	-0.5238752
17	0xbea15b70	-0.31515074
18	0xbed95c9f	-0.42453477
19	0xbdae4d05	-0.08510784
20	0xbeb16e06	-0.34654254
21	0x3e318eda	0.1733965
22	0x3eced41a	0.40396196
23	0x3ef01825	0.4689342
24	0x3e502ab6	0.20328793
25	0x3de1ed44	0.11031583
26	0xbde1dced	-0.110284664
27	0x3e8d5181	0.27601245
28	0xbea78907	-0.3272173
29	0x3e9ecd0d	0.31015816
30	0xbee9517d	-0.45569983
31	0xbec81b38	-0.39083266
32	0x3e1ad7bd	0.1512136
33	0xbe4c5f09	-0.19958128
34	0x3de26331	0.110540755
35	0x3ebc2fd3	0.36755237
36	0x3e2c3fa1	0.16821148
37	0x3f009b08	0.5023656
38	0xbe7429e7	-0.2384411
39	0xbeb1a6da	-0.3469761
40	0x3d474153	0.048646282
41	0xbd4bf986	-0.04979851
42	0xbea2b69b	-0.31779942
43	0xbe00671b	-0.12539332
44	0x3f098b89	0.5372854
45	0xbe828764	-0.2549392
46	0x3e2f5116	0.17120776
47	0x3eadda9d	0.3395585
48	0x3ec76713	0.38945827
49	0x3e593e95	0.2121528
50	0xbdb82a1a	-0.08992405
51	0x3e03e747	0.12881194
52	0xbecb7b9d	-0.39742747
53	0xbe3e236d	-0.18568201
54	0x3f11e381	0.5698777
55	0x3ecbb77b	0.39788422
56	0xbf01ec7e	-0.50751483
57	0x3eeaa6e0	0.4583044
58	0x3dc89b28	0.09795219
59	0x3e9b330e	0.3031239
60	0x3f1ff10e	0.62477195
61	0x3d174f6d	0.03694098
62	0xbe5125a4	-0.20424515
63	0x3ee51885	0.4474527
64	0x3cb27827	0.021785809
65	0xbe083b4c	-0.1330387
66	0xbe2b2d14	-0.16716415
67	0x3f05ad3e	0.5221747
68	0x3e894faf	0.26818606
69	0xbdb4d54f	-0.08829748
70	0x3c853886	0.016262304
71	0xbab0eb1b	-0.0013497801
72	0xbea5bb8e	-0.32369655
73	0x3de3b67b	0.1111879
74	0xbecb3dc6	-0.39695567
75	0x3b47b8cc	0.0030475138
76	0xbdf26e18	-0.11837405
77	0xbe3047ef	-0.1721494
78	0x3ecbc25a	0.39796716
79	0x3d4cf851	0.0500415
80	0x3e6891b9	0.22711839
81	0xbecf17ef	-0.40447947
82	0x3e153036	0.14569172
83	0x3e4c37b6	0.19943127
84	0x3ea60e08	0.3243258
85	0xbe677c3e	-0.22605988
86	0xbcb18b34	-0.021672823
87	0xbef5e3a4	-0.4802524
88	0x3eac670e	0.33672374
89	0x3e781f2a	0.24230638
90	0x3e9aee44	0.30259907
91	0x3e8f1497	0.27945396
92	0x3ea535d4	0.3226763
93	0x3ed6a1b4	0.41920245
94	0x3e600e68	0.21880496
95	0x3e6dd85a	0.23227063
96	0x3e508cb9	0.20366181
97	0xbe91ddf6	-0.28489655
98	0x3e1f1c61	0.1553817
99	0x3e031a89	0.12803091
100	0xbeca6ce0	-0.3953619
101	0xbe549f5c	-0.20763916
102	0xbea5234d	-0.32253495
103	0xbeb417a4	-0.35174286
104	0x3eed7cbd	0.4638423
105	0x3f08e267	0.5347046
106	0xbe53f252	-0.20697907
107	0x3e5b1c8e	0.21397611
108	0xbe797d80	-0.2436428
109	0x3e876ba2	0.26449305
110	0x3d29ad37	0.041424956
111	0xbec6bce0	-0.38815975
112	0xbe085269	-0.13312687
113	0x3f12c1df	0.57327074
114	0x3e1e683d	0.15469451
115	0xbec92d8e	-0.39292568
116	0x3e3e16e0	0.18563414
117	0xbf209d41	-0.6273995
118	0x3d8a7223	0.06760051
119	0x3ecee189	0.40406445
120	0x3de0b0c7	0.109712176
121	0x3e2f4034	0.17114335
122	0xbf061ec8	-0.5239072
123	0xbe0285d9	-0.12746371
124	0x3eb46b98	0.35238338
125	0xbee230ee	-0.44177955
126	0xbe326ade	-0.17423579
127	0x3ee29476	0.44253892
128	0x3e6a4363	0.22877268
129	0x3e0df5ed	0.13863344
130	0xbefc90a0	-0.4932909
131	0x3e9e26c5	0.30888954
132	0xbd52f462	-0.051502593
133	0x3cbe0db7	0.0231999
134	0x3ebc3494	0.36758864
135	0xbeef83ea	-0.4678033
136	0x3e3b1531	0.18269803
137	0xbeeebbe9	-0.4662774
138	0x3ec53907	0.3852007
139	0x3de382d4	0.11108938
140	0x3db91271	0.090367205
141	0xbe3939a1	-0.1808839
142	0x3e723ccd	0.23656006
143	0xbecedbaa	-0.40401965
144	0xbd1a73f4	-0.037708238
145	0x3f108d63	0.5646574
146	0xbeaf92af	-0.34291598
147	0xbd07d5f0	-0.03316301
148	0x3e2590d9	0.16168536
149	0x3e564f17	0.20928608
150	0xbe257f41	-0.16161825
151	0x3f04ead0	0.51920795
152	0xbe88fa30	-0.26753378
153	0x3e091ef0	0.13390708
154	0x3ec9bd68	0.39402318
155	0xbe2a8fc4	-0.16656405
156	0x3ef2af38	0.47399306
157	0x3ee6fa88	0.45113015
158	0x3e7b2fb8	0.24529922
159	0xbe0b2053	-0.1358655
160	0x3f058912	0.5216228
161	0xbecd907c	-0.40149295
162	0x3d4d28ea	0.050087847
163	0x3d876f50	0.06613028
164	0x3f011160	0.5041714
165	0xbedcddeb	-0.4313806
166	0x3d046087	0.03231862
167	0xbe422fb4	-0.1896351
168	0x3e705476	0.2346972

bias f4 [13]
0	0x3882fb95	6.245744e-05
1	0xbc2a2509	-0.010384806
2	0x3b0c2ac3	0.0021387793
3	0xbd237ebb	-0.03991578
4	0xbcd6e3be	-0.026231643
5	0x3c81aa63	0.015828317
6	0x3c8cf676	0.017207365
7	0xbccffd22	-0.025389258
8	0x3b7ff582	0.0039056246
9	0xbbcb9be7	-0.0062136534
10	0xbd1d16b8	-0.038351744
11	0xbc14123f	-0.009037553
12	0xbcc671e7	-0.024224235

weight f4 [169, 11]
0	0x3e01e103	0.12683491
1	0x3dae0a1f	0.08498024
2	0xbe13a2d4	-0.14417583
3	0x3d4ca54f	0.049962338
4	0x3dd3096f	0.10304534
5	0xbe373edd	-0.17895074
6	0x3e13e8ab	0.14444225
7	0x3c1bdbc7	0.009512848
8	0xbc456b55	-0.012049516
9	0x3e0beb5e	0.13664004
10	0x3df5e899	0.12007255
11	0x3d67d4a8	0.05659929
12	0x3e006e53	0.12542085
13	0x3d116b5e	0.035502784
14	0x3b9ef78b	0.0048512868
15	0xbe154246	-0.14576063
16	0x3d11cb27	0.03559413
17	0xbe1282ec	-0.14307755
18	0x3d3eeafa	0.04661081
19	0x3c08ea74	0.008356679
20	0x3cd19766	0.025584888
21	0xbd85f9c6	-0.06541781
22	0xbdfd3ef4	-0.12365523
23	0x3e0899eb	0.13339965
24	0x3d418912	0.04724986
25	0x3d5db155	0.054124195
26	0xbdae6cb6	-0.08516829
27	0xbd9109b8	-0.07081932
28	0xbdc06ecc	-0.09396133
29	0x3db2b726	0.08726339
30	0xbdda0c2b	-0.10646852
31	0x3de5a2fb	0.11212727
32	0x3e17e28f	0.14832519
33	0xbe23e5db	-0.16005652
34	0xbc16feb0	-0.009215996
35	0xbcaae578	-0.020861372
36	0xbdbbfd64	-0.0917919
37	0x3daae60c	0.08344659
38	0xbc94bbed	-0.018156016
39	0x3e29950d	0.16560765
40	0xbddcccf7	-0.107812814
41	0x3dd0012b	0.10156473
42	0xbe28fe16	-0.16503176
43	0xbda63918	-0.081163585
44	0x3cc160a5	0.023605654
45	0x3e0bce2e	0.1365287
46	0x3d840c06	0.06447606
47	0xbe31d025	-0.17364557
48	0x3be13321	0.00687255
49	0xbda766ef	-0.0817393
50	0x3d460086	0.048340343
51	0xbde00caf	-0.10939919
52	0xbc9da684	-0.01924444
53	0x3e2e27f8	0.17007434
54	0xbdd0ac63	-0.1018913
55	0xbe1e1850	-0.15438962
56	0x3d41acf2	0.047284074
57	0x3c62c60b	0.013841162
58	0xbd449aad	-0.047999073
59	0x3e113848	0.14181626
60	0xbdb220cb	-0.08697661
61	0xbdc0a322	-0.09406115
62	0xbdf11e7c	-0.117733926
63	0xbd2c257a	-0.042027928
64	0xbd256c9b	-0.040386777
65	0x3dcc6471	0.09980095
66	0x3cbe8510	0.023256809
67	0x3d829279	0.06375594
68	0xbd833641	-0.064068325
69	0x3e0ac04b	0.13549916
70	0x3e246ebf	0.16057871
71	0xbdd8e2e9	-0.10590155
72	0x3d1411e1	0.036149863
73	0xbd8ae5bb	-0.06782099
74	0x3df726ba	0.120679334
75	0xbe007afe	-0.12546918
76	0xbd976f44	-0.07394269
77	0x3e2cfa50	0.16892362
78	0xbe36d848	-0.17855942
79	0x3dd2a353	0.10285058
80	0x3ba0a080	0.0049019456
81	0x3e170719	0.14748801
82	0xbd9284fa	-0.071542695
83	0x3e10dfd8	0.1414789
84	0x3d7f83c7	0.062381532
85	0x3d2e1b56	0.04250654
86	0x3e28cd36	0.16484532
87	0xbdccc71f	-0.09998917
88	0xbddb4219	-0.107059665
89	0x3e2d481f	0.16922043
90	0xbdb58846	-0.08863883
91	0xbdde5916	-0.108568355
92	0x3c40e76f	0.011773928
93	0xbb62243f	-0.0034506468
94	0x3cc50103	0.024048334
95	0xbd580180	-0.052735806
96	0x3dd0b814	0.1019136
97	0xbdf796f7	-0.12089341
98	0x3b9e5f6c	0.0048331525
99	0x3dc1b8cf	0.094590776
100	0x3d599873	0.053123903
101	0x3ce10843	0.02746976
102	0x3d394a6a	0.045236982
103	0xbd823caa	-0.06359227
104	0xbd02f0cf	-0.031967934
105	0xbd606631	-0.054784957
106	0xbda7a7a1	-0.081862696
107	0xbd09c87b	-0.03363846
108	0x3e69567a	0.22786894
109	0x3d043fb9	0.032287333
110	0x3c13104e	0.008976055
111	0x3dc02510	0.09382069
112	0xbd318da5	-0.043347973
113	0xbdf6e76e	-0.120558605
114	0xbdf3d955	-0.11906687
115	0xbd82dac7	-0.06389385
116	0x3d835fe6	0.064147756
117	0xbe343c6a	-0.17601171
118	0xbd3b3c91	-0.045712058
119	0x3d079bfa	0.033107735
120	0x3ddacda6	0.106837556
121	0x3d02df9c	0.03195153
122	0x3d15ee62	0.036604293
123	0x3dd3c6b9	0.10340638
124	0x3dafdd18	0.08587092
125	0x3d93ddc7	0.07220035
126	0xbd4bd35b	-0.04976211
127	0xbe1725a8	-0.14760458
128	0xbd03298a	-0.032022037
129	0xbd0caa06	-0.034341834
130	0x3d3aa418	0.04556665
131	0x3cec9ddf	0.028883873
132	0x3d9d8b94	0.07692638
133	0x3e0092f4	0.12556058
134	0xbd53fef9	-0.051756833
135	0xbdf8e6c1	-0.12153388
136	0xbd783691	-0.060598914
137	0xbd8aa792	-0.06770243
138	0x3dee8f1b	0.11648389
139	0xbdad196a	-0.08452113
140	0x3c59b569	0.01328788
141	0x3b9486a2	0.004532651
142	0xbd517483	-0.051136505
143	0x3dad4b86	0.084616706
144	0xbd4d757e	-0.050160877
145	0x3abba7f5	0.0014317023
146	0xbdba6b81	-0.09102536
147	0x3bf86a9e	0.007581069
148	0x3ce8fdd1	0.028441342
149	0xbc0048df	-0.007829874
150	0xbd88b4e9	-0.06675131
151	0x3d66da14	0.05636032
152	0xbcc13314	-0.023583926
153	0xbda9c05d	-0.082886435
154	0xbe1f1871	-0.15536667
155	0xbd43a066	-0.04776039
156	0xbe2b5617	-0.1673206
157	0x3e2c42f1	0.16822411
158	0xbd6931a6	-0.056932114
159	0xbd9e0e7c	-0.077176064
160	0xbb4d36fb	-0.0031313288
161	0x3d0af2f3	0.0339231
162	0xbd029e48	-0.03188923
163	0x3df51d37	0.11968463
164	0xbde6a578	-0.112620294
165	0x3d8eadc8	0.0696674
166	0x3d18a4eb	0.037266653
167	0xbdcd02a0	-0.10010266
168	0xbd43241b	-0.047641855
169	0x3d46833e	0.048465006
170	0x3c37fc5b	0.0112296
171	0x3de371cf	0.11105692
172	0x3dc4614e	0.09588872
173	0xbdcea364	-0.10089758
174	0xbda9d694	-0.08292881
175	0xbd4ab9a8	-0.04949346
176	0xbde514bd	-0.11185596
177	0xbd20d945	-0.039269704
178	0xbe195aa1	-0.14975978
179	0x3d8905aa	0.066905335
180	0x3e065201	0.1311722
181	0x3d683edd	0.056700576
182	0xbddc370d	-0.107526876
183	0xbdb1864b	-0.086681925
184	0xbce90ecd	-0.02844944
185	0x3d9dd1a5	0.07706002
186	0x3d12108f	0.035660323
187	0xbd25c9ec	-0.04047577
188	0x3e0fe452	0.14051941
189	0x3ccf985a	0.025341202
190	0xbca26172	-0.019821856
191	0xbd2a0166	-0.04150524
192	0x3d0a9d4a	0.03384141
193	0x3d878bee	0.06618486
194	0xbe11439d	-0.14185949
195	0xbda487a0	-0.08033681
196	0x3c85ce0b	0.0163336
197	0x3dbc42cd	0.09192429
198	0x3db48687	0.088147216
199	0xbdd77758	-0.1052081
200	0xbe420f90	-0.18951249
201	0xbcc63b93	-0.02419833
202	0xbcb04f93	-0.021522319
203	0x3bb749dc	0.0055935215
204	0xbd8d89c9	-0.06911046
205	0x3dd74b58	0.105124176
206	0xbcb1b157	-0.021691008
207	0x3e037da3	0.12840895
208	0xbe07ed5d	-0.1327414
209	0x3da7f175	0.08200351
210	0x3ccf367b	0.025294533
211	0xbdff18c0	-0.124558926
212	0x3d53ddc3	0.05172516
213	0xbe199f08	-0.15002072
214	0x3e13d1b0	0.14435458
215	0x3cfbc7ab	0.030734858
216	0x3d2344f8	0.039860696
217	0x3d9e0e33	0.07717552
218	0x3c0e0699	0.008668565
219	0x3d9f7177	0.077853136
220	0x3d80c25c	0.06287071
221	0xbe1f2cc7	-0.15544425
222	0x3dc13606	0.09434132
223	0xbd5dcf3c	-0.054152712
224	0xbd894c19	-0.067039676
225	0xbc836c88	-0.016042963
226	0x3de2c0a4	0.110718995
227	0xbdee0d98	-0.116236866
228	0xbde2aecd	-0.11068497
229	0x3e051f7e	0.13000295
230	0xbd85de5f	-0.065365545
231	0x3dd56846	0.10420279
232	0xbd3922e7	-0.0451993
233	0x3d04dc94	0.032436922
234	0x3de74852	0.11293091
235	0xbd4957b6	-0.049155913
236	0xbd483498	-0.048878282
237	0x3e094bf9	0.13407888
238	0x3d48101a	0.04884348
239	0xbc8f7fbe	-0.017516967
240	0xbe1e6733	-0.15469055
241	0x3e31d2c0	0.17365551
242	0xbd3ed91d	-0.046593774
243	0xbaca87b5	-0.0015451821
244	0xbda71ba6	-0.081595704
245	0xbcc5368e	-0.024073865
246	0x3d89dc89	0.06731517
247	0x3c58760a	0.013211736
248	0x3e37d569	0.17952503
249	0x3cadc759	0.02121322
250	0x3d252eb0	0.040327728
251	0x3e04f560	0.12984228
252	0x3b774fb6	0.003773672
253	0xbd6d326c	-0.057909414
254	0x3d1b68b9	0.03794167
255	0x3e0fa5c5	0.1402808

weight f4 [13, 13]
0	0x3e1017a3	0.14071517
1	0xbe287b4a	-0.16453281
2	0xbd1feb81	-0.039042953
3	0x3e1ae690	0.15127015
4	0x3e09b1d2	0.1344674
5	0x3e25d9b3	0.16196327
6	0x3d12a069	0.03579751
7	0x3cb704fd	0.022341246
8	0x3db288af	0.087174766
9	0xbe1f3db9	-0.15550889
10	0x3e2cdbde	0.16880748
11	0xbdef849c	-0.11695215
12	0x3e0c5c35	0.13707049
13	0x3e06a95a	0.1315054
14	0xbc98df9a	-0.018661309
15	0x3e35bf24	0.17748696
16	0xbde2392b	-0.1104606
17	0x3e038c57	0.12846504
18	0x3dc1a82f	0.094559066
19	0xbcf512d0	-0.029916197
20	0x3cbe63e7	0.023240997
21	0xbe0304c7	-0.12794791
22	0xbd69fa1a	-0.05712328
23	0x3d21dc53	0.03951676
24	0x3dac3373	0.08408251
25	0xbdeb6d83	-0.11495497
26	0x3d1f5683	0.038900863
27	0xbdddd38a	-0.108313635
28	0x3e089feb	0.13342254
29	0xbe15ce40	-0.1462946
30	0x3c977162	0.018486682
31	0xbb38da35	-0.0028206233
32	0xbd43dd75	-0.04781862
33	0xbdb54239	-0.088505216
34	0xbe2c956a	-0.16853872
35	0x3d8b1a45	0.0679212
36	0xbd6cb5bd	-0.057790507
37	0x3d32f1f1	0.043687765
38	0xbd935825	-0.071945466
39	0x3cc5f344	0.02416385
40	0xbdc060c1	-0.09393454
41	0x3df17f45	0.11791853
42	0x3da909be	0.08253811
43	0x3e072286	0.13196763
44	0xbd14dacb	-0.03634147
45	0x3e017bbd	0.12644859
46	0xbde93e48	-0.11388832
47	0x3ddf9667	0.10917359
48	0xbd9d2a4c	-0.07674083
49	0xbdccec75	-0.10006038
50	0xbe264550	-0.16237378
51	0xbe44b5e4	-0.19210011
52	0x3dacdfde	0.08441137
53	0xbdde5080	-0.10855198
54	0xbdeaa3fb	-0.11457058
55	0x3e846142	0.25855452
56	0xbd44980a	-0.04799656
57	0x3d7be407	0.06149676
58	0xbdce08df	-0.10060286
59	0x3ddf14b0	0.10892618
60	0x3d484086	0.04888966
61	0x3e34bc81	0.17650034
62	0x3da39085	0.07986549
63	0xbdb7bb09	-0.08971221
64	0x3e6418a8	0.2227503
65	0x3cd9d0d6	0.026588839
66	0xbe1197a9	-0.1421801
67	0x3d9e2cc5	0.07723383
68	0xbcd95d3e	-0.02653372
69	0xbe1ece0e	-0.15508291
70	0xbd12c60b	-0.0358334
71	0xbc916e94	-0.017752923
72	0xbe232769	-0.15933003
73	0xbce21feb	-0.02760311
74	0xbdfffdcd	-0.124995805
75	0xbdb47329	-0.088110276
76	0x3d397aa9	0.045282993
77	0x3dd06e25	0.101772584
78	0xbd296308	-0.04135421
79	0xbe3426bf	-0.17592905
80	0xbd6c17a5	-0.057639737
81	0xbd00471f	-0.031317826
82	0xbd55b2a4	-0.052172318
83	0xbde4f278	-0.1117906
84	0x3dc407fc	0.095718354
85	0xbe0a05bc	-0.1347875
86	0x3e200148	0.15625489
87	0xbca99fea	-0.020706136
88	0xbda34a9e	-0.079732165
89	0xbda8ed46	-0.08248381
90	0x3cf58b63	0.029973691
91	0x3dcbd11f	0.09951996
92	0xbdd5250f	-0.10407459
93	0x3d52f6ee	0.05150502
94	0x3d9d5235	0.07681695
95	0xbd865569	-0.065592594
96	0xbdd2539a	-0.10269852
97	0xbcd2965f	-0.025706468
98	0xbd6f9833	-0.058494758
99	0xbcef347f	-0.029199837
100	0xbdfcbed1	-0.12341083
101	0xbe1d24ad	-0.15346022
102	0x3d94e56c	0.07270321
103	0x3e0ae3ac	0.13563412
104	0x3d8df6e9	0.0693186
105	0xbd28e049	-0.04122952
106	0x3dd070c2	0.10177757
107	0xbdef59b1	-0.11687029
108	0x3e0499b0	0.12949252
109	0x3ddf5905	0.10905651
110	0x3e06ae5d	0.13152452
111	0xbd27de14	-0.040983275
112	0x3e049819	0.12948646
113	0xbe2ce3b3	-0.16883735
114	0xbcdaef51	-0.026725443
115	0xbda627f6	-0.08113091
116	0xbe75695b	-0.23965971
117	0xbd2c9755	-0.04213651
118	0xbe28034a	-0.16407505
119	0xbbc452e2	-0.0059913257
120	0x3bf225d0	0.0073897615
121	0x3dd4864c	0.103771776
122	0xbddf69db	-0.10908862
123	0x3e096275	0.13416465
124	0xbd299435	-0.041401107
125	0x3dd891d2	0.10574688
126	0x3de9633c	0.113958806
127	0xbdf47f31	-0.11938322
128	0xbe2372c3	-0.15961747
129	0x3d82d206	0.06387715
130	0x3dff4b23	0.12465503
131	0xbdec4984	-0.115374595
132	0x3d7a3269	0.06108323
133	0xbe1666b3	-0.14687614
134	0x3e3a94a9	0.18220772
135	0x3dd895ed	0.10575471
136	0x3e1e6cfa	0.15471259
137	0x3c5ff476	0.013669124
138	0x3c9c952a	0.019114096
139	0x3d80d722	0.06291033
140	0xbdb057bf	-0.08610486
141	0x3c1e26e3	0.009652826
142	0xbdfbdee3	-0.12298372
143	0xbc709586	-0.014684087
144	0xbde68236	-0.112553045
145	0x3dcbc79c	0.09950182
146	0xbcd4dae1	-0.025983276
147	0xbd55f0f7	-0.052231755
148	0x3cb235ca	0.021754164
149	0x3d9de34f	0.07709371
150	0xbda624fe	-0.081125244
151	0x3df0ae25	0.117519654
152	0xbe1b7ae3	-0.15183596
153	0xbd3cce5d	-0.04609524
154	0xbe08bcc7	-0.13353263
155	0xbe0220c1	-0.12707807
156	0x3b3bb893	0.002864395
157	0x3db7cb94	0.08974376
158	0x3e5b6fa6	0.21429309
159	0xbbbe22fd	-0.005802511
160	0x3e214c1f	0.15751694
161	0xbd3a67a0	-0.04550898
162	0x3e089667	0.13338624
163	0x3d8c3c85	0.06847481
164	0xbdc34c4f	-0.09536039
165	0xbe3d3dde	-0.18480632
166	0x3d11f282	0.035631664
167	0xbbecdf23	-0.0072287484
168	0xbe37f65d	-0.17965074

bias f4 [13]
0	0xbeb1f16e	-0.3475451
1	0x3d8a2f7d	0.06747339
2	0x3d0b9cd4	0.03408511
3	0xbc9c805a	-0.019104172
4	0xbec12396	-0.37722462
5	0x3e8772c9	0.26454762
6	0xbe433185	-0.19061859
7	0x3dc2f470	0.09519279
8	0xbcb39f43	-0.021926528
9	0xbe0c08e6	-0.1367527
10	0x3e45dd50	0.19322705
11	0xbccc4ec6	-0.024939906
12	0xbd9d7abd	-0.07689426
