data/results/GAT/all_emo/939/full_model.pth (torch, 31215 bytes, 6 tensors)

att_src f4 [1, 13, 13]
0	0x3e295657	0.16536842
1	0x3e9452f9	0.28969553
2	0x3eaea5af	0.34110782
3	0xbe5fc849	-0.21853746
4	0x3ec9164b	0.3927482
5	0x3e736b40	0.23771381
6	0xbe05c70d	-0.13064213
7	0x3ee772d7	0.45204803
8	0xbd75d90b	-0.06002144
9	0x3eeb3e37	0.45945904
10	0xbec983ff	-0.39358518
11	0x3ef8d78f	0.48601958
12	0x3edde798	0.43340755
13	0xbe5d71ef	-0.21625493
14	0xbecd9ce7	-0.4015877
15	0xbda569bf	-0.0807681
16	0xbe8944d6	-0.2681033
17	0x3e5be38b	0.2147352
18	0x3de878ab	0.113511406
19	0xbde0f239	-0.109837
20	0x3e9c258c	0.30497396
21	0x3d77b29f	0.06047308
22	0xbe739938	-0.23788917
23	0xbf1f355a	-0.62190783
24	0x3e24b50a	0.16084686
25	0xbefc7531	-0.4930816
26	0x3dc9281a	0.09822102
27	0x3dbbd386	0.09171204
28	0xbe975141	-0.2955418
29	0x3e1a6a67	0.15079652
30	0x3dc4d245	0.09610418
31	0x3ea086d5	0.3135287
32	0x3e83d587	0.25748846
33	0xbf030219	-0.51175076
34	0xbe160373	-0.14649753
35	0xbea160e7	-0.31519243
36	0xbe961085	-0.29309478
37	0x3e5f1acf	0.2178757
38	0xbeda15d0	-0.42594767
39	0xbe8ba43a	-0.27273732
40	0x3eba82aa	0.36427814
41	0x3ef24e5e	0.47325414
42	0xbe5ff467	-0.21870576
43	0xbeee6757	-0.46563217
44	0xbca545ff	-0.020174978
45	0x3dce2e15	0.10067383
46	0x3ea05a59	0.3131893
47	0xbc105ace	-0.008810712
48	0x3eddce80	0.4332161
49	0xbe87edf2	-0.26548725
50	0x3f06ef5a	0.5270897
51	0xbea8ac68	-0.32944036
52	0xbe93c166	-0.2885849
53	0x3eb646ca	0.35600883
54	0xbe62994b	-0.22128789
55	0x3ed4b755	0.4154612
56	0xbe567496	-0.20942912
57	0x3eaac8c2	0.3335629
58	0x3f0fee77	0.56223243
59	0xbc4a6a01	-0.012354375
60	0x3e8af498	0.27139735
61	0xbef9c538	-0.48783278
62	0xbe6252ac	-0.2210185
63	0x3e5269de	0.20548198
64	0x3e3389a3	0.17532973
65	0xbe7cfe18	-0.24706304
66	0x3e4ffd5e	0.20311496
67	0xbe57419a	-0.21021119
68	0xbeb1c9a4	-0.34724152
69	0x3d7a1776	0.06105753
70	0xbef3a459	-0.47586325
71	0xbef5f843	-0.4804097
72	0x3e377e63	0.17919306
73	0x3e024aac	0.12723798
74	0x3e19d05b	0.15020888
75	0xbe00b5d3	-0.1256936
76	0xbe2f7cae	-0.17137405
77	0xbf042695	-0.5162137
78	0x3eb65a9f	0.35616013
79	0xbef37af5	-0.47554746
80	0x3dd4d30e	0.10391818
81	0x3e2d03d9	0.16895999
82	0x3f04f2e7	0.5193314
83	0xbe2a7d6a	-0.16649404
84	0xbe1adc70	-0.15123153
85	0xbf0bf570	-0.5467138
86	0x3edbd7c0	0.42938042
87	0xbef8fece	-0.486319
88	0xbea689b7	-0.32526943
89	0xbebbc2db	-0.366721
90	0x3ecf2829	0.40460327
91	0x3eac35cf	0.33634803
92	0x3f036446	0.5132488
93	0x3e681d1a	0.22667351
94	0xbdce5c8c	-0.10076246
95	0xbe9374c1	-0.28800014
96	0xbe3facac	-0.18718213
97	0x3e271f1d	0.16320463
98	0x3e791100	0.24322891
99	0x3e8ab7f2	0.27093464
100	0xbef7760f	-0.4833226
101	0x3c94fef6	0.018187981
102	0xbe5d8993	-0.21634512
103	0xbcd389b2	-0.025822494
104	0xbd825810	-0.06364453
105	0xbc6fe9cb	-0.014643143
106	0xbee9bcc6	-0.45651835
107	0x3ec10de1	0.377059
108	0xbe7077a6	-0.23483142
109	0x3e260e85	0.16216476
110	0x3ec60a03	0.38679513
111	0x3e4267bb	0.18984883
112	0x3e7a5089	0.24444784
113	0x3ea0c072	0.31396824
114	0x3ed26583	0.41093072
115	0x3e4e1f4d	0.20129128
116	0x3ed5d77b	0.4176596
117	0xbe7b9d1d	-0.24571653
118	0xbe3ee1d6	-0.18640837
119	0x3e461bfd	0.19346614
120	0x3e063c36	0.13108906
121	0xbcd31b22	-0.025769774
122	0xbf36f12d	-0.71461755
123	0xbd5f2ece	-0.054487996
124	0x3eb04ba7	0.34432718
125	0xbe2cb858	-0.16867197
126	0x3dcce9dc	0.10005543
127	0x3eab470b	0.3345264
128	0xbec8c2cb	-0.39211115
129	0xbe2bf256	-0.16791663
130	0xbe7bb309	-0.24580015
131	0xbe657738	-0.2240876
132	0x3e6cc47a	0.23121825
133	0x3f15f248	0.58572817
134	0x3d8a8deb	0.0676535
135	0x3e5b42bf	0.2141218
136	0xbe6d3680	-0.23165321
137	0x3dc53f14	0.09631172
138	0xbe384d6b	-0.17998283
139	0xbec25fd6	-0.37963742
140	0x3e4a9e68	0.1978699
141	0x3e61d94a	0.22055545
142	0x3bfc8169	0.0077058566
143	0x3ebc37c9	0.3676131
144	0x3eabc196	0.33546132
145	0x3eb7d327	0.35903284
146	0xbd7f37b7	-0.062308993
147	0xbd2c0b2d	-0.042002846
148	0x3e433e59	0.19066752
149	0x3de3b7eb	0.11119064
150	0xbeae8072	-0.3408237
151	0x3d6213bb	0.055194598
152	0xbebec0d1	-0.37256482
153	0xbe8a9aeb	-0.27071318
154	0xbed0d6b7	-0.40788814
155	0x3ec3beea	0.38231593
156	0xbe928068	-0.2861359
157	0xbe313fdf	-0.17309521
158	0xbcebf244	-0.028802045
159	0x3efa37ae	0.48870605
160	0x3ebbc7d5	0.36675897
161	0xbe6c3ec5	-0.2307082
162	0x3f0a7972	0.5409156
163	0xbed29b61	-0.4113417
164	0x3bacee3c	0.005277423
165	0x3ee9e56d	0.4568285
166	0x3ed1f008	0.41003442
167	0xbe7b4c89	-0.24540915
168	0xbe39144e	-0.18074152

att_dst f4 [1, 13, 13]
0	0x3e09c494	0.13453895
1	0x3e794260	0.24341726
2	0xbedc0899	-0.4297531
3	0x3db87589	0.09006793
4	0xbe9b69c9	-0.30354145
5	0x3eaac0e2	0.33350283
6	0x3ea3a107	0.31958792
7	0x3e2edc08	0.17076123
8	0xbe090921	-0.13382389
9	0xbf125bdd	-0.5717142
10	0xbe44480b	-0.19168107
11	0xbefb707f	-0.49109265
12	0xbe4ce526	-0.20009288
13	0x3e1e8b58	0.15482843
14	0xbe135d1b	-0.14390986
15	0x3d4f86ec	0.05066578
16	0xbeac4214	-0.33644164
17	0xbec0be58	-0.3764522
18	0xbdd46428	-0.10370666
19	0xbcbf8096	-0.023376744
20	0xbe311129	-0.17291702
21	0xbe5aca26	-0.21366176
22	0x3f03076f	0.5118322
23	0x3e9dcc97	0.30820152
24	0x3d2d9b8d	0.042384673
25	0x3d62beca	0.055357732
26	0x3c929295	0.017892161
27	0x3dc3b190	0.09555352
28	0xbe345357	-0.17609917
29	0x3e5d88ab	0.21634166
30	0xbe996cc4	-0.29965794
31	0xbe86cbb3	-0.26327285
32	0xbbaac8ad	-0.0052119107
33	0xbe04834f	-0.12940715
34	0x3d2be375	0.041964967
35	0x3f05d796	0.52282083
36	0x3e526477	0.20546137
37	0x3ea00090	0.3125043
38	0xbd95bbf6	-0.07311241
39	0xbe00a81e	-0.12564132
40	0xbe961fc8	-0.29321122
41	0xbea89742	-0.329279
42	0xbd613d26	-0.054989956
43	0x3d6e1aff	0.058131214
44	0x3e9b648f	0.30350158
45	0xbded534d	-0.11588154
46	0x3e05609e	0.13025138
47	0x3d4dd606	0.050252937
48	0xbcee1dc3	-0.029066926
49	0x3e2f65e5	0.17128713
50	0xbed74d00	-0.42050934
51	0x3ed97e6e	0.4247927
52	0xbcc31e16	-0.023818057
53	0xbf175fc5	-0.5913051
54	0x3f06c567	0.5264496
55	0x3e0524b7	0.13002287
56	0xbe05fb44	-0.13084131
57	0x3e771fe1	0.24133255
58	0xbe146bf2	-0.14494303
59	0x3d99c279	0.07507796
60	0x3e09c91b	0.13455622
61	0x3e9ea982	0.309887
62	0xbd5e398d	-0.054254103
63	0x3d86e1d0	0.06586039
64	0xbd78c35d	-0.060733188
65	0x3e481946	0.19540891
66	0xbe2634dc	-0.16231102
67	0x3ede6417	0.43435737
68	0x3e6aabab	0.22917049
69	0xbbda3515	-0.00665916
70	0x3da174ba	0.07883592
71	0x3cb7db42	0.022443417
72	0xbe1d9e68	-0.15392458
73	0x3e033df3	0.128166
74	0xbea70128	-0.3261807
75	0x3e8a68e5	0.27033153
76	0xbe018889	-0.1264974
77	0x3de3e2d4	0.111272484
78	0x3eb64772	0.35601383
79	0x3e86b6ae	0.2631125
80	0xbd11f777	-0.03563639
81	0xbe57f469	-0.21089329
82	0xbdfb4d9b	-0.122706614
83	0x3d8bdbb4	0.068290144
84	0x3e13026a	0.1435639
85	0x3d87275b	0.06599303
86	0xbe820478	-0.25394034
87	0xbe3cb08a	-0.1842672
88	0x3ebd10bf	0.3692684
89	0x3eb60958	0.35554004
90	0x3e5548ca	0.20828548
91	0x3e2e8623	0.17043357
92	0x3e147978	0.14499462
93	0x3eef6465	0.46756282
94	0x3c96ef11	0.018424543
95	0x3e5a92f7	0.21345125
96	0x3d45052e	0.048100643
97	0xbe891540	-0.26774025
98	0xbd2b0087	-0.04174855
99	0x3d5089fa	0.050912835
100	0xbecb464d	-0.39702073
101	0xbe1f2790	-0.15542436
102	0xbddccbfa	-0.10781093
103	0xbe6d4318	-0.23170125
104	0x3dfc9b1d	0.12334273
105	0x3d64ebce	0.055888943
106	0x3e58b860	0.21164083
107	0xbc406848	-0.011743613
108	0x3e228c04	0.15873724
109	0xbe035362	-0.12824777
110	0xbe3f3c7f	-0.18675421
111	0xbd17db13	-0.03707416
112	0xbebf2343	-0.3733159
113	0x3e396e32	0.18108442
114	0xbe3a4405	-0.1819001
115	0xbe437f74	-0.19091588
116	0xbe7a820c	-0.24463671
117	0xbd8ee626	-0.06977491
118	0x3e9f7036	0.31140298
119	0x3e66a080	0.22522163
120	0xbde805fa	-0.11329265
121	0x3e59a7cb	0.21255414
122	0x3db25353	0.08707299
123	0x3e911240	0.28334236
124	0xbe99e74c	-0.30059278
125	0x3d0effc5	0.03491189
126	0xbf04a35c	-0.51811767
127	0xbdf510ef	-0.119661205
128	0xbd447988	-0.047967464
129	0x3f17c5a3	0.59285945
130	0xbe17d9c8	-0.1482917
131	0x3ea5da12	0.32392937
132	0xbe674e0c	-0.22588366
133	0x3d1f5f7e	0.038909428
134	0x3e945161	0.28968337
135	0xbebeaf0f	-0.37242934
136	0x3e3886e4	0.18020207
137	0xbe6c64f1	-0.23085381
138	0x3e9511b6	0.29115075
139	0x3e7f73ee	0.24946567
140	0xbe3a2331	-0.18177487
141	0xbe543712	-0.20724133
142	0x3ce2b31f	0.027673302
143	0xbe8c8543	-0.2744542
144	0xbe05ff8e	-0.13085768
145	0x3e94ef9f	0.29089066
146	0xbe8140f9	-0.25244883
147	0x3c731929	0.014837542
148	0x3d3f398b	0.046685737
149	0x3cf75a99	0.030194568
150	0x3dbfb971	0.09361542
151	0x3ecfdf4b	0.40600047
152	0xbd089cc9	-0.033352647
153	0x3e83b62b	0.2572492
154	0x3e81e2b1	0.25368264
155	0xbe9cd545	-0.30631462
156	0x3e696804	0.22793585
157	0x3e023235	0.12714465
158	0x3ddc5ff3	0.10760488
159	0xbd3f09bf	-0.046640154
160	0x3ee4addc	0.44663894
161	0xbea4351d	-0.32071772
162	0x3e7c3e13	0.24633054
163	0x3cd5d79f	0.026103793
164	0x3eb9df8f	0.36303374
165	0xbe560ad9	-0.20902576
166	0x3deab8c2	0.11461021
167	0xbea52d85	-0.3226129
168	0x3d636b86	0.055522464

bias f4 [13]
0	0xbd92b91c	-0.07164213
1	0xbe1240c9	-0.14282526
2	0xbdec5a69	-0.11540682
3	0x3d5e2602	0.054235466
4	0xbd520f84	-0.051284328
5	0xbd03df16	-0.032195173
6	0xbe171dad	-0.14757414
7	0xbda88a09	-0.08229453
8	0x3d8e7ba4	0.06957176
9	0x3d95edea	0.07320769
10	0x3da43c4c	0.08019313
11	0xbdf6da08	-0.12053305
12	0x3cd58645	0.026065001

weight f4 [169, 11]
0	0x3d7a6e29	0.061140213
1	0x3e5e7a0d	0.21726246
2	0xbdd2da69	-0.10295565
3	0x3bd8442b	0.006599923
4	0x3d769e1c	0.06020938
5	0xbe16cbe7	-0.1472622
6	0x3e3de3de	0.18543956
7	0xbb756af7	-0.003744779
8	0x3c088bd5	0.00833412
9	0x3e27580b	0.1634218
10	0x3e3ab3d2	0.18232659
11	0x3da061d5	0.0783116
12	0x3e3c500b	0.18389909
13	0x3d67526b	0.056475084
14	0x3dc4bd0d	0.09606371
15	0xbdb71c5a	-0.089409545
16	0x3e2c2939	0.168126
17	0xbc388879	-0.011263006
18	0x3db0d429	0.08634216
19	0x3d87c2e1	0.06628967
20	0x3e01a436	0.12660298
21	0x3ded452b	0.11585458
22	0xbddd6ccd	-0.10811768
23	0x3daa095f	0.08302569
24	0xbd5c61d0	-0.05380422
25	0x3c6b6c21	0.014369042
26	0xbd3e1056	-0.046402298
27	0x3bfcba01	0.007712603
28	0xbc4abfef	-0.012374862
29	0x3dd067a8	0.10176021
30	0xbc1a3bae	-0.009413643
31	0x3d4b4af5	0.04963203
32	0x3e1198ac	0.14218396
33	0xbe097077	-0.13421808
34	0xbdef40b9	-0.11682267
35	0xbd3c3c9d	-0.045956243
36	0xbe1ecb16	-0.15507159
37	0xbd2b6ed9	-0.04185376
38	0xbdde4977	-0.10853856
39	0xbcd5b042	-0.026085023
40	0xbdee7e92	-0.11645235
41	0xbab66204	-0.0013914709
42	0xbe290b3d	-0.16508193
43	0xbe232f49	-0.15936007
44	0x3d3c82ea	0.046023287
45	0x3e3e9b89	0.1861402
46	0x3d5838bf	0.052788492
47	0xbe000bd5	-0.12504514
48	0x3dc70099	0.09716911
49	0xbc8421c8	-0.01612939
50	0x3e414be7	0.1887661
51	0xbd85fec6	-0.06542735
52	0x3da8f7d5	0.08250395
53	0x3e1e3688	0.1545049
54	0xbce79025	-0.028266976
55	0xbe61944e	-0.2202923
56	0x3e07c608	0.13259137
57	0x3bf8f4d6	0.007597546
58	0xbd240b65	-0.04004993
59	0x3e12cb8a	0.14335456
60	0xbd40ae4c	-0.047041222
61	0xbc91f2d0	-0.017815977
62	0xbe10d54a	-0.14143863
63	0xbacfe3e8	-0.0015860768
64	0xbdece6af	-0.11567437
65	0x3de026cf	0.10944902
66	0xbdd8150e	-0.10550891
67	0xbc340644	-0.010987822
68	0xbde03ab0	-0.10948694
69	0x3d35de94	0.04440172
70	0xbc97968e	-0.018504407
71	0xbe2ed254	-0.17072421
72	0xbd018d81	-0.03162909
73	0xbe5bc170	-0.2146051
74	0xbce81587	-0.028330578
75	0xbe42924a	-0.19001117
76	0xbe3ba937	-0.18326269
77	0x3e2f8f92	0.17144611
78	0xbd10e4d4	-0.035374478
79	0x3e048f8f	0.12945388
80	0x3dc3e8aa	0.095658615
81	0x3e25fc5e	0.16209552
82	0x3d6a0606	0.05713465
83	0x3e2dea9c	0.16984028
84	0x3db86ebc	0.09005496
85	0x3da0af4e	0.07845937
86	0x3e228548	0.15871155
87	0x3cf6cd5f	0.030127225
88	0xbd56da83	-0.052454483
89	0x3e179ec5	0.1480666
90	0xbd70b0f1	-0.058762494
91	0xbda8cad1	-0.08241809
92	0x3cd2184f	0.025646357
93	0xbdf4789d	-0.11937068
94	0x3b2bd0f5	0.0026217077
95	0xbcfcab2f	-0.030843345
96	0x3dbc7310	0.09201634
97	0xbdd0ab87	-0.10188966
98	0x3d2591bf	0.040422197
99	0x3dc6079c	0.0966942
100	0x3e229fa0	0.15881205
101	0x3d917069	0.07101519
102	0x3db34610	0.08753598
103	0x3c89563d	0.016764754
104	0x3dbac91c	0.0912039
105	0x3d313152	0.043259926
106	0xbcfcdfec	-0.030868493
107	0x3c5f6e62	0.013637157
108	0x3e713a77	0.23557459
109	0x3df2349e	0.11826442
110	0x3da2cf97	0.07949751
111	0x3dfa8788	0.12232882
112	0x3bb2ae71	0.005452924
113	0xbcc63964	-0.024197288
114	0xbd5684d2	-0.05237276
115	0xbdedac02	-0.116050735
116	0x3cefcbfc	0.029272072
117	0xbda5db0f	-0.08098423
118	0xbd102bb7	-0.03519794
119	0x3dc0e131	0.09417952
120	0x3ca3b242	0.01998246
121	0x3ddc281b	0.10749837
122	0x3e26bf6b	0.16283958
123	0x3e030503	0.1279488
124	0x3e35981e	0.1773381
125	0x3e59f84f	0.21286128
126	0x3d2d0360	0.042239547
127	0x3c878c7d	0.016546482
128	0x3d96205a	0.07330389
129	0x3e25f360	0.16206121
130	0x3e1aeb16	0.1512874
131	0x3e294512	0.16530254
132	0x3d545c85	0.051846046
133	0x3e003b41	0.12522604
134	0xbdc25e8d	-0.094906904
135	0xbd453ef2	-0.048155732
136	0x3c8077a9	0.015682058
137	0xbc0ed646	-0.008718079
138	0x3e1a6df3	0.15081005
139	0xbd55440e	-0.052066855
140	0x3d0d9afa	0.034571625
141	0xbc82b90b	-0.015957376
142	0x3d36104a	0.04444913
143	0x3e18415d	0.14868684
144	0x3c867cc0	0.016416907
145	0x3d024e42	0.031812914
146	0xbc323333	-0.010876465
147	0xba58f85f	-0.0008276756
148	0x3d214fe7	0.03938284
149	0x3cbff08a	0.023430128
150	0xbd8a4089	-0.0675059
151	0xbc145bb2	-0.009055065
152	0xbd63bd5e	-0.055600516
153	0xbdabc69c	-0.08387491
154	0x3a5d7c19	0.0008448973
155	0x3d2602ce	0.04053002
156	0xbdbd9e8d	-0.09258757
157	0x3e0be040	0.13659763
158	0xbced25f9	-0.02894877
159	0xbcd7d3a1	-0.02634603
160	0x3d1557f8	0.036460847
161	0x3dc4781e	0.09593223
162	0xbd76d173	-0.06025834
163	0x3e1e8466	0.15480193
164	0xbdf967cd	-0.121780016
165	0x3d1963e4	0.03744878
166	0xbc2ba2a6	-0.01047579
167	0xbdc46d1a	-0.09591122
168	0xbd951d98	-0.07281035
169	0x3d950265	0.07275847
170	0x3d75e7da	0.060035564
171	0x3e00cd1f	0.12578247
172	0x3e289040	0.16461277
173	0xbcb83a5b	-0.022488764
174	0x3b638a68	0.0034719948
175	0xbd1ab4a5	-0.037769932
176	0x3d1ea9aa	0.038736023
177	0x3da7fe87	0.08202844
178	0x3c0b419e	0.008499531
179	0x3e4e6a34	0.20157701
180	0x3e674ffd	0.22589107
181	0x3df03bb2	0.11730136
182	0x3c115bda	0.008871997
183	0x3ddec3cb	0.10877188
184	0x3dd24b0f	0.102682225
185	0x3e23accf	0.1598389
186	0x3dd51155	0.104036964
187	0xbd666172	-0.056245275
188	0x3d814fe5	0.06314067
189	0xbd4689d0	-0.048471272
190	0xbdb88bc7	-0.090110354
191	0xbdb7014b	-0.089357935
192	0xbcf3a92e	-0.029743757
193	0xbd0f39e0	-0.034967303
194	0xbe616fc8	-0.22015297
195	0xbe3363cf	-0.17518543
196	0xbd1ed82f	-0.038780387
197	0x3a0712e1	0.00051526545
198	0x3d584bcb	0.052806657
199	0xbd9b7992	-0.07591547
200	0xbe318f8c	-0.17339915
201	0x3d1c2220	0.03811848
202	0xbd05ffe8	-0.032714754
203	0x3c05afdf	0.008159607
204	0xbd897157	-0.06711071
205	0x3d41d700	0.04732418
206	0xbcde8ca0	-0.027166665
207	0x3da14394	0.07874218
208	0xbe06e5d0	-0.13173604
209	0x3e38b417	0.18037449
210	0x3d1ed95a	0.0387815
211	0xbd9fb6fe	-0.07798575
212	0x3d384157	0.044984188
213	0xbdabe252	-0.083927765
214	0x3dfe8c01	0.124290474
215	0x3da95c03	0.08269503
216	0x3dfe700e	0.124237165
217	0x3d8b99bc	0.06816432
218	0x3d7fc4ad	0.062443424
219	0x3d811f08	0.06304747
220	0x3c79641a	0.01522162
221	0xbe01a4e3	-0.12660556
222	0x3ddfb4fa	0.109231904
223	0xba1537be	-0.0005692205
224	0xbdd6db6a	-0.10491069
225	0xbd5344bb	-0.05157922
226	0x3dbd6726	0.0924819
227	0xbdfd166c	-0.12357792
228	0xbdec0953	-0.11525216
229	0xbc0dff45	-0.008666818
230	0xbda56a05	-0.08076862
231	0x3de96e17	0.11397951
232	0xbe0c889e	-0.1372399
233	0x3b4f9c3b	0.0031678814
234	0x3d89e39f	0.067328684
235	0xbd80f7e7	-0.062972836
236	0xbd842eef	-0.064542644
237	0x3db0650f	0.086130254
238	0x3d9d671d	0.07685683
239	0xbc800160	-0.015625656
240	0xbe0ee135	-0.13953097
241	0x3d1bce03	0.038038265
242	0x3d94c945	0.072649516
243	0x3d694c30	0.056957424
244	0x3cb069ed	0.021534884
245	0x3d44342c	0.047901317
246	0x3da5b97c	0.08092019
247	0xbb6695e8	-0.0035184566
248	0x3e1723bc	0.14759725
249	0x3d5b7c55	0.05358537
250	0x3d54a5fb	0.051916104
251	0x3dfd9519	0.12381954
252	0xbca69739	-0.02033578
253	0x3ca8209f	0.020523367
254	0x3da3ef45	0.080046214
255	0x3e4a350b	0.19746797

weight f4 [13, 13]
0	0xbeac7090	-0.33679628
1	0xbf0b6731	-0.5445433
2	0x3eaa049f	0.3320665
3	0x3d1d2dd6	0.03837379
4	0x3e1de0b9	0.15417756
5	0xbe978581	-0.29594043
6	0x3d09352a	0.033497967
7	0xbec787bd	-0.38970748
8	0xbdcd2d1d	-0.1001837
9	0xbdb9dd2b	-0.090753876
10	0xbcd4d313	-0.025979554
11	0xbe4697b6	-0.1939381
12	0x3d897790	0.06712258
13	0xbe4e876a	-0.20168844
14	0xbe80b119	-0.25135115
15	0x3d4f93b6	0.050677978
16	0xbcf746f3	-0.030185198
17	0x3eba4e68	0.36387944
18	0xbd869c55	-0.06572787
19	0x3d24a593	0.040196966
20	0xbde9fe6d	-0.11425481
21	0x3e550a24	0.2080465
22	0xbe049db5	-0.12950785
23	0x3dc7edb2	0.09762134
24	0xbcc6040e	-0.024171855
25	0xbd1f4c56	-0.03889116
26	0x3e0fb308	0.14033139
27	0xbe0ad4b1	-0.13557698
28	0x3e6311f0	0.22174811
29	0x3de3bb05	0.111196555
30	0x3e395846	0.1810008
31	0x3e5f340f	0.21797203
32	0x3cfe81a3	0.031067675
33	0xbe3a8463	-0.18214564
34	0xbe6a1bb1	-0.22862126
35	0xbe5fe919	-0.21866263
36	0xbd5c75b3	-0.053823184
37	0x3dec30c2	0.11532737
38	0xbe0cc0da	-0.13745442
39	0x3cf35d17	0.029707475
40	0x3da5e665	0.08100585
41	0xbc81c67f	-0.01584172
42	0xbe0737c1	-0.13204862
43	0xbaccff42	-0.0015640038
44	0xbdcab843	-0.098984264
45	0xbbfbc6a3	-0.0076835915
46	0xbd500369	-0.050784502
47	0x3dfa1851	0.12211669
48	0xbdb18c55	-0.08669344
49	0xbe2d21a5	-0.16907366
50	0xbca61417	-0.020273251
51	0xbe6e5bd6	-0.2327722
52	0x3e4cf351	0.20014693
53	0xbdffd2ca	-0.12491377
54	0x3e3c51c2	0.18390563
55	0xbdf28fb5	-0.11843816
56	0x3e93b349	0.2884772
57	0x3d82a2ad	0.06378684
58	0x3e0d2dcb	0.13787
59	0x3ca509f0	0.02014634
60	0xbdcce009	-0.10003669
61	0x3e628f94	0.22125083
62	0xbe1565e0	-0.14589643
63	0x3e8b6640	0.27226448
64	0xbe5b29c9	-0.21402659
65	0xbe00932e	-0.12556145
66	0xbdd387ae	-0.10328613
67	0x3e89f717	0.26946327
68	0x3e8d5ccb	0.27609858
69	0x3e32aa9a	0.17447892
70	0xbe1dfbde	-0.15428111
71	0x3df56fc7	0.119842105
72	0x3e73f4ec	0.23823899
73	0xbe11127a	-0.14167204
74	0x3deeceb7	0.116605215
75	0xbe4dd8ed	-0.20102282
76	0x3d6bab6b	0.057536524
77	0x3d0c43dc	0.034244403
78	0x3db02480	0.08600712
79	0xbe8854ac	-0.266271
80	0xbc4a83f5	-0.012360563
81	0xbd27040b	-0.04077534
82	0xbd928ec8	-0.071561396
83	0xbe38e4a1	-0.18055965
84	0xbe8b3784	-0.27190793
85	0xbd17885e	-0.036995284
86	0xbe504078	-0.20337093
87	0x3ad4a378	0.0016223034
88	0xbe1eca57	-0.15506874
89	0x3ca5f9c0	0.020260692
90	0x3e10b9ac	0.14133328
91	0xbd736375	-0.05942102
92	0xbe5f1036	-0.21783528
93	0x3d8ab943	0.06773617
94	0x3e9fa0de	0.3117742
95	0x3e666e69	0.22503056
96	0xbe7bee00	-0.24602509
97	0x3d02a03e	0.0318911
98	0xbe86bf56	-0.26317853
99	0x3df91ddb	0.121638976
100	0xbddb7d5c	-0.1071727
101	0xbe20ba1b	-0.15695994
102	0x3e39300f	0.18084739
103	0x3dc616f4	0.09672347
104	0x3e26f02b	0.16302554
105	0xbe29f8cc	-0.16598815
106	0xbdcad7a3	-0.09904411
107	0x3e1b5921	0.15170719
108	0xbe243bad	-0.1603839
109	0x3e4a5ad5	0.19761212
110	0x3e1eb80c	0.15499896
111	0x3d0acee0	0.033888698
112	0xbc333deb	-0.010940055
113	0x3e84754e	0.25870746
114	0xbe226d4e	-0.15862009
115	0xbe9e8702	-0.30962378
116	0x3df65577	0.1202802
117	0x3e2901a1	0.16504528
118	0x3c8d5a17	0.017254872
119	0xbcd71856	-0.026256721
120	0xbd691c32	-0.056911655
121	0x3e429e59	0.19005717
122	0x3dd40280	0.10352039
123	0x3e78d493	0.2429984
124	0xbb5163be	-0.003195032
125	0x3db55a67	0.088551335
126	0xbe8b1f97	-0.2717254
127	0x3d17430e	0.036929183
128	0x3e2185e6	0.15773734
129	0xbe059d6d	-0.13048334
130	0x3c894559	0.0167567
131	0xbe0a896c	-0.13528985
132	0x3db9c25a	0.09070273
133	0x3e8c3f74	0.2739216
134	0x3d65ccc0	0.056103468
135	0xbe0b5e1b	-0.13610117
136	0xbd65f729	-0.056143913
137	0xba928266	-0.0011177778
138	0x3d82fe24	0.0639613
139	0xbe1cfcbf	-0.1533079
140	0x3e570893	0.20999365
141	0x3e31a0bc	0.17346472
142	0x3c84cedb	0.016211918
143	0xbe18b77f	-0.14913748
144	0xbeb861cb	-0.3601211
145	0x3e970e01	0.29502872
146	0x3e212f66	0.15740737
147	0x3d9be501	0.076120384
148	0xbe391d1a	-0.18077508
149	0xbe5ab8db	-0.2135958
150	0x3df378de	0.11888288
151	0x3c08b746	0.008344477
152	0xbd1f665a	-0.03891597
153	0xbe05fc4f	-0.1308453
154	0xbda42b5d	-0.080160834
155	0xbd6a46de	-0.05719649
156	0xbdbff709	-0.0937329
157	0x3db5c1a0	0.08874822
158	0x3e61a0ed	0.22034045
159	0x3e02aaf3	0.12760524
160	0x3e4c15cf	0.19930194
161	0xbe409b32	-0.18809202
162	0xbc5be2a0	-0.013420731
163	0x3da42e82	0.08016683
164	0xbe2217bf	-0.15829371
165	0xbdb3e9bf	-0.08784818
166	0x3d8e012b	0.069338165
167	0x3cdc1599	0.026865767
168	0xbe458b76	-0.19291481

bias f4 [13]
0	0xbec6655b	-0.38749203
1	0x3e2dfc3e	0.16990754
2	0x3de7c309	0.11316497
3	0x3de8e1c8	0.11371189
4	0x3d4089f4	0.047006562
5	0xbe20a474	-0.15687734
6	0x3e47d953	0.19516496
7	0xbbfd9bc1	-0.0077395146
8	0x3d15f6a4	0.036612168
9	0xbca93250	-0.020653874
10	0x3d22fab9	0.03978989
11	0xbdde3ba8	-0.10851222
12	0xbe921ca1	-0.28537467
