data/results/GAT/1000/full_model.pth (torch, 31215 bytes, 6 tensors)

att_src f4 [1, 13, 13]
0	0x3dc594dd	0.09647534
1	0x3e593123	0.2121015
2	0x3eadffda	0.33984262
3	0xbe874fa5	-0.2642795
4	0x3e6660a2	0.224978
5	0x3e929924	0.28632462
6	0xbe3bef4d	-0.18353005
7	0x3ede2be4	0.4339286
8	0x3b38cfed	0.0028200105
9	0x3eca814b	0.39551768
10	0xbeef0fc7	-0.46691725
11	0x3ebd895b	0.37018856
12	0x3efae796	0.4900481
13	0xbebb3d8d	-0.36570397
14	0xbeb31751	-0.34978727
15	0xbdcb384d	-0.09922848
16	0xbe874081	-0.264164
17	0x3d9b8fd8	0.075957954
18	0x3e5481f0	0.20752692
19	0xbea2390f	-0.31684157
20	0x3e876171	0.2644153
21	0xbdf67d12	-0.12035574
22	0xbe0de015	-0.13855012
23	0xbf0cf53b	-0.5506169
24	0x3dbfb6e4	0.093610555
25	0xbf002870	-0.500617
26	0x3d9e22c7	0.07721477
27	0x3c98f177	0.018669827
28	0xbe8ace67	-0.27110597
29	0x3e302bdb	0.1720423
30	0x3d5b9e7e	0.053617947
31	0x3e950189	0.29102734
32	0x3e59fb77	0.21287332
33	0xbee5b4c0	-0.44864464
34	0xbe8692f6	-0.26283997
35	0xbec858c1	-0.39130214
36	0xbec81b63	-0.39083394
37	0x3e82fe77	0.25584766
38	0xbeb4b93a	-0.35297567
39	0xbe63ff22	-0.22265294
40	0x3e8c94c2	0.27457243
41	0x3f0a5dc8	0.5404935
42	0xbe82f2fe	-0.25576013
43	0xbeff08b5	-0.4981133
44	0x3d797d7a	0.06091068
45	0x3e11bb13	0.1423152
46	0x3e6ec422	0.23317006
47	0x3d07f44d	0.033191968
48	0x3e992efd	0.29918662
49	0xbeb04bbc	-0.3443278
50	0x3f032a05	0.5123599
51	0xbe8e7a8e	-0.27827877
52	0xbe979896	-0.296086
53	0x3eacb545	0.33732048
54	0xbd45d59e	-0.048299424
55	0x3e8d4c6f	0.27597377
56	0xbf019517	-0.5061812
57	0x3f165f6a	0.5873934
58	0x3ee8cafe	0.4546737
59	0x3d16b326	0.036791943
60	0x3e80b54a	0.25138313
61	0xbebca88b	-0.36847338
62	0xbe5c7eab	-0.21532695
63	0xbda54591	-0.08069909
64	0x3e995e79	0.2995489
65	0xbeaa13dc	-0.33218277
66	0x3ebcbcf7	0.3686292
67	0xbe052003	-0.13000493
68	0xbe21b39f	-0.15791176
69	0x3e3ddae2	0.18540528
70	0xbeaad63c	-0.33366573
71	0xbf1bd655	-0.6087392
72	0x3da7d1c1	0.08194304
73	0xbb044c46	-0.0020187064
74	0x3e2e3dd8	0.17015779
75	0xbd8cd0f1	-0.0687579
76	0xbf0c786b	-0.54871243
77	0xbe7f0ee3	-0.24908023
78	0x3eb68157	0.35645553
79	0xbede485c	-0.4341458
80	0x3da8db5e	0.08244966
81	0x3e2764e5	0.16347082
82	0x3ef22d59	0.47300223
83	0xbe377a9f	-0.1791787
84	0xbdf9a0c6	-0.12188868
85	0xbf0e18f0	-0.555068
86	0x3eafd040	0.3433857
87	0xbf0828b9	-0.5318714
88	0xbea7b34e	-0.32753986
89	0xbe9d9c25	-0.3078319
90	0x3ecddac4	0.40205967
91	0x3ec7779c	0.38958442
92	0x3ee97482	0.455967
93	0x3e89e4c5	0.2693235
94	0x3c67a513	0.014138478
95	0xbdf88e16	-0.12136476
96	0xbe92129f	-0.28529832
97	0x3ea77cd6	0.3271243
98	0x3db925d1	0.09040416
99	0x3e88a983	0.26691827
100	0xbea7a016	-0.32739323
101	0xbdf78556	-0.12085979
102	0xbe9e4393	-0.3091093
103	0xbe0e681d	-0.13906904
104	0xbe07dcb3	-0.13267784
105	0xbd387d98	-0.04504165
106	0xbec7c2e0	-0.39015865
107	0x3ebf89a8	0.3740971
108	0xbe7b24b6	-0.24525723
109	0x3e12cc65	0.14335783
110	0x3ec5eb1c	0.38655937
111	0x3e4ec5b8	0.20192611
112	0x3de6fbdf	0.11278509
113	0x3eb4fb11	0.35347798
114	0x3efabf53	0.48974094
115	0x3e41a469	0.18910374
116	0x3ed7affe	0.4212646
117	0xbe7a3e03	-0.24437718
118	0xbeb22cb0	-0.3479972
119	0x3e10672f	0.14101861
120	0x3c371a2a	0.011175672
121	0xbd8660c5	-0.06561426
122	0xbf20d886	-0.6283039
123	0x3d9f699f	0.077838175
124	0x3eb33cee	0.35007423
125	0xbda2af35	-0.07943574
126	0x3d3d9952	0.046288796
127	0x3ea6e852	0.3259912
128	0xbebaa94c	-0.36457288
129	0xbe4d91bf	-0.20075129
130	0xbe943270	-0.2894473
131	0xbe291203	-0.16510777
132	0x3e90525a	0.2818783
133	0x3f08776e	0.53307235
134	0x3d98895d	0.07448075
135	0x3e2c82bc	0.16846746
136	0xbe9c8b51	-0.3057504
137	0x3dfd65c2	0.123729244
138	0xbe4d0d99	-0.20024718
139	0xbe9a9c30	-0.30197287
140	0x3e5b0594	0.21388847
141	0x3e91308e	0.28357357
142	0x3d11afbe	0.03556799
143	0x3e8fa62f	0.28056476
144	0x3e8db6dc	0.27678573
145	0x3f006265	0.5015014
146	0x3c50e1b8	0.012749128
147	0x3d201e0d	0.03909116
148	0x3e2c0f01	0.16802599
149	0x3e1b5616	0.15169558
150	0xbeaf11a6	-0.34193152
151	0xbde66eeb	-0.11251625
152	0xbed03671	-0.40666535
153	0xbec8437b	-0.39113984
154	0xbea0c2b0	-0.31398535
155	0x3ed7735b	0.42080197
156	0xbe82e811	-0.25567678
157	0x3dcb7c8d	0.099358656
158	0x3d8136de	0.06309293
159	0x3e97601a	0.29565507
160	0x3ec8e406	0.39236468
161	0xbf0baa39	-0.54556614
162	0x3f029f00	0.51023865
163	0xbf08d054	-0.53442883
164	0x3d9c5d3d	0.07634971
165	0x3ea4a4f8	0.3215711
166	0x3ea57427	0.3231518
167	0xbc7274fe	-0.014798401
168	0xbe9d74ec	-0.30753267

att_dst f4 [1, 13, 13]
0	0x3e8ed824	0.27899277
1	0x3e4c50b7	0.19952665
2	0xbe3969c2	-0.1810675
3	0xbe1794c6	-0.14802846
4	0xbe44c193	-0.19214468
5	0x3ccc96dc	0.02497428
6	0x3d9422a1	0.072331674
7	0x3e8d4fdc	0.2759999
8	0x3d2b32dd	0.041796554
9	0xbee09949	-0.43866947
10	0xbea46494	-0.32107985
11	0xbef57527	-0.47940943
12	0xbe07841b	-0.13233988
13	0x3e61ef3c	0.22063917
14	0xbd8b9543	-0.06815579
15	0xbd3a501d	-0.04548656
16	0xbdb1b8f4	-0.08677855
17	0xbe74f93c	-0.239232
18	0xbe599511	-0.2124827
19	0x3d8b1a18	0.06792086
20	0xbec168eb	-0.3777536
21	0x3d96c9cc	0.073627084
22	0x3ec81cdc	0.39084518
23	0x3edb2a80	0.42805862
24	0xbba22374	-0.004948074
25	0x3e017789	0.12643255
26	0x3ea413fb	0.32046494
27	0x3e04f76a	0.12985006
28	0xbdee3453	-0.11631074
29	0x3e5c1e99	0.21496047
30	0xbe9c9e68	-0.30589604
31	0xbe0dc921	-0.13846256
32	0x3e004f59	0.12530269
33	0xbde77c72	-0.11303033
34	0xbb4e4e4a	-0.003147977
35	0x3eeeba3c	0.4662646
36	0x3d554855	0.052070934
37	0x3ef134cc	0.47110593
38	0xbe1c1ce0	-0.1524539
39	0xbe84e1bd	-0.25953475
40	0xbea87a62	-0.3290587
41	0xbee7c74e	-0.45269245
42	0x3c5cced3	0.013477045
43	0x3e99b720	0.30022526
44	0x3dbf78b6	0.09349196
45	0xbe74b608	-0.23897564
46	0x3e56379b	0.2091965
47	0x3e59f270	0.21283889
48	0x3e014fc9	0.12628092
49	0x3e663ef0	0.22484946
50	0xbee1e2e3	-0.44118413
51	0x3ec4d4c6	0.38443583
52	0x3ca87536	0.020563703
53	0xbf0f8ba1	-0.5607243
54	0x3e9c21d2	0.30494553
55	0x3e532241	0.20618536
56	0x3cdf850b	0.02728512
57	0x3c1b1505	0.009465461
58	0xbe12e3e3	-0.14344744
59	0x3ddad623	0.106853746
60	0x3e8413c1	0.2579632
61	0x3e9e1b5f	0.30880257
62	0x3dc075cb	0.09397467
63	0x3eb56924	0.35431778
64	0xbe35b4f3	-0.17744808
65	0x3e6e2351	0.2325566
66	0xbebcaeec	-0.36852205
67	0x3f3d603d	0.7397497
68	0x3dad483d	0.08461044
69	0xbd93a1c0	-0.07208586
70	0x3da0658a	0.07831867
71	0x3e374e91	0.17901064
72	0xbcff2f4f	-0.031150488
73	0x3eaa50b6	0.33264703
74	0xbee679e1	-0.4501486
75	0x3dfd647d	0.12372682
76	0x3e84ad2c	0.2591337
77	0x3c54f934	0.012998868
78	0x3f260f9d	0.64867574
79	0x3ea81e54	0.3283564
80	0x3f0611ab	0.5237071
81	0xbeab222b	-0.33424506
82	0x3cd928a4	0.026508637
83	0x3f26fd8f	0.6523065
84	0xbd91d7bc	-0.07121226
85	0xbdc6abaa	-0.09700711
86	0xbe909dfc	-0.28245533
87	0xbedfb5ff	-0.4369354
88	0x3ea048f2	0.31305653
89	0x3ec2479b	0.37945256
90	0x3e4a9f4a	0.19787326
91	0x3e3a4214	0.1818927
92	0x3e679285	0.22614487
93	0x3eab98b9	0.33514956
94	0x3ca09335	0.019601444
95	0x3e19d1c7	0.1502143
96	0x3e1a7b55	0.1508611
97	0xbe823557	-0.2543132
98	0xbd35d681	-0.04439402
99	0x3e82dbfc	0.2555846
100	0xbe9ee024	-0.3103038
101	0xbdeefe4b	-0.11669596
102	0x3d15c189	0.036561523
103	0xbe35acaa	-0.17741647
104	0x3e20ab8b	0.15690438
105	0x3de4dbaa	0.1117471
106	0x3e5eb33a	0.21748057
107	0xbca96ee7	-0.020682765
108	0x3e6139a2	0.21994641
109	0xbe162ffd	-0.14666744
110	0xbe931b02	-0.28731543
111	0xbe22ea24	-0.1590963
112	0xbe5466f1	-0.20742394
113	0x3c810dae	0.015753593
114	0xbe5523b4	-0.20814401
115	0xbe78f739	-0.24313058
116	0xbeb35045	-0.35022178
117	0xbc50fdfd	-0.012755868
118	0x3e09fc34	0.13475114
119	0x3e8ab38a	0.27090102
120	0x3e45e4a6	0.19325504
121	0x3c9dc4e1	0.019258918
122	0xbd22f5c4	-0.03978516
123	0xbd445c5c	-0.047939643
124	0xbe03579f	-0.12826394
125	0xbd822fca	-0.06356771
126	0xbf11feda	-0.570295
127	0xbe0bbe04	-0.13646704
128	0x3de6bf88	0.112670004
129	0x3f14834b	0.5801284
130	0xbe9bdfe6	-0.30444258
131	0x3dcf8ca9	0.10134251
132	0xbd767307	-0.060168292
133	0x3d668661	0.056280497
134	0x3e17c78f	0.1482222
135	0xbe98ead9	-0.29866675
136	0xbcdfb729	-0.027309017
137	0xbe8eb92d	-0.27875653
138	0x3ecd58fe	0.40106958
139	0x3d7d63f3	0.061862897
140	0xbe122b26	-0.14274272
141	0xbe49f3cf	-0.19721912
142	0x3cfedb61	0.031110467
143	0xbec11cbf	-0.37717244
144	0xbc7da24b	-0.015480588
145	0x3e755fca	0.23962322
146	0xbe1e39ce	-0.15451738
147	0xbe0e8293	-0.13916998
148	0xbe04bbb1	-0.12962224
149	0xbdf8ef3a	-0.12155004
150	0x3e227ec7	0.15868674
151	0x3ea2b6c3	0.3178006
152	0x3d90d003	0.07070925
153	0x3e5abc22	0.2136083
154	0x3e8fbc20	0.28073215
155	0xbe85425e	-0.26027197
156	0x3ee7d1cd	0.45277253
157	0x3e3c5f75	0.18395789
158	0xbb294452	-0.0025828076
159	0xbd8da742	-0.069166675
160	0x3e0ab400	0.13545227
161	0x3d2c4c0b	0.042064708
162	0xbd5eb968	-0.054376036
163	0x3f00e660	0.50351524
164	0x3d7372e2	0.059435733
165	0xbf094320	-0.5361805
166	0x3d4b5e6f	0.049650606
167	0xbe6032ed	-0.21894427
168	0x3efc3b01	0.49263766

bias f4 [13]
0	0x3da0eff0	0.078582644
1	0xbe53a45e	-0.2066817
2	0xbdc347ff	-0.095352165
3	0x3db3dd22	0.08782412
4	0x3e1378eb	0.14401595
5	0xbd72085b	-0.05909
6	0x3ca87d42	0.02056754
7	0xbd889749	-0.0666948
8	0x3e179210	0.14801812
9	0xbd81653e	-0.063181385
10	0x3e03fd09	0.12889494
11	0xbc023a11	-0.007948414
12	0x3dab820e	0.08374415

weight f4 [169, 11]
0	0x3df9e0ca	0.12201078
1	0x3e03c6d0	0.1286881
2	0xbdde1cd2	-0.10845341
3	0x3dc59ef3	0.09649458
4	0x3e26341a	0.16230813
5	0xbe2c6212	-0.16834286
6	0x3e228ea5	0.15874727
7	0xbc8f167d	-0.017466778
8	0xbc4332bb	-0.011913951
9	0x3df34a18	0.11879367
10	0x3d75a1de	0.05996882
11	0x3d31c050	0.043396294
12	0x3e0c5373	0.13703708
13	0x3d3cbc34	0.046077922
14	0x3cf9ef05	0.030509481
15	0xbdb4d18e	-0.08829032
16	0x3db1486c	0.086563915
17	0xbd8df703	-0.06931879
18	0x3ce0aef6	0.027427178
19	0x3ce9bf99	0.028533744
20	0xbd54443b	-0.051822882
21	0xbd0c4259	-0.03424296
22	0xbd8bce1c	-0.068264216
23	0x3e0f733d	0.14008804
24	0x3da3dbb4	0.080008894
25	0x3d978101	0.073976524
26	0xbbcd33e6	-0.0062622903
27	0x3d4b770a	0.04967407
28	0x3c8ba687	0.01704718
29	0x3dd95342	0.10611583
30	0xbd8e51e6	-0.06949215
31	0xbb50f658	-0.0031885114
32	0x3e339298	0.1753639
33	0xbe207f7a	-0.15673628
34	0xbdd9d05c	-0.106354445
35	0xbccca949	-0.024983065
36	0xbe074726	-0.13210735
37	0x3b36b5a6	0.0027879267
38	0xbcb17c73	-0.021665787
39	0xbc69c367	-0.014267779
40	0xbe0e1164	-0.13873821
41	0x3b9f7340	0.004866034
42	0xbe2037a1	-0.1564622
43	0xbe1c93ff	-0.15290831
44	0xbd956f7e	-0.07296656
45	0x3e4164aa	0.18886057
46	0x3c26a122	0.010170253
47	0xbe34d91c	-0.17660946
48	0x3c95ba06	0.01827718
49	0xbdca19c4	-0.09868196
50	0x3e35f0b2	0.17767599
51	0xbdabb1f4	-0.08383551
52	0x3d960336	0.07324831
53	0x3e1cc598	0.15309751
54	0xbdf73065	-0.120697774
55	0xbdcda75e	-0.100416884
56	0x3dd55f3e	0.10418557
57	0x3d7c9f84	0.061675563
58	0x3d33367c	0.043753132
59	0x3e41278d	0.18862744
60	0xbc65056d	-0.013978344
61	0xbcd4fa7a	-0.025998343
62	0xbdbc8782	-0.092055336
63	0xbc08f6be	-0.008359609
64	0xbcc6b745	-0.024257312
65	0x3df27f1e	0.11840652
66	0xb7fb656f	-2.9968765e-05
67	0xbb9357b4	-0.004496539
68	0xbe25a447	-0.16175948
69	0xbc5a1c54	-0.013312418
70	0x3d07bb8d	0.033137847
71	0xbe711637	-0.2354363
72	0x3c9c1d1c	0.01905685
73	0xbd69e6b9	-0.0571048
74	0x3e05cc11	0.13066126
75	0xbdd53960	-0.10411334
76	0xbd76e51c	-0.06027709
77	0x3e055721	0.13021518
78	0xbd3037f5	-0.043022115
79	0x3e1a4702	0.1506615
80	0x3d491eab	0.049101513
81	0x3e10240b	0.1407625
82	0xbd548852	-0.051887818
83	0x3df5aa58	0.11995381
84	0xbcddbfba	-0.027068961
85	0x3d940d29	0.072290726
86	0x3dcb9abb	0.09941622
87	0xbe2ae385	-0.16688354
88	0xbdafc745	-0.085829295
89	0x3d99b006	0.07504277
90	0xbdc35fbe	-0.09539746
91	0xbe2db512	-0.16963604
92	0xbdc915e7	-0.09818631
93	0xbd0ce8cb	-0.034401696
94	0xbbfbe734	-0.0076874737
95	0x3b60e336	0.0034315116
96	0x3d50804e	0.05090361
97	0xbdd604a9	-0.104501076
98	0x3d62a4db	0.055333
99	0x3dd7ed69	0.10543329
100	0x3e34ccd0	0.17656255
101	0x3df9dbd6	0.122001335
102	0x3df70b73	0.12062731
103	0xbcc007cd	-0.02344122
104	0x3cff9a15	0.031201402
105	0x3d17c43b	0.037052374
106	0xbdc1163b	-0.09428068
107	0x3cd2af17	0.025718255
108	0x3e0780ee	0.13232777
109	0xbb617d95	-0.0034407128
110	0xbd111254	-0.03541787
111	0x3cb55549	0.022135394
112	0xbd7f5e44	-0.062345758
113	0xbdec7000	-0.115448
114	0xbddfd382	-0.10929014
115	0xbdaecc73	-0.08535089
116	0xbd0794c7	-0.03310087
117	0xbe526811	-0.2054751
118	0xbd9a39e3	-0.07530572
119	0x3dc7c40c	0.0975419
120	0x3d35df16	0.044402204
121	0x3e1b3e7d	0.15160556
122	0x3e7e64ae	0.24843094
123	0x3e41f17c	0.18939775
124	0x3e4a2b42	0.19743064
125	0x3e84c20f	0.25929305
126	0x3d81e10e	0.06341754
127	0x3d902260	0.070378065
128	0x3d631c13	0.055446696
129	0x3e21e081	0.15808298
130	0x3e1a58c7	0.15072928
131	0x3dbbc801	0.09169007
132	0x3da4c574	0.08045474
133	0x3e5b4c72	0.2141588
134	0x3c66a015	0.0140762525
135	0x3cb61ecc	0.022231482
136	0x3c0b75b2	0.0085119475
137	0x3ce12dc4	0.027487643
138	0x3e1eb338	0.15498054
139	0xbdcc4af5	-0.099752344
140	0x3d145676	0.036215268
141	0x3cf8e8ee	0.030384507
142	0xbcee4601	-0.029086115
143	0x3e3d9a3a	0.18515864
144	0x3c957627	0.018244816
145	0x3dba7f8f	0.09106361
146	0xbcba8256	-0.022767227
147	0xbcab81fb	-0.020936003
148	0x3d3d6df7	0.04624745
149	0x3cd16c9b	0.025564482
150	0xbd566f06	-0.052351974
151	0x3d502fd9	0.05082688
152	0x3adba7d1	0.0016758387
153	0xbd13d0e6	-0.036087893
154	0x3c9cb731	0.019130321
155	0xb95de8a5	-0.00021162869
156	0xbda498f3	-0.08036985
157	0x3df66175	0.12030307
158	0xbdd621b3	-0.10455646
159	0xbdcdc270	-0.10046852
160	0x3d26fad4	0.040766552
161	0x3d8e86b5	0.06959287
162	0xbcf51dda	-0.02992146
163	0x3e3a0f45	0.18169887
164	0xbdb8576f	-0.09001052
165	0x3e018883	0.12649731
166	0x3d340866	0.043953322
167	0xbd960a81	-0.07326222
168	0xbd8ad005	-0.06777958
169	0x3d0b7062	0.034042723
170	0x3ced255f	0.028948484
171	0x3e5ae8f1	0.21377923
172	0x3e0fc46f	0.14039777
173	0xbd168900	-0.036751747
174	0xbbe52d99	-0.006993961
175	0xbc7a285f	-0.015268414
176	0x3c1534da	0.009106839
177	0x3d2eb952	0.042657204
178	0xbda7be58	-0.08190602
179	0x3e211229	0.15729584
180	0x3e30ca6c	0.17264718
181	0x3deea2f9	0.11652178
182	0xbd873cd2	-0.066033974
183	0x3c34cf68	0.011035778
184	0xbc40cc33	-0.011767435
185	0x3dbe9f8e	0.093077764
186	0x3d3de311	0.046359126
187	0xbd86a590	-0.06574547
188	0x3e2427b4	0.1603077
189	0x3ca487a4	0.02008421
190	0xbac9addf	-0.0015386901
191	0xbd0682d7	-0.032839622
192	0x3d48fcac	0.04906909
193	0x3c4145b1	0.011796401
194	0xbe1a1e2e	-0.15050575
195	0xbe1fd086	-0.15606889
196	0xbd332867	-0.043739703
197	0x3dc6cabd	0.09706638
198	0x3d4abb3c	0.049494967
199	0xbda199b7	-0.07890647
200	0xbe2712e0	-0.16315794
201	0xbc7d3374	-0.015454162
202	0xbc9dd7ff	-0.019268034
203	0xbce6bdf9	-0.028166758
204	0xbde0c3be	-0.10974835
205	0x3d68c02a	0.056823887
206	0xbc83390b	-0.016018411
207	0x3d6cda20	0.057825208
208	0xbe1552e5	-0.14582403
209	0x3e2ac393	0.16676168
210	0x3d4ebf9f	0.050475713
211	0xbc6c3562	-0.014417024
212	0x3e1478fd	0.14499278
213	0xbd156443	-0.03647257
214	0x3e5c00cb	0.21484677
215	0x3db12c66	0.086510465
216	0x3da6adba	0.081386045
217	0x3db9a635	0.090649046
218	0x3e0ae48a	0.13563743
219	0x3dc202b2	0.0947317
220	0x3c65e452	0.014031487
221	0xbddc4183	-0.10754683
222	0x3d197676	0.03746649
223	0xbda7faba	-0.08202119
224	0xbe0558f2	-0.13022211
225	0xbd5d7a64	-0.0540718
226	0x3cd83c95	0.026396075
227	0xbe00747e	-0.12544438
228	0xbde98430	-0.11402166
229	0x3ba6ece8	0.0050941594
230	0xbdb7537d	-0.08951471
231	0x3e202f05	0.15642937
232	0xbcc15f81	-0.02360511
233	0x3dd6f191	0.10495294
234	0x3e4341a9	0.19068016
235	0x3c918c11	0.017766984
236	0x3d270a8c	0.040781543
237	0x3e34d24c	0.17658347
238	0x3df96628	0.12177688
239	0x3d62dad8	0.055384487
240	0xbd411050	-0.047134697
241	0x3e594d49	0.21220888
242	0xbab11d76	-0.0013512808
243	0x3ca3a58f	0.019976405
244	0xbd914abf	-0.07094335
245	0xbd02881c	-0.031868085
246	0x3d15fbe6	0.036617182
247	0x3abc3d26	0.0014361485
248	0x3e2fd5ed	0.1717145
249	0x3c38ae2f	0.011271997
250	0x3cc191ae	0.023629036
251	0x3da4b670	0.0804261
252	0x3bf6b0e4	0.007528411
253	0x3d2cdbce	0.04220181
254	0x3d01b2cb	0.03166465
255	0x3e5ec51e	0.21754882

weight f4 [13, 13]
0	0x3d0b0483	0.03393985
1	0xbedc5d17	-0.43039772
2	0xbd83315c	-0.06405899
3	0x3e69bab7	0.22825132
4	0x3ebe0dfd	0.37120047
5	0xbe64b7b2	-0.22335699
6	0x3e242bfe	0.16032407
7	0xbe1b55b1	-0.15169407
8	0x3e83d1b0	0.25745916
9	0xbe40474b	-0.18777196
10	0xbd2b435e	-0.041812293
11	0xbe80a1a6	-0.25123328
12	0x3d6a2d99	0.05717239
13	0xbe0461ca	-0.12927929
14	0xbe9e3327	-0.308984
15	0x3bfc813e	0.0077058366
16	0xbe4fcbd1	-0.20292594
17	0x3c23ba9f	0.009993224
18	0xbd1f6397	-0.038913336
19	0x3d518077	0.051147904
20	0xbe9e4108	-0.3090899
21	0x3d9cb35b	0.07651397
22	0xbea2c2fe	-0.31789392
23	0xbe2a9789	-0.16659369
24	0xbd96535b	-0.073401175
25	0x3dfe9859	0.12431402
26	0xbbab8715	-0.005234609
27	0x3da53d33	0.080683134
28	0xbc4dc781	-0.0125597725
29	0xbd4012b7	-0.046892848
30	0x3e8e78de	0.2782659
31	0xbe914343	-0.2837163
32	0x3db58aa1	0.08864332
33	0xbde8ed15	-0.11373345
34	0xbe696028	-0.22790587
35	0x3ccddbc6	0.02512921
36	0x3de3421a	0.11096592
37	0x3dcc394f	0.09971868
38	0xbe813a1e	-0.25239652
39	0x3e4c6e06	0.19963846
40	0xbdbef17f	-0.093234055
41	0x3e2aebfb	0.16691582
42	0xbe5c06c8	-0.21486962
43	0xbdbf2839	-0.09333844
44	0x3e89925c	0.26869476
45	0xbe529f76	-0.20568642
46	0x3c190f43	0.009342018
47	0x3dea00d5	0.1142594
48	0xbd220a5d	-0.039560664
49	0xbe8371b5	-0.2567269
50	0xbdc292c9	-0.09500653
51	0xbe0fb3a5	-0.14033373
52	0x3da88b09	0.08229644
53	0xbc3d59ca	-0.011557052
54	0xbd72d259	-0.059282634
55	0xbd87086f	-0.065934055
56	0xbdbe35d0	-0.09287608
57	0x3e75c2f5	0.24000151
58	0x3d586fec	0.052841112
59	0x3d9ee9e7	0.07759457
60	0xbe8d6a5b	-0.27620205
61	0xbe2ef314	-0.17084914
62	0x3cdf3442	0.027246598
63	0x3ec00b03	0.375084
64	0xbd918627	-0.07105666
65	0xbe05a3cb	-0.13050763
66	0xbc7de20e	-0.01549579
67	0x3d9c691e	0.07637237
68	0x3e24ea32	0.16104963
69	0xbd92e4e4	-0.07172564
70	0xbe0673c6	-0.13130102
71	0x3df171a2	0.11789252
72	0x3d780ca1	0.06055892
73	0xbe21dbfd	-0.15806575
74	0x3e395298	0.18097913
75	0xbc35e5bb	-0.011102135
76	0xbe2e1fb5	-0.17004283
77	0x3e1fb09c	0.15594715
78	0x3f058d1c	0.5216844
79	0xbadfdf36	-0.0017080072
80	0x3ed14e6d	0.40880147
81	0x3ea85be4	0.32882607
82	0xbe14782d	-0.14498968
83	0x3df78bc8	0.12087208
84	0xbd2f5b64	-0.042811766
85	0x3e1ca89d	0.15298696
86	0x3e71362e	0.23555824
87	0x3e4df2f3	0.20112209
88	0xbe367e92	-0.1782172
89	0xbde3840b	-0.111091696
90	0xbe15fe5c	-0.14647812
91	0xbd4ec6db	-0.050482612
92	0xbbfff2e0	-0.0078109354
93	0x3e720865	0.23636015
94	0xbd0498e3	-0.032372367
95	0x3e170688	0.14748585
96	0xbed5fc15	-0.41793886
97	0x3e7d581a	0.2474064
98	0xbe3cd2af	-0.18439744
99	0xbe0c3209	-0.13690962
100	0xbd987214	-0.07443634
101	0xbe471272	-0.1944063
102	0x3dcc7828	0.099838555
103	0xbc84d87d	-0.01621651
104	0x3e073e2c	0.1320731
105	0xbea91be8	-0.33029103
106	0xbdad6168	-0.084658444
107	0xbe59b525	-0.21260507
108	0x3ea2fbf5	0.31832853
109	0x3de5fdfd	0.11230085
110	0x3e1e1ce0	0.15440702
111	0x3dba74b4	0.091042906
112	0xbe4177d3	-0.18893366
113	0x3e97ebe6	0.29672164
114	0x3d5a8445	0.0533488
115	0xbbed6e8a	-0.0072458433
116	0x3e82bdad	0.25535336
117	0xbe4948fb	-0.19656746
118	0x3c79939e	0.015232949
119	0x3d4ddb9d	0.050258268
120	0xbdec451e	-0.115366206
121	0x3e829ddb	0.2551106
122	0xbd087314	-0.033312872
123	0x3e0df3ae	0.13862488
124	0x3ca69031	0.020332428
125	0x3d98e861	0.07466198
126	0xbc6fe7bc	-0.014642652
127	0xbdbc4c18	-0.09194201
128	0xbe89e251	-0.26930478
129	0xbeca3c13	-0.39498958
130	0xbd90f526	-0.07078008
131	0xbe87f411	-0.26553395
132	0xbd322e7f	-0.043501373
133	0xbdd80b8b	-0.10549077
134	0x3e0be385	0.1366101
135	0xbe27e43d	-0.1639566
136	0x3e975b4f	0.2956185
137	0xbe2fcb1f	-0.17167328
138	0x3e3c601c	0.18396038
139	0x3e0840d0	0.13305974
140	0xbe722f05	-0.23650749
141	0xbe1d1540	-0.15340137
142	0xbd9a9e0b	-0.075496756
143	0xbe12382b	-0.14279239
144	0xbe210054	-0.15722781
145	0x3e5633af	0.20918153
146	0x3cac2162	0.021012012
147	0xbd1c252d	-0.03812139
148	0xbe429863	-0.19003443
149	0x3e0d5e45	0.13805492
150	0x3c50df4c	0.012748551
151	0xbc1ad446	-0.009450024
152	0x3e0139f7	0.12619768
153	0xbe627d78	-0.22118175
154	0xbe3a0500	-0.1816597
155	0xbd90c18f	-0.07068168
156	0xbdea7f88	-0.11450106
157	0xbebd44b1	-0.3696647
158	0xbca38ec6	-0.01996554
159	0x3da2e135	0.07953111
160	0x3d51243f	0.051059958
161	0xbe8c0492	-0.27347237
162	0xbcbbd7f7	-0.022930128
163	0x3c6fa44e	0.014626576
164	0x3dba3c50	0.09093535
165	0xbd6d82fb	-0.05798624
166	0xbe17c2bd	-0.1482038
167	0xbea074ca	-0.31339103
168	0xbd625e4b	-0.055265706

bias f4 [13]
0	0xbdc8e774	-0.09809771
1	0x3e0b5f82	0.13610652
2	0x3cdba6e4	0.026812978
3	0x3b9a758f	0.004713721
4	0x3d7213db	0.059100967
5	0x3dacefae	0.08444153
6	0xbda3a75a	-0.07990904
7	0x3d8832ff	0.06650352
8	0x3e6275d3	0.22115259
9	0xbe08d9b7	-0.13364302
10	0xbca5f8cb	-0.020260235
11	0xbdd53c2e	-0.10411869
12	0xbe1cb924	-0.15305
