data/results/GAT/611/full_model.pth (torch, 31215 bytes, 6 tensors)

att_src f4 [1, 13, 13]
00000000: f6f4 083d a6e0 8d3e 012c a33e 523b aabe
00000010: 5968 cc3e 481f 863e 2304 02be 8bd8 d43e
00000020: 1cda 42bb 118b a83e 35fd d4be d3af de3e
00000030: 1f21 d13e ef34 a6be e834 d1be 71dd 0bbe
00000040: 4b17 8fbe e3eb dd3d 1e26 653e ff2e 9bbd
00000050: b6d5 a13e b3ec 093c d7c3 28be e5fd debe
00000060: 2415 043e 375e e6be b1fd 69bb 5880 b53d
00000070: bf65 83be 4038 1f3e 9db6 a13d 3cfa a23e
00000080: 1eaa 9f3e e038 cfbe b8b7 b1be 386a 37be
00000090: ca0a adbe a36b 153e 9668 9bbe 979f b4be
000000a0: 451f 163e 6f71 933e 9eb8 13be 91aa e8be
000000b0: 39f1 af3d 1ba4 6b3e 0434 bb3e ac8f 7b3d
000000c0: 337e b43e 2659 d9be f0da e43e 0105 abbe
000000d0: 8a2b b4be 4967 af3e e46c a5bd 5ac8 933e
000000e0: 20d0 a1be 2ec7 b63e 4404 e83e b151 0a3e
000000f0: 3cad c43e fc00 b5be 6689 d2bd daa4 243e
00000100: b707 8c3e 250d 85be 1c08 a13e 40b7 47be
00000110: 55f7 85be 9292 933d ac16 bebe 1ec5 bebe
00000120: 5b60 2a3e 4842 263e 8267 383e 4696 9cbd
00000130: 7945 b4be 8e87 cdbe e651 de3e 99bf debe
00000140: c282 323e 231e b83e 210b c33e 55d0 8dbe
00000150: 211a 07be f19f d6be cd43 a83e be65 f9be
00000160: 0464 cdbe b2c0 a7be 39c0 b93e 6361 963e
00000170: 7114 a93e 3787 b73e 2328 64be f664 91be
00000180: 6367 9bbe 5248 213e 1a62 243e 68f4 e03d
00000190: 6ed0 bdbe 92ab 4f3d 7d3b 70be cfdd a7bd
000001a0: 3894 b6bd 25ee 733c 354e d3be f38f d33e
000001b0: de37 52be 9502 143e 66bf 9d3e 02c1 4c3e
000001c0: 6e54 a83e a148 843e 622b a83e ecd0 c33d
000001d0: a8cd 983e 08ed 49be eed7 82be 2406 683e
000001e0: 6d60 d13d 9a2d abbc 29cd d9be 49bf 273e
000001f0: 982a 963e ae17 4ebd 9025 ae3d b023 4d3e
00000200: d260 eabe 4458 c8bd 772c 3dbe d732 68be
00000210: 1af4 923e 1558 fd3e 1ae0 8c3d 74e7 a13e
00000220: 8d01 b4be 437b 843d 2ca1 9abd 5b74 91be
00000230: 3a92 be3d 1dc7 183e 75ea 1ebd a306 4b3e
00000240: 8bfa 693e 3fda e73e b6df 9d3c 7f39 633c
00000250: 1bd7 6b3c a001 ac3d 9905 a4be 3868 56bd
00000260: 6376 cdbe aa04 a9be 5aa6 c3be 1a40 953e
00000270: 4207 8bbe 125a cfbc 31fe 693d 67da ba3e
00000280: fffe 4e3e e723 acbe ffa4 ef3e ae08 e4be
00000290: 1391 3f3d e22a ea3e 7f13 df3e 32cb 0bbe
000002a0: d8a8 a6be
0.033436738 0.27710456 0.3186951 -0.33248383 0.3992336 0.2619574 -0.1269689 0.4157146
-0.0029732054 0.329186 -0.41599432 0.43493518 0.40845582 -0.3246226 -0.40860677 -0.13658692
-0.2794746 0.108360074 0.22377822 -0.07577323 0.3160836 0.00841825 -0.16480957 -0.4355308
0.1289869 -0.44993755 -0.003570419 0.0886237 -0.25663564 0.15548801 0.07896159 0.3183154
0.31184477 -0.4047308 -0.3471048 -0.17911613 -0.33797294 0.14591841 -0.3035323 -0.35278007
0.14660366 0.2879748 -0.14425895 -0.45442632 0.085909314 0.2301182 0.36563122 0.061416313
0.35252532 -0.42450827 0.44698286 -0.33402255 -0.35189468 0.34258488 -0.0807741 0.28863794
-0.316041 0.35698837 0.45315754 0.13507725 0.38413417 -0.35352314 -0.10280113 0.16078511
0.27349636 -0.2598659 0.314515 -0.19503498 -0.26165262 0.072056904 -0.37126672 -0.37259763
0.16638319 0.16236222 0.18008235 -0.0764585 -0.35209253 -0.40142483 0.4342186 -0.43505552
0.17432693 0.35960492 0.38094428 -0.27698007 -0.13193561 -0.419189 0.32864228 -0.48710436
-0.40115368 -0.32764202 0.36279467 0.29371175 0.33023408 0.35845348 -0.22280936 -0.2839734
-0.30352315 0.15750244 0.16053048 0.10984117 -0.37073082 0.05070073 -0.23460193 -0.081966035
-0.08914989 0.014888321 -0.41270605 0.41320762 -0.20529124 0.1445411 0.30810088 0.19995502
0.32876915 0.2583666 0.32845598 0.09561333 0.29844403 -0.19719326 -0.25555366 0.22658592
0.1022347 -0.020895768 -0.42539337 0.16381563 0.2932937 -0.05031555 0.08503258 0.20033145
-0.45776993 -0.0978246 -0.18473993 -0.22675644 0.2870186 0.49481264 0.068786815 0.31621897
-0.35157433 0.06468823 -0.07550272 -0.28409085 0.09305234 0.14919706 -0.038797814 0.1982675
0.22849481 0.45283696 0.019271713 0.013868689 0.014394547 0.083987474 -0.3203552 -0.052345484
-0.40129384 -0.3301137 -0.38212854 0.29150468 -0.27153975 -0.025311504 0.05712718 0.36494753
0.20214461 -0.3362114 0.4680557 -0.44537872 0.046769213 0.45735842 0.43569562 -0.13651732
-0.32550693

att_dst f4 [1, 13, 13]
00000000: 82c2 773e a232 dc3e 68b2 80be 1a05 eebd
00000010: a5d3 90be 1424 0e3e 7bc9 2e3e 4401 943e
00000020: 2c4c 4cbe 9bd4 eabe 4412 81be 26d4 9ebe
00000030: 3d16 04be 507a a53d 965c ecbe 2364 61bd
00000040: 27f7 03bf 80a8 a2be d870 d3be 8ecc b7bd
00000050: f205 a6be 0b2e 293e 5197 dc3e 6e1c ee3e
00000060: c6d0 453e b82f f73d 8284 f1bd b2f4 803e
00000070: 6937 a7be 21e5 943e 0905 e3be f802 ccbe
00000080: 5fb1 0d3e e82c 38be 102d fb3d 4f35 bf3e
00000090: 36da 2a3e f438 003f a280 70be ec9e bebe
000000a0: e15b 8d3d 92ca 40bd f2b3 b1be 0f18 10be
000000b0: d5f8 093f fc92 92be 3cd8 1a3e 00ac b73e
000000c0: af61 d13e 7e13 7e3e 77fa cfbd 09d0 f93d
000000d0: f342 bebe 483c 3ebe f76f 0f3f 83b7 c43e
000000e0: d323 fbbe e7fb e73e 43d4 ae3d ab3b 943e
000000f0: b24d 1d3f 8a24 183d a2a6 68be b27a d83e
00000100: 724f 3b3c c49b 0ebe d3f7 28be 4dd5 073f
00000110: 7992 8f3e bb9d bcbd 9415 ee3c d9dd 01bc
00000120: fad4 a9be 5727 d03d f89d cebe 3f65 cc3b
00000130: da9d f8bd 743b 2fbe b1fe d33e c54f 683d
00000140: b9a0 613e 5db8 cabe b3db 0e3e eece 413e
00000150: 6b34 a43e 9af5 5fbe 5a09 ecbc 529f f3be
00000160: 47cd ae3e fcd9 7f3e ee6a 973e 6650 8b3e
00000170: 85b3 a43e 987f dc3e 3bf5 573e 916a 603e
00000180: a17b 443e 0f12 8abe be25 113e 1e66 0f3e
00000190: 6f8f c6be d93e 4cbe c76e 9fbe 9b55 b2be
000001a0: f9ce ef3e bdce 073f 4077 54be e890 6c3e
000001b0: 2249 79be 2cf8 833e 81f5 483d 6205 c4be
000001c0: fd6d 1abe 6e72 0e3f 6b43 313e 78e1 c6be
000001d0: 48a4 3c3e 071b 21bf c196 763d 7d36 d23e
000001e0: 928c de3d 8478 283e eeb7 05bf 882b f6bd
000001f0: 7f49 b03e ee94 dfbe f531 34be 272c df3e
00000200: 5ef8 663e f4e2 103e d7d9 04bf 4f1e a53e
00000210: 305c c8bc 901c 913b ba46 c53e 55c8 efbe
00000220: 3de7 5a3e 9bf0 f3be db4e cc3e c6c2 d03d
00000230: 2249 d83d 5c2d 30be 7aac 843e e7b6 c6be
00000240: d345 e0bc 6a6d 0e3f 625d b0be bbed 1ebd
00000250: 28ae 263e 941f 523e e8cd 1abe 7446 033f
00000260: e53f 87be bff9 113e 4890 c63e d094 1cbe
00000270: 21a8 f63e 2cd4 d93e 0f54 6f3e cc83 23be
00000280: d509 013f 45e2 bebe c026 843d f1bb f03d
00000290: 6b52 f43e 57e4 e6be 35b3 443c d6f1 53be
000002a0: 0c24 813e
0.24195293 0.4300738 -0.25136113 -0.11622067 -0.28286472 0.1388095 0.17069046 0.28907216
-0.19950932 -0.4586533 -0.25209248 -0.3102123 -0.12899108 0.0807997 -0.46164387 -0.05502714
-0.51549 -0.3176918 -0.4129703 -0.089745626 -0.3242641 0.1652147 0.43084195 0.46506065
0.19317922 0.120696485 -0.11792852 0.25186688 -0.32659462 0.2908106 -0.4433978 -0.39846015
0.13837193 -0.1798588 0.12264454 0.3734536 0.16684803 0.50086904 -0.2348657 -0.37230623
0.0690229 -0.047068186 -0.347076 -0.14071678 0.5389531 -0.28627765 0.1512155 0.35873413
0.4089484 0.24812123 -0.10155194 0.12197883 -0.37160453 -0.18577683 0.5603022 0.38421258
-0.4905077 0.45309374 0.085365795 0.28951773 0.6144668 0.03714422 -0.22719815 0.4228111
0.011432515 -0.13926607 -0.16500787 0.53059846 0.28041437 -0.09209772 0.029063024 -0.007926428
-0.331703 0.101637535 -0.40354896 0.0062376554 -0.12139483 -0.17112523 0.41405252 0.0567167
0.22033967 -0.39593783 0.13950996 0.18926594 0.32071242 -0.21871033 -0.028813053 -0.4758249
0.3414099 0.24985498 0.29573768 0.27209777 0.32168213 0.43066096 0.21089642 0.21915652
0.19187786 -0.26966903 0.14174554 0.14003798 -0.38781306 -0.1994585 -0.31139204 -0.34830937
0.46837595 0.5304983 -0.20748615 0.23102152 -0.24344304 0.25775278 0.049062256 -0.38285357
-0.1508102 0.55643356 0.17310874 -0.38843894 0.18422043 -0.62931865 0.060202364 0.41057196
0.108666554 0.16452223 -0.5223378 -0.12020022 0.34431073 -0.43668312 -0.17597182 0.43588373
0.22555682 0.14149076 -0.518949 0.32249686 -0.02445802 0.0044284537 0.38530523 -0.4683253
0.21377273 -0.47644505 0.39903912 0.101934 0.10560824 -0.17204803 0.2591284 -0.38811418
-0.027377045 0.556357 -0.34446245 -0.038800936 0.16277373 0.20519859 -0.1511761 0.5127938
-0.26415935 0.14255427 0.38781953 -0.15291142 0.48175147 0.42544687 0.2337191 -0.15968245
0.5040563 -0.37282005 0.064527035 0.11754597 0.4771913 -0.45096084 0.012005617 -0.20697722
0.25222814

bias f4 [13]
00000000: f47a 8a3a ffce 1dbc 202c 183b 68ce 1cbd
00000010: 57e6 cfbc 4d80 663c 59e0 653c d1c7 c9bc
00000020: 913e 423b a0f9 96bb a56e 29bd b75a d7bb
00000030: 5014 bfbc
0.0010565207 -0.009631871 0.002321966 -0.03828278 -0.02537839 0.014068675 0.014030539 -0.024631413
0.0029639343 -0.0046073943 -0.041365284 -0.0065720933 -0.023325115

weight f4 [169, 11]
00000000: 7c5c 063e dcd2 c43d b7e4 0dbe 389a 6a3d
00000010: 0b00 d73d 1fc9 3abe 955d 123e 7da5 8d3c
00000020: 5c42 91bc 81c6 093e f3c8 fb3d af92 6a3d
00000030: 7cba 093e dc65 173d 618e d23b aa78 0cbe
00000040: 0c01 213d 03d7 16be fa73 773d ea6d 3b3c
00000050: 69e9 aa3c b3f5 70bd 9d95 03be 60f3 0e3e
00000060: 8c90 4b3d f4d7 693d b3b5 93bd 0ae3 82bd
00000070: 3590 c5bd 40a3 cf3d 1564 dabd 55f7 da3d
00000080: a0b2 1e3e a4bb 20be ce3c b3bc bc65 c5bc
00000090: dc04 c0bd ebfc 9f3d 78a5 bcbc 8cff 313e
000000a0: 57f6 01be d819 d13d 4203 25be f22a b9bd
000000b0: df49 9c3c e41e 1c3e 3de1 8d3d 36f4 2dbe
000000c0: 4f58 823c 1099 9dbd 8b65 2c3d a557 bebd
000000d0: 1b4f 86bc 460f 293e e27d c0bd 1246 22be
000000e0: 5a09 6b3d 2b18 833c 1673 3cbd 7929 143e
000000f0: 8cb2 b0bd e2cc d6bd 1f9e cfbd deb6 35bd
00000100: d854 3abd 0317 d93d c66f b13c c653 803d
00000110: b9e0 89bd 6361 0b3e a6b5 1f3e 4e13 debd
00000120: e4ad 273d 6eb1 b9bd 9ac3 f83d 72f9 04be
00000130: 628b b7bd 9545 293e cd1e 27be 307b dc3d
00000140: f07c d33b 25b0 1f3e 1c60 8dbd 5440 063e
00000150: dae7 963d 6def 2d3d c6c4 223e 9490 bcbd
00000160: 20ca e5bd 88d9 2d3e 5d0a babd fc80 e7bd
00000170: 715b b83b 869f d9bb 686e b23c f95c 4fbd
00000180: 29b9 e13d b3f1 eebd 27ba 443c 4039 b13d
00000190: 86b5 783d 78b2 083d 544c 403d 1e42 5fbd
000001a0: 4fb4 d5bc 1ae3 81bd 42b8 84bd 6fd0 0bbd
000001b0: e1fb 643e c9f1 273d aad4 9f3c fd55 9b3d
000001c0: 6005 57bd 96c0 f7bd 4966 00be 1d2d 87bd
000001d0: 3a08 983d b873 44be fe60 45bd 341c 123d
000001e0: 93e1 c03d 5010 fc3c ad55 603d 8daf e33d
000001f0: 7290 b83d cd58 a33d 1dc7 43bd e078 20be
00000200: 325f 8cbc 4d9f 0abd 52ac 2e3d 1990 283d
00000210: 7d3e 953d 49a1 053e 9b31 48bd 4c84 febd
00000220: 126e 6bbd 40c8 8abd 19ed d33d 4dcd 91bd
00000230: 423c 833c c3ff 6b3b 377e 1abd 3e91 ae3d
00000240: 6648 57bd 5255 193c 1c4c bdbd ffdc db3b
00000250: ae39 e43c 3044 d1b8 38fc 6ebd 4f6d 5c3d
00000260: 78ed c1bc aba6 aebd 1eb5 1fbe d81d 40bd
00000270: 5783 22be c547 293e 2ef7 82bd 9023 a9bd
00000280: 0d0e 353b cb78 213d 8e30 12bd 4399 f53d
00000290: 56e8 f7bd ad91 8c3d edda 163d 5bd7 b6bd
000002a0: 13e0 4ebd 37ed 373d 9cfd 243c 6743 ee3d
000002b0: 84d9 cf3d a129 cfbd 1a86 a8bd dc0c 50bd
000002c0: 066f e7bd a3f6 1bbd 413d 14be 11c4 853d
000002d0: 8ae9 003e c4bf 603d ada6 d0bd a16f a4bd
000002e0: 561b 01bd 17b7 9d3d 4966 fe3c bd59 16bd
000002f0: 7623 0c3e c467 933c 7d5e bebc b830 2ebd
00000300: edda 103d 2b7d 853d 7bb4 13be cf42 a4bd
00000310: 2946 8a3c d837 b93d ad45 b83d 6b36 dcbd
00000320: 4240 44be b735 abbc d8ce 80bc 233f e63b
00000330: 2111 93bd 016b d13d 4a46 a4bc b667 033e
00000340: 6b8a 03be 9bda aa3d 03c9 b13c 1b78 f9bd
00000350: 95ec 4e3d 39a8 1abe 44ce 123e fcb0 0b3d
00000360: 7eaf 2d3d bf03 9c3d 0059 1b3c 26ef 913d
00000370: 07f2 873d 543e 1dbe 83ef b43d 84ef 58bd
00000380: 1d01 84bd 3fcf 85bc 57d7 d33d 11ef febd
00000390: 1ae8 dcbd 7323 053e 9d27 83bd 66c7 d43d
000003a0: 77ba 4bbd a6b0 013d ffd3 ec3d 35cf 40bd
000003b0: 6656 45bd 7850 093e afc6 443d 832c 98bc
000003c0: d744 1ebe 016f 303e dbe2 29bd 99f1 d0ba
000003d0: e44b a2bd 5f4a fbbc 84af 853d 9a39 733c
000003e0: 14fb 3b3e 6432 d13c 9214 273d a4ea 023e
000003f0: 2eb8 8339 182a 6ebd ba83 223d e47e 193e
0.13121217 0.09610531 -0.13856779 0.05727598 0.10498055 -0.18240784 0.14293511 0.017290825
-0.017731838 0.1345463 0.122941874 0.057268795 0.13450044 0.036962375 0.0064256643 -0.13717905
0.03930764 -0.14730458 0.06041334 0.01143978 0.020863252 -0.058828067 -0.12850042 0.13960028
0.049698398 0.057090715 -0.07212391 -0.063909605 -0.09646646 0.10138559 -0.106636204 0.10691706
0.15497828 -0.15696579 -0.02187958 -0.024096362 -0.09375927 0.07811912 -0.02302812 0.1738264
-0.12691627 0.102100074 -0.16114524 -0.09041394 0.019078193 0.15246159 0.069277264 -0.1698769
0.01591125 -0.0769521 0.042089026 -0.092940606 -0.016395142 0.16509733 -0.0939901 -0.15847042
0.057381965 0.016002735 -0.046008192 0.14468946 -0.08627805 -0.10488297 -0.10137581 -0.04436385
-0.04549107 0.10600092 0.021659743 0.062659785 -0.067323156 0.13611369 0.15596637 -0.10843526
0.04093732 -0.09067045 0.12146683 -0.12985781 -0.08962132 0.1653045 -0.16320343 0.10765684
0.0064541027 0.15594538 -0.06903097 0.13110477 0.07368441 0.042464662 0.15895376 -0.092072636
-0.11220193 0.16977513 -0.09084008 -0.11303899 0.005626135 -0.006641331 0.021781161 -0.050625775
0.110216446 -0.11667194 0.012007273 0.08653498 0.06071999 0.033373326 0.046947792 -0.054506414
-0.026086954 -0.06342144 -0.06480457 -0.034134325 0.22361709 0.04100207 0.019510586 0.0758476
-0.05249536 -0.1209728 -0.12539019 -0.066004016 0.07423444 -0.19184768 -0.048188202 0.035671428
0.09418025 0.030769497 0.054769207 0.11117468 0.09011926 0.07975922 -0.04779731 -0.1567111
-0.017135236 -0.033843327 0.042644806 0.041153047 0.07287309 0.13049807 -0.048875432 -0.124275774
-0.057478018 -0.06776476 0.10347957 -0.07119236 0.016019944 0.00360106 -0.037718024 0.085237965
-0.05255928 0.009358721 -0.09243032 0.0067096944 0.027859535 -9.9785975e-05 -0.058346003 0.053815182
-0.023672804 -0.08527883 -0.15596434 -0.04690346 -0.15870415 0.16531284 -0.06394802 -0.08258736
0.0027626783 0.039421838 -0.035690837 0.11992123 -0.121048614 0.06863723 0.036829878 -0.089277945
-0.050506663 0.04490396 0.010070231 0.1163395 0.1014891 -0.10115362 -0.08228703 -0.050793514
-0.11300473 -0.038077008 -0.14476492 0.06531537 0.12589088 0.054870382 -0.10188041 -0.08029104
-0.03152021 0.07700937 0.031054633 -0.036706675 0.13685402 0.017993815 -0.023238415 -0.04252693
0.035365034 0.065180145 -0.14424317 -0.08020555 0.016879158 0.090438545 0.089976646 -0.10752567
-0.19165137 -0.020899637 -0.01572363 0.0070265695 -0.071810015 0.102254875 -0.020053048 0.12832531
-0.12845771 0.08342477 0.021702295 -0.121811114 0.05051859 -0.15103234 0.14336497 0.034104332
0.04240369 0.07617902 0.0094816685 0.07125692 0.0663796 -0.15355808 0.08834746 -0.052962795
-0.06445525 -0.016334174 0.10343807 -0.12447942 -0.10786457 0.13001804 -0.0640404 0.10389595
-0.049738374 0.031662606 0.115638725 -0.047072608 -0.0481781 0.13409603 0.048041042 -0.018575912
-0.15455948 0.17229845 -0.04147611 -0.0015941142 -0.07924631 -0.030675111 0.065276176 0.014845276
0.18357497 0.025536723 0.0407911 0.12784821 0.00025123492 -0.058145612 0.039676405 0.14989811

weight f4 [13, 13]
00000000: b281 083e f3e6 2bbe 7454 54bd 3364 1a3e
00000010: d6b3 093e 9b2d 343e 9858 1c3d f88e 383c
00000020: 293e 8f3d feb1 21be 053e 253e 1a02 06be
00000030: 9fee 173e be95 183e 8dcf 66bc 70e2 373e
00000040: 1903 dfbd 4488 f93d 00ef de3d 09a1 a9bc
00000050: b79b 513c a4f2 0ebe ad10 8abd f60d 353d
00000060: aefd a73d 2357 d5bd 888e 123d 4050 dabd
00000070: a9f4 073e 2c82 19be 95e1 973c 1969 91bc
00000080: d354 4dbd fdf0 a9bd d407 21be a3e6 8c3d
00000090: 1715 7ebd cedf 443d daff 8dbd 7f44 fe3c
000000a0: 039f bbbd 7f3f e83d e4a4 a83d fed3 083e
000000b0: f93f 04bd 7a7e f93d c089 e1bd c92a e53d
000000c0: 6e99 a7bd e1c2 c9bd 503c 27be ca29 44be
000000d0: 4a29 a43d 2a89 f2bd df8c e9bd fce9 853e
000000e0: 2581 45bd df95 7a3d e5ab d0bd 5d23 d93d
000000f0: e7d4 443d 53e1 343e d9b6 ab3d 8dc7 b7bd
00000100: f22c 623e c318 c53c da18 17be 78e6 983d
00000110: 4b14 c8bc 9fed 22be e8b7 09bd d479 78bc
00000120: ca72 20be 1628 c6bc fdb3 fabd dbff acbd
00000130: e7b3 443d 694c cc3d 5bc9 30bd 62dc 35be
00000140: b56e 40bd ff8f 0bbd 1f78 4cbd 4352 ecbd
00000150: 3b22 bb3d b980 0ebe a5dc 1d3e 5450 a6bc
00000160: 7b17 aebd 38eb a9bd 4c10 e93c 9876 c63d
00000170: f2ec dcbd 9d2e 643d 633b a23d 6bbd 8bbd
00000180: 103e ccbd a337 8bbc 411d 64bd f84e 0ebd
00000190: b352 f9bd 677b 19be a072 8f3d cbc7 0d3e
000001a0: 3a89 8c3d b64f 2bbd 6b7b cd3d 7f3f e8bd
000001b0: 872d 083e 3546 e23d 20fb 063e c7ea 2abd
000001c0: 818e 003e b418 2abe 9fc7 f2bc ba82 aabd
000001d0: 79bd 77be 842a 08bd beaf 1abe 0b93 e9bb
000001e0: f056 333c 9554 cb3d bd17 e1bd 45f6 053e
000001f0: 42bb 52bd b385 e03d c6c4 da3d b826 fbbd
00000200: bfc0 17be e930 9e3d b1a6 ea3d f093 ecbd
00000210: 031c 683d 9812 20be ab16 3f3e 7438 cc3d
00000220: 03c6 1e3e 968b 773c 19b6 0b3d c192 823d
00000230: 25ac b2bd 5906 673c c372 01be 7649 0cbc
00000240: 072f e9bd a152 c83d cb4e c5bc 2fe4 6bbd
00000250: aeb7 bf3c 5cdf 973d 9d77 a5bd 30fc ec3d
00000260: 041b 1fbe 46e5 37bd a769 08be af2f 04be
00000270: 5ae7 c73a aed6 c23d 2ba8 5e3e b2de c0bb
00000280: 4883 213e 91ac 46bd 076c 093e 550c 943d
00000290: ff1e c4bd 8235 3cbe 1182 1a3d 6738 25bc
000002a0: a363 35be
0.13330725 -0.16787319 -0.051838353 0.15077285 0.13447508 0.17595522 0.038170427 0.011264555
0.06994278 -0.15790555 0.1613694 -0.13086739 0.1483712 0.14900872 -0.01408757 0.17957473
-0.10889263 0.12184194 0.108854294 -0.02070667 0.012793473 -0.13959748 -0.06741462 0.044202767
0.082026824 -0.10417011 0.03578046 -0.10659838 0.13276924 -0.14991063 0.018540183 -0.01775031
-0.050129723 -0.08297918 -0.15725642 0.06879928 -0.06203183 0.048065 -0.069335654 0.03103852
-0.091611885 0.11340236 0.082345754 0.13362119 -0.03228757 0.121823266 -0.11012602 0.11189801
-0.08183561 -0.09851623 -0.16331601 -0.19156566 0.08015688 -0.11842568 -0.11403822 0.26155078
-0.048218865 0.061178084 -0.10189036 0.10602448 0.048054602 0.1766408 0.08384485 -0.08973608
0.22087458 0.024059659 -0.14755574 0.074658334 -0.024423739 -0.15910958 -0.033622652 -0.015165765
-0.15668789 -0.024189036 -0.12241361 -0.08447238 0.04802313 0.099755116 -0.043160778 -0.1775985
-0.04698058 -0.034072872 -0.049919244 -0.11539128 0.09137388 -0.13916291 0.154162 -0.020301975
-0.08500572 -0.082968175 0.028450154 0.09690589 -0.10787381 0.055708516 0.07921483 -0.06823238
-0.09972775 -0.016994303 -0.05569196 -0.03474328 -0.12173977 -0.1498848 0.07004285 0.13845746
0.068621114 -0.041824065 0.10033306 -0.11340236 0.13298617 0.11048547 0.13181734 -0.041727807
0.12554361 -0.16610986 -0.029636202 -0.08325715 -0.24193372 -0.03324367 -0.15106103 -0.0071281246
0.0109460205 0.09928242 -0.10990856 0.13082226 -0.051448114 0.10963001 0.10682063 -0.122632444
-0.1481962 0.077241726 0.11457575 -0.11551654 0.05666734 -0.15632093 0.18660991 0.09971705
0.15505223 0.0151089635 0.03410921 0.06375647 -0.0872424 0.0141006345 -0.12641434 -0.008562436
-0.11385923 0.09781385 -0.024085423 -0.05759066 0.023403015 0.07415649 -0.08079455 0.115715384
-0.1553765 -0.044896387 -0.13321553 -0.12908815 0.0015251443 0.09513603 0.21743838 -0.0058859223
0.15772736 -0.048504416 0.13420115 0.07228915 -0.095762245 -0.18379787 0.037721697 -0.010084248
-0.1771379

bias f4 [13]
00000000: 93af b2be 7d81 8a3d bd2c 123d 0d77 87bc
00000010: 6b00 c0be deb1 873e fcd9 44be b807 ce3d
00000020: fa4d b9bc a73e 0ebe 0aeb 453e d0bb e5bc
00000030: b243 9dbd
-0.34899577 0.06762979 0.035687197 -0.01653626 -0.3750032 0.2650289 -0.1922378 0.10060066
-0.02262019 -0.13891087 0.19327942 -0.028043658 -0.076789275
