data/results/GAT/balanced/1/all_emo/2707-744/full_model.pth (torch, 510699 bytes, 16 tensors)

att_src f4 [1, 4, 128]
0.1240924 0.0034193445 0.10613414 0.186764 -0.01907164 0.055339627 0.008336149 0.13792938
0.110880665 0.012612473 -0.15939005 0.067655146 0.12528898 0.023774337 0.09893378 0.043922633
-0.10550365 -0.11439887 -0.03238916 -0.18323022 -0.0010343568 -0.05114697 -0.18547812 0.031903498
0.043797012 0.07634363 -0.005199198 -0.078214385 -0.040103674 -0.16295287 0.00836944 0.1133299
0.0061608255 0.025176171 0.18176597 0.16901422 0.19686982 0.17284852 0.11128061 -0.0073918323
-0.20319426 0.026524257 0.11426167 0.0065440093 0.10707385 -0.16298842 -0.007373682 0.21953668
-0.1968245 -0.028665908 0.08845156 -0.21453953 -0.0850142 -0.09339469 0.14690445 -0.031195631
0.010224025 0.17182061 0.05245131 -0.07385903 0.11755028 -0.08622192 0.18277292 -0.06513499
0.1990909 -0.06505786 0.11917291 0.19401522 -0.07117948 -0.01087672 -0.10025439 0.11233526
-0.07537283 0.16119106 -0.13718401 -0.07311101 -0.04712733 0.17463154 0.110662736 -0.0072172354
0.1000087 -0.18323892 -0.029553164 0.19626094 -0.050575975 -0.11895392 -0.1016872 0.16507277
0.03035336 0.052374925 -0.09496028 0.10527599 0.00046185643 0.21250504 0.1370299 -0.18899167
0.17843261 -0.14047179 -0.06425363 0.032879185 -0.16491593 -0.015612543 -0.10691987 -0.060904086
-0.0005645221 -0.03505853 0.069920585 -0.05659812 0.028540779 0.0033252516 -0.070688166 -0.19307958
0.111258626 -0.17909771 0.024435522 0.1336931 0.19523145 -0.114692815 0.17917643 -0.10731687
-0.12796819 0.031514425 -0.077817574 -0.13000749 0.050349437 0.17032881 0.12552027 0.074769415
0.12285409 0.18276234 -0.096907474 0.16216758 0.068199776 0.1391179 -0.20580073 0.04884235
-0.01032839 -0.010719328 -0.16182618 -0.013464375 -0.0375972 -0.08165394 0.18706794 -0.1813149
0.031903498 0.09450947 0.050237823 0.1437284 0.0329135 0.12264516 0.10463238 -0.1336377
-0.18301103 -0.11160268 -0.122845165 -0.16190568 0.045203183 -0.17190455 -0.15766524 -0.06938729
-0.21056382 -0.12184283 -0.056809556 0.024364341 0.09468884 0.18576153 -0.034222703 -0.12433829
-0.13198505 -0.14321752 0.13412982 0.18643674 0.05091753 0.0516511 0.06609955 0.1477572
0.12036334 0.13366397 0.07141643 0.023959424 -0.05959558 0.12829931 0.06144613 0.12618414
0.2133789 0.16327336 0.19577779 0.16641574 -0.042081214 -0.07225778 0.049357288 0.14337048
-0.18247913 0.047941215 0.08807482 -0.09131548 -0.10589575 -0.10764507 0.22336742 -0.010408215
-0.123489454 0.09764268 -0.1421955 -0.20317984 0.1378766 0.012390809 0.0166414 0.12077986
-0.023941789 -0.016649691 -0.029765584 0.10203495 -0.034815215 0.019934332 -0.13707823 -0.099474296
-0.17016843 0.15005633 0.1880467 0.096678525 0.07096216 -0.10452554 0.057216335 0.09968141
0.18979397 -0.17088662 -0.13453992 -0.10352417 0.17647135 -0.0035753003 0.17644401 -0.0790204
-0.022247957 0.045062665 -0.057178795 0.15782323 0.14890352 -0.17625454 -0.09025697 0.14999172
0.13597721 -0.0029952067 0.16567422 0.019585703 -0.21300611 -0.07053071 0.14249875 -0.056606434
-0.15558448 -0.056650214 -0.13064344 0.08750109 0.07642652 -0.09331488 0.05436298 0.15131763
00000000: 2824 fe3d 1517 603b db5c d93d 103f 3f3e
00000010: 213c 9cbc ceab 623d 5894 083c 5c3d 0d3e
00000020: 6715 e33d 8ca4 4e3c 2537 23be c88e 8a3d
00000030: c14b 003e 66c2 c23c cb9d ca3d 38e8 333d
00000040: 4c12 d8bd f449 eabd 7faa 04bd b4a0 3bbe
00000050: 4193 87ba 7c7f 51bd faed 3dbe 3ead 023d
00000060: 7f64 333d 0d5a 9c3d 095e aabb dd2e a0bd
00000070: c043 24bd 1edd 26be fa1f 093c 8219 e83d
00000080: c0e0 c93b 423e ce3c dc20 3a3e 1012 2d3e
00000090: 3e98 493e 34ff 303e 17e7 e33d 2f37 f2bb
000000a0: 2812 50be 6649 d93c 0602 ea3d 216f d63b
000000b0: 8949 db3d 70e6 26be ee9e f1bb 39ce 603e
000000c0: 5d8c 49be c4d4 eabc 1726 b53d 40b0 5bbe
000000d0: ed1b aebd b745 bfbd 1f6e 163e fb8d ffbc
000000e0: ab82 273c bef1 2f3e 2fd7 563d 6743 97bd
000000f0: 34be f03d 1e95 b0bd d328 3b3e 7e65 85bd
00000100: 7cde 4b3e 0e3d 85bd ed10 f43d edab 463e
00000110: 8cc6 91bd 4534 32bc 2c52 cdbd 0710 e63d
00000120: 125d 9abd 450f 253e f779 0cbe 3abb 95bd
00000130: 9608 41bd 9cd2 323e 25a3 e23d 8f7e ecbb
00000140: 5cd1 cc3d fca2 3bbe 7a19 f2bc a1f8 483e
00000150: c128 4fbd 1d9e f3bd 6141 d0bd d608 293e
00000160: 9ca7 f83c 1787 563d 897a c2bd f09a d73d
00000170: 5225 f239 ec9a 593e 9151 0c3e 0887 41be
00000180: 0ab7 363e d6d7 0fbe 6897 83bd 53ac 063d
00000190: b9df 28be c0cb 7fbc cef8 dabd 9076 79bd
000001a0: 70fc 13ba 8899 0fbd 8632 8f3d 6ed3 67bd
000001b0: 5ace e93c 77ec 593b f5c4 90bd a7b6 45be
000001c0: 90db e33d 6465 37be 012d c83c d8e6 083e
000001d0: c1ea 473e 11e4 eabd 077a 373e f2c8 dbbd
000001e0: 180a 03be 4515 013d d25e 9fbd af20 05be
000001f0: 363b 4e3d ad6a 2e3e 6388 003e b520 993d
00000200: ed9a fb3d 0d26 3b3e 6d77 c6bd 420f 263e
00000210: 53ac 8b3d ec74 0e3e 6dbd 52be ea0e 483d
00000220: 6838 29bc 1fa0 2fbc c3b5 25be af99 5cbc
00000230: 86ff 19bd 2e3a a7bd bd8e 3f3e 9daa 39be
00000240: 3ead 023d 2e8e c13d 2dc6 4d3d 8a2d 133e
00000250: 4ed0 063d 632d fb3d 8049 d63d 52d8 08be
00000260: 3e67 3bbe f28f e4bd 3f96 fbbd 9aca 25be
00000270: f926 393d bf07 30be ff72 21be ec1a 8ebd
00000280: 0b9e 57be bc88 f9bd 23b1 68bd ba97 c73c
00000290: 39ec c13d 4538 3e3e 1b2d 0cbd 13a5 febd
000002a0: 1727 07be 9da7 12be 5459 093e 46e9 3e3e
000002b0: e68e 503d 1b90 533d 335f 873d aa4d 173e
000002c0: 0e81 f63d 35df 083e c742 923d 8e46 c43c
000002d0: 7f1a 74bd e560 033e f0ae 7b3d 6a36 013e
000002e0: 0080 5a3e 2231 273e f979 483e e368 2a3e
000002f0: 5a5d 2cbd e3fb 93bd de2a 4a3d b6cf 123e
00000300: cfdb 3abe 025e 443d 9260 b43d 9c03 bbbd
00000310: dfdf d8bd 0575 dcbd 6eba 643e 3887 2abc
00000320: 0ae8 fcbd e3f8 c73d b29b 11be 600e 50be
00000330: 862f 0d3e d202 4b3c 8c53 883c 6e5b f73d
00000340: 9221 c4bc ef64 88bc f4d6 f3bc b3f7 d03d
00000350: 669a 0ebd 534d a33c 3c5e 0cbe 2eb9 cbbd
00000360: a240 2ebe 5ea8 193e 508f 403e 64ff c53d
00000370: 9c54 913d 7c11 d6bd ad5b 6a3d c425 cc3d
00000380: 5a59 423e e7fc 2ebe d5c4 09be 7b04 d4bd
00000390: e8b4 343e 964f 6abb bdad 343e 73d5 a1bd
000003a0: 5941 b6bc a193 383d 5034 6abd 6a9c 213e
000003b0: 2a7a 183e 127c 34be a5d8 b8bd 6e97 193e
000003c0: 9c3d 0b3e 3b4b 44bb 81a6 293e 3272 a03c
000003d0: 461e 5abe 6872 90bd 31eb 113e 26dc 67bd
000003e0: 8a51 1fbe 0e0a 68bd 65c7 05be c533 b33d
000003f0: 8285 9c3d df1b bfbd b7ab 5e3d 02f3 1a3e

att_dst f4 [1, 4, 128]
-0.18093653 -0.048523467 -0.05144488 0.030299852 -0.11750745 0.04589923 0.20642683 0.008441471
0.14820528 -0.13020064 0.18837625 -0.06592923 0.22650535 -0.07994899 0.010310706 0.04311469
0.048949108 0.010734815 -0.038869444 -0.07252369 0.1352413 0.19189234 0.20279291 -0.11115711
0.18689099 0.16995317 0.12020412 -0.0033559809 -0.1407087 -0.076944254 -0.21207754 0.13551173
0.13884802 0.08135832 -0.20543824 0.071423694 -0.11114835 -0.10246172 -0.18143068 0.16071059
0.106548354 0.18471743 0.20710063 -0.11982223 0.15287066 0.17877719 0.06480163 -0.21086276
-0.033877786 -0.21868247 -0.009645974 0.18808694 0.0031030725 -0.16837007 0.19277015 -0.02198258
0.12835862 -0.025720112 -0.12794492 0.07400536 0.042235672 0.07881283 -0.018223576 0.18555321
-0.19414565 -0.1661238 -0.18666714 -0.0563083 0.043076053 -0.09468444 -0.04884283 -0.111483224
-0.07477001 -0.17590907 0.023715619 0.07812351 -0.09258603 0.00038724588 0.19682626 0.1343602
-0.19288988 -0.17101693 0.099651285 -0.020615084 0.18514341 0.15635258 -0.14075373 -0.1740457
0.034939703 0.052250553 -0.048687704 0.1502675 0.19586495 -0.033536345 0.06230954 -0.20845613
-0.012218821 -0.16844495 0.1854243 0.080253005 0.09614212 -0.07079171 0.08734138 0.07492031
-0.101417944 -0.04816838 0.124150634 0.04751485 -0.0033229748 -0.00918412 -0.15080824 -0.025418941
0.0128087485 0.06572917 -0.09120008 0.07128882 0.021021022 0.1987058 0.087800935 -0.20644106
-0.041646253 -0.01797018 -0.10613811 -0.07911185 0.015603028 -0.007014648 -0.052311372 -0.06698979
-0.09855177 0.07705191 0.048585966 0.04041221 0.156475 0.02851988 0.1883338 -0.026540294
0.008882322 -0.09842453 -0.16827208 -0.10543574 0.040738404 0.007691907 0.08051682 0.06743525
-0.20787457 0.1677929 -0.058338642 -0.17254324 0.07786235 0.05114004 -0.12577489 -0.0023977011
0.16522902 0.051560514 -0.063743636 -0.061398946 0.07894798 0.19579265 -0.060851943 0.18131392
-0.0738547 0.14917232 0.019990344 -0.09629169 0.17620932 0.16109256 -0.047019053 -0.21269774
-0.11711727 -0.014256289 -0.1680021 -0.174907 -0.0114939455 -0.049207315 0.009727836 -0.11997834
-0.11833727 0.07038519 0.01366523 0.14569427 -0.108128175 -0.08653144 -0.09751858 -0.12728758
0.12340834 -0.03103726 0.21182293 0.121643715 -0.09459694 -0.049142316 0.09452914 -0.14833245
0.1902368 0.040674563 0.06939687 0.18597198 -0.1917374 -0.07978304 -0.10338257 -0.1288808
0.14259523 0.14279355 0.14963555 0.2062988 -0.10131051 0.0004980987 0.04304948 -0.0583527
0.1265115 0.21153058 -0.21468867 -0.03859325 0.12922883 -0.14059784 -0.04508692 0.12842678
0.052426375 -0.11661828 -0.054635253 -0.0036004835 0.19823276 -0.13324153 -0.015522255 -0.039584752
0.21669026 0.16565527 -0.036172252 -0.10195198 0.20721236 -0.02763245 -0.05570705 0.16958201
0.058818534 0.024315443 0.2024264 -0.09225004 0.1683069 0.10908201 -0.13215494 0.19375178
0.06734616 -0.15103878 0.18868989 -0.17957929 0.024147576 0.09595809 0.10703785 -0.18574972
0.20264961 0.17646159 0.1244447 0.06291701 -0.1427723 0.14435947 0.014971578 -0.023476867
00000000: 6d47 39be 8bc0 46bd deb7 52bd 6537 f83c
00000010: bfa7 f0bd d500 3c3d 8e61 533e 184e 0a3c
00000020: 20c3 173e 5153 05be b4e5 403e e705 87bd
00000030: 05f1 673e 4cbc a3bd 3cee 283c 0799 303d
00000040: dc7e 483d 14e1 2f3c 9135 1fbd 4d87 94bd
00000050: b27c 0a3e 6d7f 443e f2a8 4f3e 57a6 e3bd
00000060: 5a60 3f3e 3408 2e3e 942d f63d 04f0 5bbb
00000070: f115 10be f394 9dbd db2a 59be 96c3 0a3e
00000080: 2d2e 0e3e 319f a63d 675e 52be 9646 923d
00000090: bfa1 e3bd 73d7 d1bd f7c8 39be 5191 243e
000000a0: 0636 da3d 9126 3d3e 3012 543e 5b65 f5bd
000000b0: 208a 1c3e 5e11 373e b8b6 843d 68ec 57be
000000c0: 6fc3 0abd 4cee 5fbe 260a 1ebc dd99 403e
000000d0: eb5c 4b3b 3469 2cbe 8a65 453e d014 b4bc
000000e0: 7170 033e fcb2 d2bc fe03 03be 1f90 973d
000000f0: 50ff 2c3d 9f68 a13d 9c49 95bc a901 3e3e
00000100: 1ece 46be 5c1c 2abe ac25 3fbe 88a3 66bd
00000110: 8470 303d eae9 c1bd 6b0f 48bd 5151 e4bd
00000120: 0521 99bd 8221 34be 4247 c23c 38ff 9f3d
00000130: bf9d bdbd 4307 cb39 d38c 493e b895 093e
00000140: ed84 45be 101f 2fbe f915 cc3d f7e0 a8bc
00000150: 3c96 3d3e e41a 203e bf21 10be 0939 32be
00000160: ef1c 0f3d ad04 563d c26c 47bd b9df 193e
00000170: d290 483e 685d 09bd 4a38 7f3d 8675 55be
00000180: 7331 48bc d57c 2cbe dedf 3d3e b05b a43d
00000190: 29e6 c43d 3efb 90bd 0ae0 b23d d26f 993d
000001a0: 36b4 cfbd 354c 45bd b042 fe3d ee9e 423d
000001b0: 44c6 59bb fe78 16bc 7a6d 1abe 623b d0bc
000001c0: c9db 513c 049d 863d 1cc7 babd dfff 913d
000001d0: 4734 ac3c 8979 4b3e fad0 b33d 4965 53be
000001e0: 4395 2abd 3336 93bc f05e d9bd 6505 a2bd
000001f0: d8a3 7f3c 22db e5bb 7344 56bd f131 89bd
00000200: 83d5 c9bd 64cd 9d3d 1402 473d 4687 253d
00000210: fb3a 203e 86a2 e93c 93da 403e 086b d9bc
00000220: 2987 113c cd92 c9bd 844f 2cbe b1ee d7bd
00000230: 50dd 263d 650c fc3b 01e6 a43d 7e1b 8a3d
00000240: 12dd 54be e7d1 2b3e 80f4 6ebd 2daf 30be
00000250: 4c76 9f3d 3878 513d 22cb 00be c022 1dbb
00000260: cc31 293e 1e31 533d 068c 82bd 767d 7bbd
00000270: 7baf a13d de7d 483e e33f 79bd 5baa 393e
00000280: 2241 97bd a1c0 183e cac2 a33c 9434 c5bd
00000290: 3770 343e 73f5 243e 0d97 40bd 70cd 59be
000002a0: 2edb efbd 3693 69bc be08 2cbe d21a 33be
000002b0: 1a51 3cbc 9c8d 49bd 8061 1f3c 34b7 f5bd
000002c0: d05a f2bd 1c26 903d 21e4 5f3c e130 153e
000002d0: 4e72 ddbd 6537 b1bd d2b7 c7bd ad57 02be
000002e0: 83bd fc3d da41 febc 1ce8 583e 5720 f93d
000002f0: 0abc c1bd 7449 49bd 7e98 c13d 76e4 17be
00000300: 70cd 423e 5f9a 263d f21f 8e3d 706f 3e3e
00000310: cf56 44be 4a65 a3bd 3eba d3bd 54f9 03be
00000320: 7c04 123e 7938 123e 103a 193e fe3f 533e
00000330: e27b cfbd d792 023a a754 303d 3e03 6fbd
00000340: 3b8c 013e 799b 583e 59d7 5bbe f513 1ebd
00000350: 9054 043e e1f8 0fbe 10ad 38bd 4f82 033e
00000360: 0abd 563d 91d5 eebd 37c9 5fbd 17f6 6bbb
00000370: 87fd 4a3e 7870 08be 0e51 7ebc 9f23 22bd
00000380: 0de4 5d3e 89a1 293e 5b29 14bd 33cc d0bd
00000390: 7a2f 543e 735d e2bc 132d 64bd e8a6 2d3e
000003a0: b4eb 703d 2e31 c73c de48 4f3e 97ed bcbd
000003b0: a558 2c3e 6466 df3d a053 07be de66 463e
000003c0: c9ec 893d e9a9 1abe ec37 413e a2e3 37be
000003d0: 23d1 c53c ad85 c43d a936 db3d 2d35 3ebe
000003e0: 6183 4f3e 59b2 343e dddc fe3d a2da 803d
000003f0: e732 12be f8d2 133e 594b 753c 8f52 c0bc

bias f4 [512]
0.10287955 0.016287724 -0.047942944 -0.079127155 0.061366998 0.00083900115 -0.052465826 0.0912285
-0.054470524 0.009916933 0.00662412 0.04267955 0.17129874 0.08777819 0.09345315 -0.028743062
-0.0008649149 -0.014966537 -0.08627445 0.06252478 0.0921079 0.07421188 -0.082192145 -0.040524844
-0.042819705 0.15674007 0.07978491 -0.05468957 0.010196308 -0.02562112 0.0793669 0.12348453
0.14505644 -0.021722777 0.06673198 -0.010341286 -0.1011715 -0.017270228 0.15068583 0.0143528
0.12196838 -0.0077582947 0.05007929 0.06163966 0.05269802 -0.010144543 0.10417185 0.052407544
-0.024026424 0.10105649 -0.0012531375 0.12344565 0.09178536 0.079072006 0.14772554 -0.051570132
0.2102791 0.09511555 -0.04944528 -0.09370174 0.06383237 -0.0028814902 0.05021956 0.09237875
0.033910003 -0.04338178 -0.00039975205 0.13553599 0.124032244 0.0041376236 -0.09455247 0.06301381
0.02124893 0.09452872 0.0030384785 0.03727713 -0.027697712 -0.054767527 0.08571142 -0.031624693
-0.058529027 -0.03240119 -0.09094225 0.17398863 0.07289341 -0.091093175 0.12902264 0.0062138494
-0.024632242 0.10048197 -0.03057926 0.08719258 -0.032034002 0.049361143 -0.010061217 0.075669706
-0.1260334 -0.026453583 0.19250132 -0.05826049 0.13415901 0.1277857 0.085646845 0.08465281
-0.10390731 0.017428305 0.16916992 0.08342584 0.11422642 -0.115867436 0.0074072382 -0.001038033
0.10093916 0.16814576 0.011424313 -0.0633879 0.016673211 0.13054228 0.10633132 0.013989797
0.13212194 0.089200385 0.088102065 0.13658847 -0.08015051 0.18317848 0.17773654 0.17339659
-0.06652516 0.097405255 -0.054765027 0.066037305 -0.072293386 -0.1428244 -0.07522789 0.12007922
0.018838225 0.074849606 0.13310991 0.17534956 0.13339315 -0.0028507146 -0.08532672 0.031077003
0.13787018 0.115547545 -0.036487646 -0.0011457724 0.038392298 0.06547505 -0.01888451 -0.0977452
-0.051145684 -0.012873629 0.032543916 -0.05367309 -0.023355955 0.021599319 0.037275016 -0.029302917
0.094791755 0.033578858 -0.045591764 -0.05467004 0.009013887 0.1234749 0.062204245 0.10689988
-0.056916438 0.010286864 -0.00089269405 -0.15865897 -0.06285448 0.15788665 0.19156437 -0.0013951618
0.11454981 -0.012802531 0.11313995 -0.060021512 0.07481235 0.029106705 -0.013043083 -0.01386666
0.12730257 0.14388384 0.15921515 0.06219003 0.01770032 -0.038319774 -0.047429502 0.15217361
0.051262915 -0.015901567 -0.09085402 0.059528492 0.10615858 0.039523073 0.09394285 0.050479908
0.054037947 0.114475444 -0.018737357 -0.079177074 0.11276374 -0.07129449 0.0041457 -0.049454417
0.10366945 0.0010859141 -0.12028022 -0.082025096 -0.0018740993 0.07643419 0.08759199 -0.11931874
-0.045422833 -0.034768514 -0.0008051563 0.10582255 -0.0011129467 -0.03314239 -0.06251001 0.15635814
-0.028118314 -0.04864783 -0.035806295 0.1649257 0.0022160287 0.007794761 0.12570603 -0.052702576
-0.081231825 0.14300275 0.068029866 -0.092955194 0.17682068 -0.010205842 0.025835812 0.06958679
-0.025677623 -0.08177909 0.07590854 0.04425705 -0.016736202 -0.025622642 -0.023116957 0.12302343
-0.033692088 -0.01545912 -0.022524614 -0.060363784 0.008248876 -0.14321516 0.027131012 -0.042599667
00000000: 83b2 d23d d56d 853c d25f 44bd 6b0d a2bd
00000010: f65b 7b3d 6af0 5b3a 68e6 56bd 02d6 ba3d
00000020: 7c1c 5fbd a27a 223c 250f d93b c0d0 2e3d
00000030: f068 2f3e 0dc5 b33d 5d64 bf3d 9276 ebbc
00000040: 75bb 62ba 3536 75bc a9b0 b0bd fe0c 803d
00000050: 11a3 bc3d 66fc 973d 5b54 a8bd 61fd 25bd
00000060: b763 2fbd 7880 203e 4566 a33d 2c02 60bd
00000070: 6a0e 273c 62e3 d1bc 1d8b a23d 75e5 fc3d
00000080: ad89 143e f7f3 b1bc c7aa 883d 7f6e 29bc
00000090: 0133 cfbd 4b7a 8dbc 634d 1a3e 0228 6b3c
000000a0: 8fca f93d 4b39 febb f11f 4d3d de79 7c3d
000000b0: e1d9 573d 4c35 26bc 0d58 d53d 4ba9 563d
000000c0: 10d3 c4bc b4f6 ce3d 5140 a4ba 13d1 fc3d
000000d0: f6f9 bb3d 81f0 a13d 5d45 173e 343b 53bd
000000e0: 6853 573e f1cb c23d 2287 4abd b3e6 bfbd
000000f0: 8cba 823d 62d7 3cbb 06b3 4d3d 1231 bd3d
00000100: 37e5 0a3d 18b1 31bd d095 d1b9 f2c9 0a3e
00000110: 9e04 fe3d e794 873b baa4 c1bd 620d 813d
00000120: 3c12 ae3c 4698 c13d 3621 473b e7af 183d
00000130: 50e6 e2bc ea53 60bd 7889 af3d e588 01bd
00000140: 22bc 6fbd 1cb7 04bd ee3f babd 132a 323e
00000150: 2449 953d 0f8f babd 831e 043e 8c9d cb3b
00000160: 8ec9 c9bc 7ec9 cd3d 5b81 fabc 0692 b23d
00000170: 1636 03bd e92e 4a3d cdd7 24bc b8f8 9a3d
00000180: e60e 01be 2fb5 d8bc 111f 453e 8da2 6ebd
00000190: fb60 093e 41da 023e 9d67 af3d 745e ad3d
000001a0: 5bcd d4bd cec5 8e3c e13a 2d3e 2bdb aa3d
000001b0: 8bef e93d e84b edbd 6bb8 f23b 9c0e 88ba
000001c0: 31b9 ce3d 672e 2c3e 0b2d 3b3c 84d1 81bd
000001d0: 4296 883c e0ac 053e 3cc4 d93d 7635 653c
000001e0: f94a 073e b1ae b63d db6e b43d d9dd 0b3e
000001f0: f325 a4bd 2493 3b3e 9100 363e e08e 313e
00000200: 583e 88bd 687c c73d 4b51 60bd 913e 873d
00000210: 8e0e 94bd 8f40 12be 1411 9abd 18ec f53d
00000220: 9f52 9a3c c04a 993d f74d 083e d68e 333e
00000230: 3798 083e 0ed3 3abb c6bf aebd 3395 fe3c
00000240: d72d 0d3e 31a4 ec3d 1274 15bd be2d 96ba
00000250: 3e41 1d3d c817 863d b0b3 9abc a32e c8bd
00000260: 237e 51bd eaeb 52bc c54c 053d 50d8 5bbd
00000270: fd54 bfbc 0ef1 b03c b0ad 183d ac0c f0bc
00000280: 2e22 c23d fc89 093d 6ebe 3abd b1ed 5fbd
00000290: fbae 133c 69e0 fc3d e1c9 7e3d 53ee da3d
000002a0: 3621 69bd 3c8a 283c af03 6aba 7f77 22be
000002b0: dab9 80bd 0aad 213e 7329 443e dddd b6ba
000002c0: 1799 ea3d b5c1 51bc ebb5 e73d 1ed9 75bd
000002d0: 3837 993d 2f71 ee3c a8b2 55bc fd30 63bc
000002e0: 9b5b 023e 4956 133e 4c09 233e f9ba 7e3d
000002f0: 4300 913c 32f5 1cbd 7045 42bd 66d3 1b3e
00000300: 10f9 513d 0144 82bc ac11 babd 26d4 733d
00000310: ab69 d93d f2e2 213d 1c65 c03d 05c4 4e3d
00000320: e556 5d3d 1a72 ea3d 167f 99bc 9727 a2bd
00000330: adf0 e63d d802 92bd a7d8 873b b790 4abd
00000340: a650 d43d 3b55 8e3a 7a55 f6bd c6fc a7bd
00000350: 56a4 f5ba 8789 9c3d 6e63 b33d 625d f4bd
00000360: 4b0d 3abd 6e69 0ebd 2011 53ba 7eb9 d83d
00000370: 4be0 91ba 51c0 07bd 4005 80bd 591c 203e
00000380: 6158 e6bc f242 47bd 9fa9 12bd 48e2 283e
00000390: cb3a 113b 326b ff3b 15b9 003e a8de 57bd
000003a0: df5c a6bd 506f 123e 3e53 8b3d 4b5f bebd
000003b0: 7b10 353e 6736 27bc a0a5 d33c 8583 8e3d
000003c0: e159 d2bc cc7b a7bd f075 9b3d e146 353d
000003d0: 5c1a 89bc 93e6 d1bc c65f bdbc b5f3 fb3d
000003e0: b700 0abd 4048 7dbc 8a85 b8bc 0440 77bd
000003f0: 4b26 073c ffa6 12be db41 de3c fd7c 2ebd

weight f4 [512, 21]
0.010211461 0.091858886 0.015835155 0.008598977 -0.029414255 0.018700186 -0.11006488 -0.10960202
-0.01212149 -0.07245631 -0.07362624 -0.021354297 0.05831359 0.060595777 -0.03455971 -0.005597835
0.10162496 0.028240016 0.08246259 -0.027774839 -0.08771431 -0.060743224 0.0043641417 -0.021888042
-0.0560361 0.1088612 -0.08802176 0.0033102257 0.047325794 -0.012982764 0.04832944 0.0047665285
-0.05714238 -0.044893652 -0.03924869 -0.10208837 0.06388607 0.094466515 -0.055086236 0.004721809
0.025001546 0.019391457 -0.06400772 -0.06510544 0.10319251 0.06464579 0.100638896 0.07064298
-0.013940431 0.06932594 -0.0039819763 0.00034109343 -0.046224587 0.0786685 -0.025231143 0.022350682
-0.08241616 0.038759135 -0.04559029 -0.01747071 0.0018825656 0.056690298 0.01273518 0.013269746
-0.07124433 -0.08084205 0.04012372 -0.043533992 -0.095523864 -0.049326148 -0.1090031 0.020759534
0.008574052 0.09739141 -0.062402155 -0.056408685 0.03355285 -0.025155013 0.085642464 0.02145507
0.004461564 -0.029145628 0.080686904 -0.04255968 0.035130817 0.06416932 -0.08094853 -0.090478435
-0.05601883 0.05405002 -0.052816227 0.015826968 0.017825894 0.022078145 -0.051883098 0.008689814
0.07442073 0.04581076 0.015733397 -0.09038831 0.040397253 -0.053715643 0.058452606 0.023013411
-0.031268805 0.039184682 -0.04514407 0.018381303 -0.0017510221 0.0018096031 0.034742378 0.100560814
-0.048859574 0.103981845 -0.01793994 0.10084199 0.020045683 0.005432898 -0.028607288 -0.054409888
-0.100660935 -0.05255479 -0.0019044417 0.103060655 0.07714548 0.029837025 -0.08990757 0.07720731
0.07593563 -0.04926452 0.038281225 -0.09576155 -0.061809957 -0.03742243 -0.1038954 -0.009950668
0.013108699 0.01684297 0.08729272 0.058804575 -0.10012076 -0.03344281 0.058113858 -0.10423637
-0.0033412883 0.04919667 -0.06896389 0.08307282 -0.0712445 -0.07551073 -0.07628888 -0.015590946
0.03231902 0.026869157 -0.055368558 0.09325455 -0.05590183 0.08328667 0.031315964 -0.035612784
0.08466986 0.0363594 -0.08988986 0.055948228 0.104172185 -0.07014697 -0.0082560275 -0.07997661
0.06484171 0.05384096 0.07747582 0.03267441 -0.016688019 -0.014937053 -0.0840847 0.06275118
-0.042934388 0.012502956 0.0032271142 0.027654639 -0.08657894 -0.009689683 0.05053826 -0.076996595
-0.041854467 -0.05308197 -0.07903236 0.12012811 0.09877164 0.047178682 -0.09657931 -0.004046707
0.018673642 0.04882479 0.019184547 -0.06581442 0.006307374 -0.083163366 0.052805338 0.06708952
-0.036935434 -0.08805629 0.0072697164 0.051360045 -0.080006264 0.04015162 0.07222892 -0.08369201
0.06289875 0.048764836 -0.047383476 0.09062878 -0.05212939 0.07685374 -0.08269892 0.087725535
-0.019095087 -0.08954891 0.056385823 -0.009624688 0.030000117 0.05261467 0.012003144 0.026075799
-0.09223 -0.09530923 -0.053674392 -0.06121306 -0.110864416 -0.0008505326 -0.016223652 -0.025464095
-0.0059852847 0.050933994 -0.03784266 0.007923835 -0.010662079 0.049184885 -0.013744725 0.038291465
-0.040792644 0.08120238 0.015811292 0.0182887 0.059426486 -0.103913225 0.049743496 0.08998394
0.070825994 0.08150763 -0.06748642 0.100206904 0.016287617 -0.10587949 0.09692027 0.08595827
00000000: f94d 273c 8320 bc3d bab8 813c b9e2 0c3c
00000010: 2af6 f0bc 2231 993c b269 e1bd 0677 e0bd
00000020: 3799 46bc f963 94bd 5bc9 96bd 35ef aebc
00000030: 3bda 6e3d 4733 783d 7c8e 0dbd 0b6e b7bb
00000040: bf20 d03d 9b57 e73c 25e2 a83d 0f88 e3bc
00000050: 8fa3 b3bd e3cd 78bd 1301 8f3b 8d4e b3bc
00000060: 1c86 65bd 9ff2 de3d c144 b4bd 5ff0 583b
00000070: b1d8 413d a9b5 54bc 17f5 453d 8a30 9c3b
00000080: 210e 6abd 68e2 37bd 3cc3 20bd b513 d1bd
00000090: b3d6 823d a977 c13d 1ba2 61bd 68b9 9a3b
000000a0: 0bd0 cc3c d5da 9e3c 7b16 83bd 0056 85bd
000000b0: 9856 d33d 0365 843d c41b ce3d 44ad 903d
000000c0: 6866 64bc c2fa 8d3d 3d7b 82bb c9d4 b239
000000d0: fe55 3dbd f31c a13d 8bb1 cebc c718 b73c
000000e0: cec9 a8bd e6c1 1e3d e2bc 3abd bc1e 8fbc
000000f0: 6bc0 f63a 1634 683d 37a7 503c 5969 593c
00000100: 8ce8 91bd 8490 a5bd c558 243d b350 32bd
00000110: 04a2 c3bd 370a 4abd 043d dfbd e60f aa3c
00000120: 2e7a 0c3c 2675 c73d 6799 7fbd cb0c 67bd
00000130: b76e 093d e311 cebc 5165 af3d 8bc2 af3c
00000140: 5032 923b d0c2 eebc 2d3f a53d 0f53 2ebd
00000150: 55e5 0f3d 346b 833d 58c8 a5bd c24c b9bd
00000160: 0074 65bd 8e63 5d3d d455 58bd 8fa7 813c
00000170: 9c07 923c 3add b43c 5f83 54bd b95f 0e3c
00000180: e569 983d 10a4 3b3d 53e3 803c 821d b9bd
00000190: 9777 253d ef04 5cbd 006c 6f3d 9f86 bc3c
000001a0: b813 00bd 1e80 203d fde8 38bd 6394 963c
000001b0: 8d82 e5ba 3430 ed3a 064e 0e3d d4f2 cd3d
000001c0: fa20 48bd 6ff4 d43d c8f6 92bc 3f86 ce3d
000001d0: d836 a43c 7406 b23b d559 eabc e7dc 5ebd
000001e0: 5227 cebd b143 57bd 769e f9ba 7711 d33d
000001f0: 73fe 9d3d c76c f43c 7621 b8bd de1e 9e3d
00000200: 2484 9b3d 98c9 49bd c6cc 1c3d a21e c4bd
00000210: 702c 7dbd 4348 19bd 1dc7 d4bd 2008 23bc
00000220: dec5 563c 45fa 893c 87c6 b23d 11dd 703d
00000230: 1d0c cdbd 54fb 08bd cc08 6e3d e179 d5bd
00000240: 84f9 5abb 7382 493d f13c 8dbd 1522 aa3d
00000250: a3e8 91bd 5fa5 9abd 583d 9cbd 2b71 7fbc
00000260: f360 043d b51c dc3c 24ca 62bd 3efc be3d
00000270: 51f9 64bd 3492 aa3d 2b45 003d b6de 11bd
00000280: 6467 ad3d 98ed 143d 2d18 b8bd f829 653d
00000290: 3a58 d53d 37a9 8fbd 4a44 07bc c7ca a3bd
000002a0: bbcb 843d 5788 5c3d a5ab 9e3d 9ad5 053d
000002b0: 50b5 88bc 8bba 74bc 9934 acbd b183 803d
000002c0: f8db 2fbd 33d9 4c3c fe7d 533b fb8b e23c
000002d0: 4d50 b1bd 7ac1 1ebc 3501 4f3d 64b0 9dbd
000002e0: 976f 2bbd 7b6c 59bd b8db a1bd ba05 f63d
000002f0: c948 ca3d 6f3e 413d 60cb c5bd 3d9a 84bb
00000300: 77f9 983c 81fc 473d e928 9d3c b6c9 86bd
00000310: 17ae ce3b 8e51 aabd 694a 583d 3b66 893d
00000320: 9c49 17bd db56 b4bd cd36 ee3b e95e 523d
00000330: 53da a3bd 0676 243d c2ec 933d b766 abbd
00000340: 0fd1 803d a3bd 473d 2d15 42bd 959b b93d
00000350: a185 55bd 7e65 9d3d 0d5e a9bd 72a9 b33d
00000360: 4d6d 9cbc 6b65 b7bd d2f4 663d deb0 1dbc
00000370: cec2 f53c 7b82 573d d6a8 443c ea9c d53c
00000380: 15e3 bcbd 7c31 c3bd aed9 5bbd 8cba 7abd
00000390: e20c e3bd 47f6 5eba 77e7 84bc 149a d0bc
000003a0: 3520 c4bb 2aa0 503d e800 1bbd f9d2 013c
000003b0: 00b0 2ebc 1776 493d 8e31 61bc 83d7 1c3d
000003c0: 3016 27bd 6f4d a63d af86 813c 2fd2 953c
000003d0: 3069 733d 75d0 d4bd d6bf 4b3d 8049 b83d
000003e0: 380d 913d 79ed a63d 5236 8abd 4739 cd3d
000003f0: 9c6d 853c 59d7 d8bd 227e c63d e40a b03d

att_src f4 [1, 1, 128]
-0.15534073 -0.1161144 -0.13984863 0.10076945 0.08367653 0.06320202 -0.074435145 -0.05765677
0.10664969 -0.14133812 0.08846476 -0.19751386 -0.18195985 0.067125425 -0.16766635 -0.03895659
0.023537882 -0.16194661 0.19507945 -0.031506516 0.16937804 -0.057490926 0.19305882 0.088569105
-0.016214008 0.059594296 0.060951766 -0.02754556 0.16707942 -0.14215972 -0.002893698 -0.038456876
-0.12130706 -0.05586684 -0.15268515 0.08139638 -0.09755489 -0.12567721 0.02158751 -0.20711891
-0.19792224 0.057375472 0.1269333 -0.014588213 0.081869796 -0.13442759 0.0776384 0.09021338
0.16590144 -0.18759269 -0.14491095 -0.17850965 -0.19145855 0.021942362 -0.19005597 0.057517506
-0.063774265 -0.046172418 -0.09784522 -0.04213519 0.13231395 0.10377921 0.03770686 0.06763906
0.18250524 -0.023638966 0.09180314 -0.13434578 -0.077278815 -0.028329866 -0.024800768 -0.21229208
-0.19070897 -0.02403059 0.08735064 0.13070026 0.10238913 -0.16773091 0.075945154 0.05877229
0.04405055 0.05067131 -0.054817375 -0.16043088 0.13158885 0.20065965 -0.14124626 0.20435902
0.08314064 -0.12820901 -0.090007246 -0.039842788 0.19565456 -0.18617713 -0.054973878 0.028071783
0.124217786 -0.06073801 0.20363908 0.16435249 -0.13725138 -0.10537583 -0.061539147 -0.14464898
-0.043903477 0.14938533 -0.053572923 -0.02956467 0.019323837 -0.09690109 -0.16793486 -0.20205532
0.06548813 0.07980339 -0.019910986 -0.10734509 0.1675402 -0.012238167 0.076313436 -0.028995933
-0.05396427 -0.018162576 -0.14850432 -0.039495524 -0.051450152 -0.028079594 -0.083265506 -0.0014928497
00000000: a411 1fbe 63cd edbd 7b34 0fbe 3760 ce3d
00000010: 9a5e ab3d 1070 813d 7471 98bd 8129 6cbd
00000020: 276b da3d f1ba 10be 032d b53d 1341 4abe
00000030: af53 3abe 0e79 893d bab0 2bbe f290 1fbd
00000040: 84d2 c03c 55d5 25be e8c2 473e fa0c 01bd
00000050: 7071 2d3e 9b7b 6bbd 36b1 453e b863 b53d
00000060: 3dd3 84bc 2619 743d 8fa8 793d 3aa7 e1bc
00000070: de16 2b3e 5192 11be 32a4 3dbb f584 1dbd
00000080: d66f f8bd a1d4 64bd 7f59 1cbe 25b3 a63d
00000090: dcca c7bd 87b1 00be 4ad8 b03c fb16 54be
000000a0: 21ac 4abe 8b02 6b3d cefa 013e 6603 6fbc
000000b0: 5aab a73d 63a7 09be e200 9f3d cbc1 b83d
000000c0: 11e2 293e 4c18 40be 8963 14be 3ccb 36be
000000d0: b60d 44be 78c0 b33c 089e 42be 7a97 6b3d
000000e0: 159c 82bd 4a1f 3dbd 1363 c8bd f395 2cbd
000000f0: 4f7d 073e 328a d43d 8272 1a3d 5986 8a3d
00000100: a7e2 3a3e 81a6 c1bc 4903 bc3d f191 09be
00000110: 5b44 9ebd 0914 e8bc fb2a cbbc 1863 59be
00000120: 3649 43be cddb c4bc e4e4 b23d 4ad6 053e
00000130: 64b1 d13d a7c1 2bbe 2289 9b3d 36bb 703d
00000140: 596e 343d b88c 4f3d 2f88 60bd fe47 24be
00000150: 3abf 063e b979 4d3e dca2 10be 7e43 513e
00000160: a445 aa3d 3949 03be b855 b8bd 3132 23bd
00000170: ab59 483e 38a5 3ebe 4a2c 61bd ccf6 e53c
00000180: e565 fe3d 6bc8 78bd c386 503e 054c 283e
00000190: a08b 0cbe 48cf d7bd 7910 7cbd dd1e 14be
000001a0: 22d4 33bd 78f8 183e 486f 5bbd 9b31 f2bc
000001b0: 064d 9e3c 1474 c6bd 1ef7 2bbe 97e7 4ebe
000001c0: a41e 863d f66f a33d 5d1c a3bc bed7 dbbd
000001d0: a88f 2b3e 9882 48bc 384a 9c3d e188 edbc
000001e0: a309 5dbd afc9 94bc 8411 18be 0fc6 21bd
000001f0: 65bd 52bd 2d07 e6bc 1b87 aabd b9ab c3ba

att_dst f4 [1, 1, 128]
-0.16976012 0.1190449 -0.017858142 0.09148571 0.20769314 0.18485199 -0.101037905 0.088365965
0.03860482 -0.11744922 0.07718104 0.089415334 -0.13961425 0.0590418 -0.02043114 0.060511462
0.14900415 -0.0073746834 -0.054615747 -0.12884942 -0.07695099 -0.20156777 0.044703506 -0.0794535
-0.050428487 0.20007324 -0.1325332 0.035830766 0.068996795 0.17673688 -0.036783546 0.1577335
-0.07077542 0.034385357 0.032263894 0.07937697 -0.11075887 0.07769346 -0.05982007 0.14709541
0.04432443 0.044267602 0.057400078 -0.073738806 -0.03866404 0.062291387 -0.1293309 0.023715556
-0.1291829 0.0011218186 -0.17058653 -0.03813617 0.16453525 -0.16404143 -0.19335747 0.09426981
-0.07710618 0.18893787 -0.18138734 0.21195017 -0.13241172 0.13900515 -0.10151527 0.059379548
0.1718842 -0.039365653 0.025291923 0.06421555 0.018429346 -0.17109159 0.16896324 0.06975779
-0.06688318 -0.12449506 0.005958998 -0.016050452 0.19293295 0.13482207 -0.09975091 0.0909328
-0.082372375 0.11674327 0.1947922 0.16910411 0.02856822 -0.19284432 -0.084946975 0.068888426
0.09244181 -0.18962757 0.17812042 -0.01057781 -0.030141812 -0.11420082 -0.02345593 -0.13964455
0.044428885 -0.11424876 0.15187484 -0.0015442856 -0.14918692 0.1417189 0.071385816 0.06981491
-0.17592931 0.18402065 0.023740439 0.09865696 -0.0025057627 -0.17230512 -0.15454835 0.11654286
-0.08158672 0.1121784 0.011536582 -0.062472146 0.18227124 -0.16455777 -0.05478091 -0.04349005
-0.024664775 -0.052716285 0.03746689 0.19031233 -0.08519874 -0.0633493 -0.01276562 0.18575403
00000000: 99d5 2dbe d0cd f33d 3d4b 92bc dc5c bb3d
00000010: 83ad 543e d749 3d3e f6ec cebd 37f9 b43d
00000020: 1620 1e3d 3789 f0bd 1811 9e3d 631f b73d
00000030: 0af7 0ebe d1d5 713d 355f a7bc deda 773d
00000040: 8b94 183e 54a7 f1bb c3b4 5fbd 1af1 03be
00000050: 7b98 9dbd c867 4ebe 061b 373d 84b8 a2bd
00000060: 1a8e 4ebd 00e0 4c3e c8b6 07be 48c3 123d
00000070: 314e 8d3d 83fa 343e 58aa 16bd e484 213e
00000080: b4f2 90bd a9d7 0c3d 2527 043d 6590 a23d
00000090: 8cd5 e2bd c01d 9f3d e405 75bd 2ea0 163e
000000a0: 898d 353d f251 353d 581c 6b3d 5f04 97bd
000000b0: 2f5e 1ebd 4125 7f3d 526f 04be 2047 c23c
000000c0: 8648 04be fc09 933a 3cae 2ebe ac34 1cbd
000000d0: ee7b 283e 7afa 27be 80ff 45be 8810 c13d
000000e0: d8e9 9dbd ee78 413e 9abd 39be 7709 593e
000000f0: f096 07be 5e57 0e3e 3de7 cfbd f837 733d
00000100: 6902 303e e13d 21bd 0231 cf3c 7183 833d
00000110: 24f9 963c a232 2fbe b304 2d3e 2cdd 8e3d
00000120: 0cfa 88bd 44f7 febd b343 c33b 3d7c 83bc
00000130: 3790 453e cc0e 0a3e 354a ccbd fa3a ba3d
00000140: d9b2 a8bd 1817 ef3d 9b77 473e a129 2d3e
00000150: e607 ea3c fb78 45be aef8 adbd 6015 8d3d
00000160: 2252 bd3d bb2d 42be 3365 363e 8d4e 2dbc
00000170: f6eb f6bc 1fe2 e9bd a726 c0bc fbfe 0ebe
00000180: 10fb 353d 41fb e9bd 1485 1b3e a069 caba
00000190: 75c4 18be c21e 113e ba32 923d 1ffb 8e3d
000001a0: d026 34be e96f 3c3e 4f7b c23c a90c ca3d
000001b0: b937 24bb c170 30be ec41 1ebe 06ae ee3d
000001c0: f016 a7bd cabd e53d ef03 3d3c cbe2 7fbd
000001d0: 50a5 3a3e d581 28be f361 60bd 9f22 32bd
000001e0: c80d cabc 08ed 57bd e276 193d 3ce1 423e
000001f0: ad7c aebd 47bd 81bd e426 51bc 4e36 3e3e

bias f4 [128]
0.05914849 -0.044228528 0.14962713 0.05187776 0.06543235 -0.029519849 0.07035433 -0.07569718
0.10120023 -0.0023504924 -0.113179706 -0.049123015 -0.010395529 0.08374035 -0.06636489 -0.17467807
-0.16182233 -0.08252885 -0.16428138 0.0629314 -0.015428248 -0.07522854 0.07238163 0.007356173
-0.13232988 0.12973177 -0.11618874 -0.019471796 -0.017513659 0.113357 0.19735996 0.07987719
0.1359377 0.061932296 -0.094237834 -0.06514639 -0.014667946 -0.06196866 -0.14896232 0.084573716
0.088643946 -0.019581141 -0.03176088 -0.043847963 -0.034688804 -0.10982721 0.042826604 -0.15656301
-0.044380475 -0.09057859 -0.17790145 0.061599117 0.038496494 0.031215107 -0.01590504 -0.08605622
-0.019660229 -0.1452486 -0.06575426 -0.012140609 0.058008086 -0.04314825 0.085779905 -0.09707115
-3.105941e-09 3.3528136e-07 -0.00019428409 0.00012363783 0.00016319708 -8.703238e-14 3.976413e-05 3.692968e-06
2.7509714e-10 2.0817752e-10 -2.7019089e-05 -0.00038206953 -4.0517932e-07 -0.00070339214 7.3448056e-05 1.412418e-05
-3.9974602e-05 2.0909263e-05 4.633407e-06 6.405027e-06 -1.8962359e-05 2.408306e-05 -4.2087202e-05 2.757215e-16
-0.00026223168 4.991666e-09 -9.355751e-05 -9.9899e-41 3.859232e-05 2.2281587e-07 9.314468e-19 0.00019653715
-1.5994017e-05 -4.015718e-10 4.422852e-05 6.4491855e-05 3.5443383e-05 -1.49011e-40 3.7979696e-06 4.8244503e-05
-1.7222895e-06 -8.565401e-05 2.789579e-06 -3.5728224e-06 1.6824488e-05 6.2933716e-05 1.2224422e-05 2.822867e-06
-2.05502e-40 4.2429376e-05 2.750272e-05 0.00018009535 4.006523e-05 3.1209334e-11 9.976641e-07 -2.1234298e-06
-1.8900548e-05 4.520984e-05 9.926077e-05 3.8412647e-05 1.7360891e-05 -0.00041361604 0.0003310581 -1.9808855e-05
00000000: b045 723d f928 35bd db37 193e c67d 543d
00000010: 6501 863d 9cd3 f1bc ee15 903d 2007 9bbd
00000020: 1142 cf3d b80a 1abb c3ca e7bd 3735 49bd
00000030: 0252 2abc 1080 ab3d 51ea 87bd cfde 32be
00000040: c1b4 25be e304 a9bd 6139 28be 2ee2 803d
00000050: c3c6 7cbc 6c11 9abd d23c 943d 0d0c f13b
00000060: 7c81 07be 68d8 043e 5df4 edbd 5183 9fbc
00000070: ce78 8fbc b727 e83d bb18 4a3e a796 a33d
00000080: 4133 0b3e b8ac 7d3d c4ff c0bd 786b 85bd
00000090: d351 70bc dad2 7dbd 9489 18be fc34 ad3d
000000a0: f58a b53d a168 a0bc b217 02bd ec99 33bd
000000b0: d915 0ebd 17ed e0bd f36a 2f3d 0e52 20be
000000c0: 4dc8 35bd 4581 b9bd cc2b 36be 5b4f 7c3d
000000d0: 80ae 1d3d d3b6 ff3c 494b 82bc 3e3e b0bd
000000e0: 7d0e a1bc 0dbc 14be 2baa 86bd 68e9 46bc
000000f0: e399 6d3d 38bc 30bd 60ad af3d 3dcd c6bd
00000100: 4b70 55b1 b800 b434 bdb8 4bb9 c7a4 0139
00000110: e21f 2b39 c0fa c3a9 69c8 2638 b5d4 7736
00000120: 7b3c 972f c3e4 642f 0da7 e2b7 8150 c8b9
00000130: 6c87 d9b4 d963 38ba 2008 9a38 e4f6 6c37
00000140: 67aa 27b8 4d66 af37 aa78 9b36 c3ea d636
00000150: 5b11 9fb7 fa05 ca37 ca86 30b8 50f1 9e25
00000160: 247c 89b9 2983 ab31 4e34 c4b8 7a16 0180
00000170: 30de 2138 293f 6f34 1175 8921 8a15 4e39
00000180: e42a 86b7 35c4 dcaf 0382 3938 cd3f 8738
00000190: 0ba9 1438 629f 0180 9fe0 7e36 245a 4a38
000001a0: 6b29 e7b5 25a1 b3b8 9a34 3b36 9fc4 6fb6
000001b0: 5022 8d37 48fb 8338 7e17 4d37 7c70 3d36
000001c0: db3c 0280 32f6 3138 a4b5 e637 fad7 3c39
000001d0: b70b 2838 9642 092e 7ae7 8535 3f80 0eb6
000001e0: 9e8c 9eb7 b29f 3d38 382a d038 441d 2138
000001f0: 3ba2 9137 9bda d8b9 de91 ad39 312b a6b7

weight f4 [128, 512]
0.052870836 0.03945318 -0.044343967 -0.030884428 -0.07465753 0.055976246 0.027491994 0.006200392
-0.0470717 0.012856192 -0.010845301 0.080816716 -0.0357781 0.040548593 0.00904158 0.06688612
-0.031441666 -0.0010870945 0.063610494 -0.053040404 0.06465454 -0.001034222 -0.035104986 0.043493077
0.0160549 0.08823007 -0.03860836 -0.06807174 0.0017481497 0.09109149 -0.05774575 0.00084629626
0.038558085 -0.070063494 -0.06260281 0.034508802 -0.03337547 0.018341897 0.091914125 -0.03855809
0.089089155 0.07499609 0.017155869 0.029209733 0.05158333 -0.050363358 0.0801519 -0.009808256
-0.023230365 -0.009717003 0.011975969 -0.028100975 -0.09916542 -0.05187552 0.037754856 -0.011105897
0.017223356 -0.090167195 -0.002278004 -0.053393498 0.014049847 0.057662763 -0.0764294 0.09342235
-0.06947116 -0.0767119 -0.04324805 -0.07790362 -0.09550322 -0.0011049686 0.0475749 0.051439557
0.007054137 0.017190913 0.0921687 -0.075208545 0.07714724 -0.097869165 -0.031154817 -0.041722212
0.06710612 -0.05002812 -0.014698061 -0.044668954 0.046473566 -0.012207935 -0.017647227 -0.013088628
-0.024040908 -0.012139834 -0.046125468 0.019127563 -0.09672108 -0.053322237 0.031860575 0.0728112
-0.06447088 0.07745039 -0.047676593 -0.07927077 0.08547199 -0.01987796 -0.042505447 -0.083048195
-0.034252137 0.021283602 -0.08274743 -0.030641936 -0.0024921421 -0.04918129 -0.0068486654 -0.020712944
0.030324016 0.027543964 0.038682062 0.08532083 0.08069653 0.07915063 -0.03360384 -0.0076264595
0.08962513 -0.05932678 0.029784296 0.057714816 0.022573797 0.060668 0.08252925 -0.078876786
0.0047676363 0.030715961 0.057862613 0.02465589 -0.059270106 -0.017911013 0.055596303 -0.02260962
0.008374045 -0.09877834 -0.060988225 0.058493122 -0.0072537833 0.10141487 0.013959344 -0.02272388
0.08641648 0.04422953 0.0726166 0.00470515 -0.017513588 0.023502236 0.05621638 -0.033079896
-0.06488026 0.043511853 0.016104316 -0.032382973 0.050060704 -0.007087152 -0.056279145 -0.045264125
0.09272139 0.009394917 0.05299562 -0.074028164 -0.011011247 -0.035780035 0.056659147 0.085577235
-0.053435676 0.067153625 0.023515014 0.08346199 -0.05209296 0.0079490915 -0.078624174 0.04405157
-0.07963056 0.04265627 0.085802265 -0.038118623 0.029278588 0.074514255 0.05932423 -0.023604231
0.071672514 0.0797874 -0.0051376293 0.037980672 0.010731575 -0.07654839 -0.09481564 0.06685715
-0.06973191 -0.0006290489 -0.052541427 0.025748152 0.013000468 -0.09024345 -0.08526593 -0.08573298
-0.07244389 -0.015486287 -0.02629285 -0.055226494 0.029323617 -0.0152020445 -0.07485381 -0.007471607
-0.098816976 -0.07549893 -0.05497925 0.07039591 -0.05764934 -0.017731907 0.0122753205 -0.06858804
-0.032785382 0.034932196 -0.07269967 -0.05014899 0.06791842 0.042033017 -0.07995975 -0.008689873
0.028980024 -0.043469626 -0.05749342 0.027829617 0.1030273 -0.039194953 0.06922676 -0.08784168
-0.019391349 -0.060686734 0.07650723 0.08620633 0.008990651 0.029928045 -0.050661225 0.046178695
-0.053004574 0.07424449 -0.060330953 -0.06336317 0.022503989 0.008421382 0.054705944 0.025419097
0.06468574 -0.07238001 -0.0135392565 0.05027581 0.06131424 0.005344108 -0.084440075 0.064900205
00000000: 178f 583d a899 213d 05a2 35bd 5701 fdbc
00000010: 0ce6 98bd 5947 653d e436 e13c a82c cb3b
00000020: 41ce 40bd c7a2 523c 7db0 31bc 3c83 a53d
00000030: 0f8c 12bd 4816 263d 2323 143c 97fb 883d
00000040: fac8 00bd d77c 8eba 3846 823d e540 59bd
00000050: 9969 843d bb8e 87ba 3fca 0fbd cc25 323d
00000060: 9185 833c f8b1 b43d cd23 1ebd 3269 8bbd
00000070: 2c22 e53a 2d8e ba3d cf86 6cbd fbd9 5d3a
00000080: 15ef 1d3d 737d 8fbd e735 80bd 1a59 0d3d
00000090: b8b4 08bd bf41 963c 793d bc3d 16ef 1dbd
000000a0: 6074 b63d 8d97 993d 778a 8c3c 4049 ef3c
000000b0: 0b49 533d cf49 4ebd ae26 a43d cfb2 20bc
000000c0: 9b4d bebc 1134 1fbc db36 443c 0434 e6bc
000000d0: 3d17 cbbd 6d7b 54bd d6a4 1a3d 82f5 35bc
000000e0: ff17 8d3c 94a9 b8bd 914a 15bb 24b3 5abd
000000f0: 5431 663c ca2f 6c3d 0487 9cbd 3854 bf3d
00000100: e546 8ebd 211b 9dbd de24 31bd ef8b 9fbd
00000110: 3197 c3bd 98d4 90ba e6dd 423d 49b2 523d
00000120: 6426 e73b f5d3 8c3c f2c2 bc3d f006 9abd
00000130: 5fff 9d3d a16f c8bd 6338 ffbc e9e4 2abd
00000140: ef6e 893d 49ea 4cbd 23d0 70bc cbf6 36bd
00000150: 115b 3e3d ca03 48bc eb90 90bc af71 56bc
00000160: 70f1 c4bc 28e6 46bc 0fee 3cbd 68b1 9c3c
00000170: b415 c6bd 6b68 5abd 3c80 023d 0a1e 953d
00000180: 4f09 84bd 4f9e 9e3d 8848 43bd b758 a2bd
00000190: f00b af3d 1bd7 a2bc 311a 2ebd 2c15 aabd
000001a0: f84b 0cbd f35a ae3c 7c77 a9bd cc04 fbbc
000001b0: 3553 23bb 5272 49bd c56a e0bb 31ae a9bc
000001c0: 126a f83c e1a3 e13c 1571 1e3d b0bc ae3d
000001d0: 3944 a53d ba19 a23d 2ea4 09bd 61e7 f9bb
000001e0: 618d b73d a300 73bd 32fe f33c 5f66 6c3d
000001f0: afec b83c 027f 783d 1805 a93d 278a a1bd
00000200: d539 9c3b 0aa0 fb3c 5901 6d3d 26fb c93c
00000210: 36c5 72bd 1eba 92bc f3b8 633d cf37 b9bc
00000220: 4a33 093c 4c4c cabd cace 79bd 7c96 6f3d
00000230: 25b1 edbb 99b2 cf3d bbb5 643c 6e27 babc
00000240: 20fb b03d 062a 353d 03b8 943d a92d 9a3b
00000250: a878 8fbc c387 c03c 2643 663d c97e 07bd
00000260: f1df 84bd 7c39 323d 33ed 833c 02a4 04bd
00000270: 740c 4d3d 573b e8bb f684 66bd e066 39bd
00000280: b6e4 bd3d 23ed 193c ef11 593d 149c 97bd
00000290: 8468 34bc 168e 12bd 6c13 683d 1e43 af3d
000002a0: 5edf 5abd d787 893d 8fa2 c03c 1fee aa3d
000002b0: 6d5f 55bd e83c 023c b605 a1bd 6b6f 343d
000002c0: 5915 a3bd 57b8 2e3d 19b9 af3d 4622 1cbd
000002d0: a6d9 ef3c ee9a 983d f7fd 723d a95d c1bc
000002e0: 0ac9 923d 9467 a33d 8f59 a8bb 9f91 1b3d
000002f0: 7dd3 2f3c 67c5 9cbd b42e c2bd 67ec 883d
00000300: 9bcf 8ebd c2e6 24ba ae35 57bd caed d23c
00000310: eaff 543c 8fd1 b8bd e79f aebd c694 afbd
00000320: 765d 94bd 32ba 7dbc 1a64 d7bc 2d35 62bd
00000330: 1538 f03c ff11 79bc f44c 99bd 62d4 f4bb
00000340: 8e60 cabd 2f9f 9abd ec31 61bd bb2b 903d
00000350: b721 6cbd 8142 91bc 6d1e 493c e377 8cbd
00000360: f749 06bd 1015 0f3d 91e3 94bd 0769 4dbd
00000370: d018 8b3d d02a 2c3d f0c1 a3bd f85f 0ebc
00000380: 8467 ed3c 350d 32bd 387e 6bbd f0fa e33c
00000390: faff d23d e38a 20bd c2c6 8d3d 57e6 b3bd
000003a0: 9bda 9ebc a792 78bd d3af 9c3d f28c b03d
000003b0: 864d 133c a92b f53c 2582 4fbd df25 3d3d
000003c0: 531b 59bd 7f0d 983d 971d 77bd 8dc4 81bd
000003d0: 495a b83c d6f9 093c 5713 603d b63b d03c
000003e0: f579 843d f83b 94bd c2d3 5dbc 02ee 4d3d
000003f0: a424 7b3d a11d af3b ebee acbd 66ea 843d

weight f4 [128, 21]
0.13813207 0.072218336 0.03309549 0.08499525 -0.1071822 0.071071 0.059429318 -0.13866563
-0.18999566 -0.11008643 -0.15308952 -0.09121875 -0.21250789 0.084741905 0.10923298 -0.031907372
-0.030392 -0.1878713 -0.10996532 -0.10079706 -0.20103459 -0.21529356 -0.031233724 -0.08397463
0.039306212 -0.0014025753 0.13541603 -0.07178323 0.20100032 -0.17776904 -0.04074328 0.090773806
-0.1270262 -0.106265895 0.14598042 -0.19783962 0.055636484 0.18343441 -0.19527921 0.10414251
0.12267174 0.019354144 0.10168922 -0.15109427 0.1439018 -0.035156626 0.18484919 0.09307523
0.101996906 0.18473467 -0.18778898 0.14707449 -0.00015355829 -0.18202959 -0.039995495 -0.12480311
0.11606363 -0.13528948 0.0105562145 0.07304039 -0.012971526 -0.11260658 -0.1972105 -0.059818663
-0.021591365 0.16162242 0.11240071 -0.18853919 0.08881501 0.09689587 -0.049040604 0.16499345
-0.21596007 0.1027057 0.063712955 0.17335382 0.08364887 0.037050415 0.0655221 0.15471078
-0.13100213 0.07103763 0.15378463 -0.07417546 0.006300754 -0.13372557 -0.057143737 0.17162453
-0.049719326 0.05805411 0.025514737 -0.19468963 0.099506706 0.108397655 0.12029727 0.07854193
-0.088836625 0.20512122 -0.11834026 -0.21004091 -0.083187565 0.054055844 0.17943677 0.07972606
-0.12960202 -0.013203671 -0.16297661 0.059367303 0.039983295 -0.07144552 0.21465817 -0.05947721
-0.1747966 -0.11630192 -0.041113663 -0.11295428 0.116914846 -0.15680416 -0.117405415 0.14473249
-0.14448968 -0.21185517 0.15770544 -0.12554228 -0.20760736 0.1573062 0.12005391 -0.12091147
0.16794747 0.15086262 -0.14225805 -0.017597655 -0.20339774 -0.06837316 0.09441774 -0.14435583
0.13396375 -0.032243155 -0.10562346 0.16928387 -0.08723299 -0.20645507 -0.06789799 -0.13065732
-0.21388696 -0.21504952 -0.054625593 0.07141881 0.035148587 0.20463143 0.03232463 0.14080147
-0.011489947 -0.08389724 -0.03339704 -0.19622248 -0.10907279 0.03423715 0.10801141 -0.12846215
-0.19683924 -0.1490746 0.010111772 -0.013537711 -0.16372411 0.0948647 -0.103537485 0.06917461
-0.09678399 -0.14442489 0.16448142 -0.08919447 0.08642636 0.038117494 -0.01972437 -0.18001378
0.19392926 0.12984161 -0.044902205 -0.09170413 -0.1330169 -0.060935687 0.09343185 -0.21585032
0.15458342 -0.20484851 0.10772773 0.09183769 0.14106125 0.059144236 -0.04359458 0.13629137
0.12706986 0.012765212 -0.17642619 0.17876016 0.08322211 0.1363286 -0.017252037 0.1174089
0.084418505 0.046384253 0.011824664 0.07855951 0.11253179 -0.022276564 -0.024156645 0.04428334
0.2049271 -0.025229108 -0.13702378 0.14290215 0.18930417 0.19841683 -0.17766769 -0.0055138688
0.1675332 -0.12713192 -0.076356865 -0.18045567 -0.11645233 -0.18571477 0.13523524 -0.14230719
-0.14105995 0.01842473 0.06178511 0.10977034 -0.0057546506 -0.17383805 -0.17809658 0.20281467
-0.106765404 -0.03303095 -0.06530816 0.0910911 0.067172006 -0.10194922 -0.12857921 -0.026902745
0.114840575 -0.044688635 0.14473389 0.0070569175 -0.09207607 0.056219395 0.07208228 -0.12188277
-0.010892779 0.10697133 -0.06744572 0.055594236 0.020892147 -0.14977469 0.119107924 0.038230054
00000000: 7e72 0d3e 35e7 933d 238f 073d fd11 ae3d
00000010: 5782 dbbd ac8d 913d 286c 733d 5dfe 0dbe
00000020: 398e 42be ff74 e1bd 80c3 1cbe e5d0 babd
00000030: ab9b 59be 2a8d ad3d 8ab5 df3d 4eb1 02bd
00000040: a5f8 f8bc 5661 40be 7f35 e1bd b06e cebd
00000050: 03dc 4dbe ea75 5cbe dedd ffbc e4fa abbd
00000060: 8dff 203d 9ed6 b7ba 80aa 0a3e 1603 93bd
00000070: 07d3 4d3e 1609 36be 6de2 26bd 9ee7 b93d
00000080: 2813 02be efa1 d9bd e47b 153e 7896 4abe
00000090: 15e3 633d 3bd6 3b3e 46f7 47be ab48 d53d
000000a0: 523b fb3d 958c 9e3c 7042 d03d 75b8 1abe
000000b0: fe5a 133e 6500 10bd 1b49 3d3e 3a9e be3d
000000c0: c1e3 d03d 162b 3d3e c14b 40be b29a 163e
000000d0: 7d04 21b9 f765 3abe 51d2 23bd c698 ffbd
000000e0: c5b2 ed3d 5389 0abe f9f3 2c3c 3396 953d
000000f0: 8686 54bc 479e e6bd 8df1 49be 6a04 75bd
00000100: 60e0 b0bc 5980 253e 5832 e63d 6b10 41be
00000110: a5e4 b53d 5871 c63d cdde 48bd 0bf4 283e
00000120: a324 5dbe 5e57 d23d f07b 823d aa83 313e
00000130: 1950 ab3d 2dc2 173d 7330 863d 816c 1e3e
00000140: 6c25 06be 2d7c 913d b879 1d3e 4ee9 97bd
00000150: 8e76 ce3b 5bef 08be 8d0f 6abd 57be 2f3e
00000160: 7ea6 4bbd 25ca 6d3d 4804 d13c b85c 47be
00000170: 2cca cb3d 97ff dd3d 6a5e f63d 97da a03d
00000180: faef b5bd 4c0b 523e 615c f2bd f714 57be
00000190: 3e5e aabd a969 5d3d 46be 373e 6b47 a33d
000001a0: 64b6 04be 3654 58bc 57e3 26be 212b 733d
000001b0: 86c5 233d 0752 92bd 5acf 5b3e 609e 73bd
000001c0: e1fd 32be b32f eebd cd66 28bd 9354 e7bd
000001d0: 0d71 ef3d 4591 20be 4072 f0bd c134 143e
000001e0: 1af5 13be 90f0 58be 897d 213e 288e 00be
000001f0: 0697 54be e014 213e d3de f53d 6fa0 f7bd
00000200: 6cfa 2b3e bb7b 1a3e 18ac 11be f528 90bc
00000210: 7f47 50be 3a07 8cbd 175e c13d 04d2 13be
00000220: cb2d 093e 6611 04bd 1d51 d8bd c058 2d3e
00000230: 36a7 b2bd f568 53be 1a0e 8bbd 08cb 05be
00000240: 2f05 5bbe f135 5cbe 16bf 5fbd 0644 923d
00000250: f7f7 0f3d e78a 513e d566 043d 432e 103e
00000260: 5540 3cbc 51d2 abbd 56cb 08bd 8cee 48be
00000270: 8e61 dfbd 413c 0c3d 1635 dd3d 958b 03be
00000280: 3a90 49be 03a7 18be d9ab 253c 47cd 5dbc
00000290: 4ba7 27be 6d48 c23d 760b d4bd 6bab 8d3d
000002a0: af36 c6bd 1ee4 13be d16d 283e 97ab b6bd
000002b0: 4e00 b13d 1721 1c3d 0195 a1bc 8855 38be
000002c0: 6495 463e 33f5 043e 60eb 37bd 60cf bbbd
000002d0: 9535 08be b397 79bd 3359 bf3d de07 5dbe
000002e0: 1e4b 1e3e cfc3 51be 5ba0 dc3d 6615 bc3d
000002f0: 5c72 103e 3a41 723d 3b90 32bd f78f 0b3e
00000300: 9a1e 023e 2e25 513c 11a9 34be e70c 373e
00000310: 5b70 aa3d b999 0b3e 2554 8dbc 1474 f03d
00000320: 9ce3 ac3d 6afd 3d3d 3cbc 413c cfe3 a03d
00000330: 1177 e63d 577d b6bc 28e4 c5bc 7362 353d
00000340: 69d8 513e 46ad cebc f64f 0cbe f154 123e
00000350: f4d8 413e c82d 4b3e 85ee 35be afad b4bb
00000360: d38d 2b3e df2e 02be fd60 9cbd 5fc9 38be
00000370: 8f7e eebd 032c 3ebe 1b7b 0a3e fab8 11be
00000380: 0572 10be 76ef 963c 6212 7d3d 46cf e03d
00000390: 8291 bcbb 9a02 32be f35e 36be a6ae 4f3e
000003a0: d2a7 dabd 764b 07bd 49c0 85bd f88d ba3d
000003b0: 7a91 893d c1ca d0bd 45aa 03be 2563 dcbc
000003c0: 8931 eb3d 6e0b 37bd 1f35 143e b73d e73b
000003d0: 6192 bcbd 4f46 663d e09f 933d ac9d f9bd
000003e0: a077 32bc c913 db3d fb20 8abd c8b6 633d
000003f0: 0226 ab3c 895e 19be dbee f33d 1e97 1c3d
