data/results/GAT/balanced/1/all_emo/629/full_model.pth (torch, 31215 bytes, 6 tensors)

att_src f4 [1, 13, 13]
0	0x3c823f53	0.015899336
1	0x3e90a932	0.28254086
2	0x3e98b85a	0.2982815
3	0xbe94afd8	-0.29040408
4	0x3ede7918	0.43451762
5	0x3e87184b	0.26385722
6	0xbdd411bd	-0.10354946
7	0x3ed2b7d5	0.41155878
8	0x3c074004	0.008255009
9	0x3ea505fd	0.3223113
10	0xbecca210	-0.39967394
11	0x3ee41481	0.44546893
12	0x3edf1021	0.43566993
13	0xbea36d8f	-0.31919524
14	0xbecba1f7	-0.39772007
15	0xbdf28643	-0.11842015
16	0xbe8b0860	-0.27154827
17	0x3dc84993	0.09779658
18	0x3e7b126e	0.24518749
19	0xbd9cd4d8	-0.07657784
20	0x3e995e60	0.29954815
21	0xbb45621a	-0.0030118288
22	0xbe1094f7	-0.14119326
23	0xbee419a8	-0.44550824
24	0x3df6b8ef	0.12046992
25	0xbeedede5	-0.46470562
26	0xbbf77fb7	-0.0075530666
27	0x3dc39783	0.09550383
28	0xbe87e241	-0.26539806
29	0x3e268b7c	0.16264147
30	0x3d99a0ef	0.07501399
31	0x3ea4dc19	0.3219917
32	0x3e9c7586	0.30558413
33	0xbecbe51e	-0.3982324
34	0xbea711dd	-0.32630816
35	0xbe35d574	-0.17757207
36	0xbeaf2cdf	-0.3421392
37	0x3e20b008	0.1569215
38	0xbe9ed98f	-0.3102536
39	0xbeb4e458	-0.35330462
40	0x3e1f125a	0.15534344
41	0x3e95b03c	0.2923602
42	0xbe1a5552	-0.1507161
43	0xbeed9f04	-0.46410382
44	0x3db24b64	0.08705786
45	0x3e6bbcb5	0.23021205
46	0x3eb95a0b	0.3620151
47	0x3d885a1b	0.06657811
48	0x3eb52a06	0.35383624
49	0xbed418c4	-0.41425145
50	0x3ee93d5f	0.45554635
51	0xbeaa5cc0	-0.33273888
52	0xbeb26d91	-0.34849218
53	0x3eaf7142	0.34266096
54	0xbdb0c3d8	-0.08631104
55	0x3e927e30	0.28611898
56	0xbea614ef	-0.32437846
57	0x3eb45811	0.3522344
58	0x3ee5977f	0.44842145
59	0x3e0d1786	0.13778505
60	0x3ec72343	0.3889409
61	0xbeafbcc0	-0.34323692
62	0xbddbd600	-0.10734177
63	0x3e164072	0.14673021
64	0x3e8fa4be	0.28055376
65	0xbe7b6d1a	-0.24553338
66	0x3e9e4a49	0.3091605
67	0xbe3c73ca	-0.18403545
68	0xbe8dca44	-0.2769338
69	0x3d9ef156	0.07760875
70	0xbec4f966	-0.38471526
71	0xbebb921f	-0.3663492
72	0x3e381f5a	0.1798071
73	0x3e274559	0.16335048
74	0x3e3b53a9	0.18293633
75	0xbdb04581	-0.08607007
76	0xbeafde7f	-0.3434944
77	0xbecaa955	-0.39582315
78	0x3edd22c2	0.4319058
79	0xbee3e80a	-0.4451297
80	0x3e3c1329	0.18366684
81	0x3eba916c	0.36439073
82	0x3eb9883f	0.3623676
83	0xbe8dc6c1	-0.276907
84	0xbe0a264e	-0.13491175
85	0xbed1a79e	-0.40948194
86	0x3eab46c8	0.3345244
87	0xbef4e1b1	-0.4782844
88	0xbed19e02	-0.40940863
89	0xbea87806	-0.3290407
90	0x3ebeb8d7	0.37250397
91	0x3ea07bab	0.3134435
92	0x3eae33f5	0.34024015
93	0x3eb65913	0.35614833
94	0xbe594594	-0.21217948
95	0xbe96fd7c	-0.29490268
96	0xbe97b3b7	-0.296293
97	0x3e2fe4b9	0.17177095
98	0x3e1eb9af	0.1550052
99	0x3df8dde9	0.12151701
100	0xbebb4753	-0.36577854
101	0x3d32b8eb	0.043633383
102	0xbe599ff1	-0.21252419
103	0xbda7ff18	-0.08202952
104	0xbdc191c5	-0.094516315
105	0x3cdfa9b7	0.027302606
106	0xbee1cf45	-0.44103447
107	0x3ec4814c	0.38379896
108	0xbe51d147	-0.20489989
109	0x3e1e486b	0.15457313
110	0x3e9fc215	0.3120276
111	0x3e44efd5	0.19232114
112	0x3eb00a29	0.34382752
113	0x3e83384a	0.25628883
114	0x3ea2733d	0.31728545
115	0x3de08072	0.10961999
116	0x3e91f99a	0.28510743
117	0xbe57d1d0	-0.21076131
118	0xbe800e3c	-0.2501086
119	0x3e6c20a0	0.2305932
120	0x3decd0fc	0.11563298
121	0xbc0b796d	-0.008512837
122	0xbed9f504	-0.42569745
123	0x3e2debcf	0.16984485
124	0x3e8ba437	0.27273723
125	0xbd5900d2	-0.052979298
126	0x3dbc8642	0.09205295
127	0x3e4c7323	0.19965796
128	0xbeeb2f24	-0.45934403
129	0xbdc9f6e0	-0.09861541
130	0xbe3b071f	-0.18264435
131	0xbe6b83d3	-0.22999506
132	0x3e8c66d4	0.27422202
133	0x3effc989	0.49958447
134	0x3d853ff9	0.065063424
135	0x3ea19724	0.31560624
136	0xbeaf1dbd	-0.34202376
137	0x3d971894	0.07377735
138	0xbdb0ee8f	-0.086392514
139	0xbe932f30	-0.2874694
140	0x3db43931	0.08799971
141	0x3e1645d8	0.14675081
142	0xbd14cf26	-0.036330365
143	0x3e520ef2	0.20513514
144	0x3e6b1baf	0.22959779
145	0x3ee67a98	0.45015407
146	0x3cae0732	0.021243665
147	0x3ca14904	0.019688137
148	0x3c2eab0d	0.010660899
149	0x3d9abb7e	0.075552925
150	0xbea020a4	-0.31274903
151	0xbd69300e	-0.056930594
152	0xbecb92b0	-0.3976035
153	0xbea8089d	-0.3281907
154	0xbec4a396	-0.38406056
155	0x3e9601c4	0.29298222
156	0xbe89b44b	-0.26895365
157	0xbd08460b	-0.033269923
158	0x3d4e307c	0.050339207
159	0x3ec456e0	0.3834753
160	0x3e4997d3	0.19686823
161	0xbeb3e552	-0.35135895
162	0x3eead6ba	0.45866948
163	0xbedcbf05	-0.43114486
164	0x3d54d6d7	0.0519627
165	0x3ee75255	0.45180002
166	0x3edaa338	0.4270265
167	0xbe0b5657	-0.13607155
168	0xbeac8792	-0.33697182

att_dst f4 [1, 13, 13]
0	0x3e6ef969	0.2333733
1	0x3ed7cc4a	0.42148048
2	0xbe6dba22	-0.23215535
3	0xbdf34496	-0.11878316
4	0xbe97c903	-0.29645547
5	0x3e2587cc	0.16165084
6	0x3e24d312	0.16096142
7	0x3e8d6dc8	0.2762282
8	0xbe4aa299	-0.19788589
9	0xbeed35b9	-0.4633005
10	0xbe79ccd3	-0.2439454
11	0xbe9e09b0	-0.30866766
12	0xbe0a77db	-0.13522284
13	0x3d9be156	0.07611339
14	0xbef2a8dd	-0.47394457
15	0xbdb15fc0	-0.08660841
16	0xbf04416a	-0.51662314
17	0xbe9eb88b	-0.3100017
18	0xbee13dad	-0.43992367
19	0xbdaedf92	-0.085387364
20	0xbeb6bea2	-0.35692316
21	0x3e31b50b	0.17354219
22	0x3ed69d60	0.41916943
23	0x3ef5907a	0.4796179
24	0x3e4a3deb	0.19750182
25	0x3e0dccee	0.13847706
26	0xbe017514	-0.12642318
27	0x3e87df48	0.26537538
28	0xbeb274ea	-0.34854823
29	0x3e935dd4	0.28782523
30	0xbee6c1a3	-0.45069608
31	0xbecc54b6	-0.3990838
32	0x3e26d3b8	0.16291702
33	0xbe3d0416	-0.1845859
34	0x3dc5acaa	0.09652074
35	0x3eb5b251	0.35487607
36	0x3e1d6dea	0.1537396
37	0x3f023d68	0.5087495
38	0xbe7f073c	-0.24905103
39	0xbeb4eb4d	-0.3533577
40	0x3d2c2aaa	0.042032875
41	0xbd71637c	-0.058932766
42	0xbea574af	-0.32315585
43	0xbde39473	-0.11112299
44	0x3f070456	0.5274099
45	0xbe7b4ebe	-0.24541757
46	0x3e3c186a	0.18368688
47	0x3eaa6a06	0.33284014
48	0x3ec39faf	0.38207766
49	0x3e578929	0.21048416
50	0xbddc133b	-0.107458554
51	0x3e145c18	0.14488256
52	0xbebba84b	-0.36651835
53	0xbe2f9c82	-0.17149547
54	0x3f139074	0.5764229
55	0x3ecbfd70	0.39841795
56	0xbf01647c	-0.5054395
57	0x3ee40804	0.44537365
58	0x3d9ebfdf	0.0775144
59	0x3e9dc1c6	0.308119
60	0x3f21bf96	0.6318296
61	0x3d7e352e	0.062062435
62	0xbe5eaf0f	-0.21746467
63	0x3edf5a63	0.43623647
64	0x3cd422c6	0.025895488
65	0xbe0dc702	-0.13845447
66	0xbe2af704	-0.16695791
67	0x3f055725	0.52086097
68	0x3e8a481a	0.27008134
69	0xbdbd1d33	-0.09234085
70	0x3c9efdb2	0.01940808
71	0x3b169e11	0.0022982399
72	0xbea5de90	-0.32396364
73	0x3ddd9028	0.10818511
74	0xbecd3816	-0.40081853
75	0xbbd8bc85	-0.00661427
76	0xbdf5351b	-0.1197302
77	0xbe3619e5	-0.17783315
78	0x3ecb0bee	0.3965754
79	0x3d54a3dd	0.051914085
80	0x3e686533	0.22694854
81	0xbecdd692	-0.40202767
82	0x3e13b42a	0.14424196
83	0x3e4a8d0e	0.1978037
84	0x3ea4d6f2	0.3219524
85	0xbe661e6c	-0.22472543
86	0xbcc41ef6	-0.023940545
87	0xbef539e8	-0.4789574
88	0x3ea98536	0.33109444
89	0x3e799d95	0.24376519
90	0x3e9a7499	0.30167082
91	0x3e8baf74	0.27282298
92	0x3ea77f29	0.32714203
93	0x3eda6a6c	0.42659318
94	0x3e58c389	0.2116834
95	0x3e66d77b	0.22543137
96	0x3e4879df	0.1957774
97	0xbe8dc138	-0.27686477
98	0x3e16e77f	0.14736746
99	0x3e103e98	0.14086378
100	0xbec71320	-0.3888178
101	0xbe4f279a	-0.2022995
102	0xbe9f885c	-0.3115872
103	0xbeb3f6de	-0.35149282
104	0x3eec0e1a	0.4610451
105	0x3f0858bf	0.53260416
106	0xbe561d14	-0.2090953
107	0x3e6589d9	0.22415866
108	0xbe82492f	-0.2544646
109	0x3e8941c9	0.26808003
110	0x3d5101e1	0.051027182
111	0xbec6c167	-0.3881943
112	0xbe0b0e4c	-0.13579673
113	0x3f11e382	0.56987774
114	0x3e1ebcbc	0.15501684
115	0xbecbd71a	-0.39812547
116	0x3e41b261	0.18915702
117	0xbf23bf32	-0.63963616
118	0x3d4dfa75	0.050287683
119	0x3ed68940	0.41901588
120	0x3dec37bf	0.1153407
121	0x3e210f3c	0.15728468
122	0xbf083e4d	-0.53220063
123	0xbdf1aee5	-0.118009366
124	0x3eb0cb2e	0.34530014
125	0xbee164aa	-0.44022113
126	0xbe26c2c6	-0.16285238
127	0x3ee5012f	0.44727466
128	0x3e7517c2	0.23934844
129	0x3e0753bb	0.13215534
130	0xbf038066	-0.51367795
131	0x3ea35e7c	0.31908023
132	0xbd15971b	-0.03652106
133	0x3d0678d5	0.03283008
134	0x3ec48eb2	0.38390118
135	0xbeebee86	-0.46080416
136	0x3e591241	0.2119837
137	0xbef13415	-0.47110048
138	0x3ec8aa29	0.39192322
139	0x3dd98622	0.10621287
140	0x3da3ebad	0.08003936
141	0xbe2b2fa3	-0.1671739
142	0x3e7b6e1f	0.24553727
143	0xbed4a836	-0.41534585
144	0xbd4ce649	-0.050024305
145	0x3f12d8e7	0.57362217
146	0xbea8b38d	-0.32949486
147	0xbc990357	-0.01867835
148	0x3e254b07	0.16141902
149	0x3e5c79e5	0.21530874
150	0xbe25341e	-0.16133162
151	0x3f0408f2	0.5157615
152	0xbe892a83	-0.26790246
153	0x3dfbe59e	0.122996554
154	0x3ecd6d52	0.40122467
155	0xbe2860db	-0.16443197
156	0x3eee1a7c	0.4650458
157	0x3ee409dd	0.44538775
158	0x3e79a05b	0.24377577
159	0xbe11d4eb	-0.14241378
160	0x3f04c417	0.5186171
161	0xbecd607e	-0.4011268
162	0x3d3810cd	0.044937897
163	0x3d8b2986	0.06795029
164	0x3f004548	0.50105715
165	0xbee3f230	-0.44520712
166	0x3d1b5fdf	0.037933227
167	0xbe41dc47	-0.18931685
168	0x3e722b41	0.23649313

bias f4 [13]
0	0x3a33b68b	0.0006855509
1	0xbc371f8e	-0.011176957
2	0x3b807bb9	0.003920999
3	0xbd14e744	-0.036353365
4	0xbcea66c3	-0.028613454
5	0x3c758865	0.014986132
6	0x3c55cf72	0.013049947
7	0xbce0dbf8	-0.02744864
8	0x3b7d6544	0.0038665095
9	0xbc1805f6	-0.009278765
10	0xbd1c3d18	-0.0381442
11	0xbc1c79e6	-0.009550547
12	0xbcbe7982	-0.023251299

weight f4 [169, 11]
0	0x3e012a24	0.12613732
1	0x3db28248	0.087162554
2	0xbe104e24	-0.14092308
3	0x3d58b6ee	0.05290883
4	0x3dc8252e	0.097727165
5	0xbe373526	-0.17891368
6	0x3e0ded9f	0.13860177
7	0x3c2933b1	0.010327266
8	0xbc45db6d	-0.012076241
9	0x3e04ecd6	0.1298097
10	0x3de353db	0.110999785
11	0x3d4ed1b2	0.05049295
12	0x3e10ac48	0.1412822
13	0x3d5fc1f5	0.05462833
14	0x3c0c1d8b	0.0085519655
15	0xbe1ed08c	-0.15509242
16	0x3d1f03cf	0.03882199
17	0xbe0c1f3f	-0.13683794
18	0x3d38d1c3	0.04512192
19	0x3b5f0ae2	0.0034033586
20	0x3bf956b5	0.0076092132
21	0xbdaf13a9	-0.08548672
22	0xbe059894	-0.13046485
23	0x3e1b0737	0.15139471
24	0x3d94a8b9	0.07258744
25	0x3d6d9e51	0.05801231
26	0xbdc09390	-0.09403145
27	0xbd862ba3	-0.06551292
28	0xbdad2dc5	-0.084559955
29	0x3da984fd	0.082773186
30	0xbde1f0f2	-0.11032285
31	0x3dc476c4	0.09592965
32	0x3e060525	0.130879
33	0xbe1e6e80	-0.1547184
34	0xbcc415db	-0.023936203
35	0xbd344076	-0.044006787
36	0xbdcc0132	-0.099611655
37	0x3dbf5fd2	0.09344448
38	0xbcb79684	-0.022410639
39	0x3e25cf22	0.16192296
40	0xbdcb62a3	-0.09930923
41	0x3de1d890	0.11027634
42	0xbe11daeb	-0.14243667
43	0xbd6db815	-0.058036882
44	0x3c52900e	0.012851728
45	0x3e1ead32	0.15495756
46	0x3db4ff0e	0.0883771
47	0xbe2ac081	-0.16674997
48	0xbaea0181	-0.0017853231
49	0xbd9f4359	-0.077765174
50	0x3d62a069	0.05532876
51	0xbdd6c128	-0.104860604
52	0xbca6d767	-0.020366384
53	0x3e1bcd64	0.15215069
54	0xbdf25c58	-0.118340194
55	0xbe21e8a1	-0.15811397
56	0x3d741c2d	0.059597183
57	0x3d0909dc	0.03345667
58	0xbd27de72	-0.040983625
59	0x3e074def	0.13213323
60	0xbdb41c40	-0.08794451
61	0xbdc77736	-0.097395346
62	0xbdfe91f2	-0.124301806
63	0xbd5424c1	-0.051792864
64	0xbd7c9d04	-0.06167318
65	0x3da1c479	0.07898802
66	0x3cb43508	0.021997944
67	0x3d69232b	0.056918304
68	0xbd97ff2e	-0.074217185
69	0x3e06939a	0.13142243
70	0x3e2824b1	0.16420247
71	0xbdd820a8	-0.10553104
72	0x3cecdd0b	0.028913995
73	0xbd820bec	-0.0634993
74	0x3dfd3805	0.123642005
75	0xbdf253d6	-0.11832397
76	0xbd810721	-0.06300188
77	0x3e238d1a	0.15971795
78	0xbe20ede4	-0.15715748
79	0x3e02c2af	0.12769578
80	0x3c04dff6	0.008110037
81	0x3e084930	0.13309169
82	0xbd948091	-0.072510846
83	0x3e161c2a	0.14659181
84	0x3d7ed466	0.062214278
85	0x3d1f0444	0.038822427
86	0x3e171ca2	0.14757016
87	0xbdefb0ed	-0.11703668
88	0xbdd99b3b	-0.10625311
89	0x3e30d239	0.17267694
90	0xbdaa9ede	-0.08331083
91	0xbdd2b0a5	-0.102875985
92	0x3c89ff7a	0.016845454
93	0xbbb20780	-0.005433023
94	0x3cbc5a4f	0.022992281
95	0xbd57b4ef	-0.052662786
96	0x3dc9798d	0.09837637
97	0xbdf689f6	-0.12038033
98	0x3be67c90	0.007033892
99	0x3db2c60d	0.087291814
100	0x3d7eec36	0.062236987
101	0x3d26a477	0.04068419
102	0x3d3b7a8d	0.04577117
103	0xbd958d5d	-0.073023535
104	0xbd02a11a	-0.03189192
105	0xbd33b74a	-0.04387597
106	0xbda260aa	-0.079285935
107	0xbd06af10	-0.032881796
108	0x3e5be39c	0.21473545
109	0x3ca9709d	0.020683581
110	0x3c9b801e	0.01898199
111	0x3d906247	0.07049995
112	0xbd9a289d	-0.075272776
113	0xbe00a009	-0.12561049
114	0xbde292c8	-0.110631526
115	0xbd7c0a93	-0.06153352
116	0x3d6ab21c	0.057298765
117	0xbe2f317f	-0.17108725
118	0xbd233a38	-0.039850444
119	0x3d40af2b	0.047042053
120	0x3df213e0	0.11820197
121	0x3cd68e6b	0.026190957
122	0x3d65e0ab	0.056122463
123	0x3e047926	0.1293684
124	0x3db7c24c	0.08972606
125	0x3d63ff28	0.055663258
126	0xbd5c7e92	-0.053831644
127	0xbe13c394	-0.14430076
128	0xbd18ae5f	-0.03727567
129	0xbd2eb725	-0.04265513
130	0x3cdf6bac	0.027273022
131	0x3c2342a0	0.009964615
132	0x3d98448b	0.074349485
133	0x3e0a55f8	0.13509357
134	0xbd20db07	-0.03927138
135	0xbdf948d5	-0.12172095
136	0xbd9398cc	-0.07206878
137	0xbd9cd7af	-0.07658326
138	0x3df3d3ec	0.11905655
139	0xbdb44942	-0.08803035
140	0x3ba542e0	0.0050433725
141	0xbbe825f7	-0.007084604
142	0xbd7d71c8	-0.06187609
143	0x3db2fddb	0.08739825
144	0xbd58dde3	-0.052945983
145	0x3cf4199b	0.029797366
146	0xbdb47764	-0.088118345
147	0xbbaceb4c	-0.005277073
148	0x3cd7f522	0.026362006
149	0xbbede253	-0.007259646
150	0xbd89bef1	-0.06725872
151	0x3d4971e1	0.04918087
152	0xbcca6780	-0.024707556
153	0xbda03a3f	-0.078236096
154	0xbe1cc440	-0.15309238
155	0xbd4852b4	-0.048906997
156	0xbe0e5a17	-0.13901554
157	0x3e2d0936	0.16898045
158	0xbd8ef45c	-0.069802016
159	0xbd967c63	-0.07347944
160	0xbb02a1c2	-0.001993284
161	0x3d1fa9da	0.038980342
162	0xbd235693	-0.039877485
163	0x3e0104b5	0.12599452
164	0xbdca5d4d	-0.09881077
165	0x3d95dd42	0.07317592
166	0x3d235416	0.039875112
167	0xbd985b31	-0.074392684
168	0xbd3da479	-0.04629943
169	0x3d30e73f	0.043189283
170	0x3c8e0e5c	0.017340831
171	0x3de95d6f	0.11394774
172	0x3dce86ac	0.1008428
173	0xbdd947ca	-0.10609396
174	0xbda67788	-0.081282675
175	0xbd3d1c52	-0.046169586
176	0xbde16a23	-0.11006572
177	0xbd299d3e	-0.041409723
178	0xbdff4985	-0.124651946
179	0x3d87ad2b	0.06624826
180	0x3def491e	0.11683868
181	0x3d641cef	0.055691656
182	0xbdd6b09a	-0.10482903
183	0xbda11bc1	-0.07866622
184	0xbd0c684e	-0.03427916
185	0x3da69d66	0.0813549
186	0x3d285133	0.041093063
187	0xbd25cf53	-0.040480923
188	0x3e0f66fc	0.14004129
189	0x3c368e69	0.011142352
190	0xbc89e83d	-0.016834373
191	0xbd0d6889	-0.03452352
192	0x3d24a23a	0.040193774
193	0x3d826967	0.0636776
194	0xbe15eb4b	-0.14640538
195	0xbda6edb9	-0.08150811
196	0x3c695119	0.014240527
197	0x3db57937	0.088610105
198	0x3db529c2	0.08845855
199	0xbdd9ac35	-0.10628549
200	0xbe598a02	-0.21244052
201	0xbcc7182c	-0.024303518
202	0xbc56d2ab	-0.013111751
203	0x3b98d427	0.0046639624
204	0xbd94b250	-0.07260573
205	0x3dc91bf5	0.098197855
206	0xbcad080e	-0.021122005
207	0x3dfac042	0.122437015
208	0xbe0f08cb	-0.13968198
209	0x3daa1884	0.08305457
210	0x3c582e70	0.013194665
211	0xbdf2f2ed	-0.11862741
212	0x3d4e9ca9	0.05044237
213	0xbe1c3936	-0.15256199
214	0x3e169681	0.1470585
215	0x3cfde1c5	0.030991444
216	0x3d2d6523	0.04233278
217	0x3d9a9521	0.07547975
218	0x3c1b7815	0.009489079
219	0x3daa204d	0.08306942
220	0x3d7aa289	0.06119016
221	0xbe1c2837	-0.15249716
222	0x3d8cf770	0.068831325
223	0xbd58e2e9	-0.052950773
224	0xbd587f64	-0.052855864
225	0xbc442605	-0.011971955
226	0x3ddbed6e	0.107386455
227	0xbdf738e1	-0.12071396
228	0xbdd96351	-0.10614646
229	0x3e040c33	0.12895279
230	0xbd946389	-0.07245547
231	0x3dd90f3a	0.10598607
232	0xbd590fc6	-0.05299356
233	0x3cefb6ff	0.029262064
234	0x3de6e398	0.11273879
235	0xbd4cfe77	-0.050047364
236	0xbd54be5c	-0.051939353
237	0x3e07c36a	0.13258138
238	0x3d439fc9	0.047759805
239	0xbc898a2e	-0.016789522
240	0xbe1fb73b	-0.1559724
241	0x3e31d97c	0.1736812
242	0xbd42e8c3	-0.04758526
243	0xbb271e9e	-0.0025500427
244	0xbd80c1bf	-0.06286954
245	0xbca2f474	-0.019891955
246	0x3d862744	0.06550458
247	0x3c677227	0.014126337
248	0x3e3b305c	0.18280166
249	0x3cafac13	0.021444356
250	0x3d285b96	0.04110297
251	0x3e07e15d	0.13269563
252	0x3c04a8f5	0.008096923
253	0xbd6033ca	-0.05473689
254	0x3d13e8b3	0.03611059
255	0x3e2d6816	0.16934237

weight f4 [13, 13]
0	0x3e17f85f	0.1484084
1	0xbe354da7	-0.17705403
2	0xbd26c285	-0.040712852
3	0x3e0e30cc	0.13885802
4	0x3e02b2bd	0.12763496
5	0x3e287b75	0.16453345
6	0x3d2bdbc0	0.041957617
7	0x3c4fb4db	0.012677397
8	0x3d90205d	0.07037423
9	0xbe2ee6ff	-0.17080306
10	0x3e18ae75	0.149103
11	0xbdfff46c	-0.12497792
12	0x3e11e286	0.14246568
13	0x3e078ae8	0.13236582
14	0xbbf60ccf	-0.007508851
15	0x3e3a816c	0.18213433
16	0xbdddf218	-0.10837191
17	0x3e033c25	0.12815912
18	0x3da9f2b0	0.08298242
19	0xbcdfd7f0	-0.027324647
20	0x3c4816d2	0.012212472
21	0xbe0607bf	-0.13088892
22	0xbd9018cc	-0.0703598
23	0x3d14f641	0.03636766
24	0x3dad1acc	0.08452377
25	0xbdf8925e	-0.12137292
26	0x3d197f54	0.037474945
27	0xbdcb8d64	-0.099390775
28	0x3e0fec47	0.14054976
29	0xbe13440a	-0.14381424
30	0x3cab2206	0.020890247
31	0xbc5cda00	-0.01347971
32	0xbd4e4e8a	-0.05036787
33	0xbd9f3b31	-0.07774962
34	0xbe26d80f	-0.16293357
35	0x3d779473	0.060444307
36	0xbd87854f	-0.066172235
37	0x3d4e16a3	0.050314557
38	0xbd909dac	-0.070613235
39	0x3ceeae2e	0.02913579
40	0xbdc6f404	-0.09714511
41	0x3df659b7	0.120288305
42	0x3d9cf5a3	0.07664039
43	0x3e09c1ab	0.13452785
44	0xbd0a25df	-0.033727523
45	0x3dfd1457	0.12357395
46	0xbde2bd6e	-0.11071287
47	0x3dd6ace7	0.10482197
48	0xbdaae902	-0.08345224
49	0xbdcee9f2	-0.10103215
50	0xbe28ab93	-0.164717
51	0xbe4ab4b0	-0.1979549
52	0x3dac2b65	0.08406714
53	0xbe09fc1e	-0.13475081
54	0xbdebcea7	-0.11514025
55	0x3e8708ea	0.26373988
56	0xbd3a60ab	-0.045502346
57	0x3d860457	0.065437965
58	0xbdcbd912	-0.09953512
59	0x3dea3bef	0.11437213
60	0x3d3c71bc	0.046006903
61	0x3e2e5202	0.17023471
62	0x3da6a8f9	0.08137698
63	0xbdc2f8b4	-0.095200926
64	0x3e66c8bd	0.22537513
65	0x3c9fc1b6	0.019501548
66	0xbe117561	-0.14204933
67	0x3d9950a0	0.07486081
68	0xbce09204	-0.027413376
69	0xbe20dcb0	-0.15709186
70	0xbd18cb83	-0.03730346
71	0xbc843779	-0.016139733
72	0xbe26e6a0	-0.16298914
73	0xbcf3fff4	-0.029785134
74	0xbdf552a5	-0.11978654
75	0xbdace754	-0.0844256
76	0x3d43ec1f	0.047832604
77	0x3dd19291	0.102330334
78	0xbd178cbc	-0.03699945
79	0xbe3b5a43	-0.18296151
80	0xbd6ded35	-0.058087546
81	0xbcfcd280	-0.030862093
82	0xbd56179b	-0.052268606
83	0xbdd9a0de	-0.10626386
84	0x3dc5db78	0.09661001
85	0xbe102e1c	-0.1408009
86	0x3e1d3db2	0.15355566
87	0xbc77a847	-0.015115804
88	0xbda39343	-0.07987072
89	0xbda7e69b	-0.081982814
90	0x3cfdb700	0.03097105
91	0x3dd279cd	0.10277138
92	0xbddb0689	-0.10694606
93	0x3d578fd5	0.052627403
94	0x3da02640	0.078197956
95	0xbd88ce61	-0.06679989
96	0xbdc4d543	-0.09610989
97	0xbcb94100	-0.022614002
98	0xbd6fb698	-0.058523744
99	0xbd04695d	-0.032327045
100	0xbe02d425	-0.12776239
101	0xbe1c34e6	-0.15254554
102	0x3d8df5b1	0.069316275
103	0x3e0e3eff	0.13891219
104	0x3d8bce76	0.06826489
105	0xbd35769e	-0.044302575
106	0x3dcda72e	0.100416526
107	0xbdf23a2c	-0.11827502
108	0x3e08704e	0.13324091
109	0x3de4ff63	0.11181524
110	0x3e0959ec	0.13413209
111	0xbd433fea	-0.047668375
112	0x3e078f77	0.13238321
113	0xbe27bb37	-0.1638001
114	0xbcfdcf77	-0.030982716
115	0xbdab1f8a	-0.08355625
116	0xbe73b5f1	-0.23799874
117	0xbd30ddd1	-0.04318029
118	0xbe432fb1	-0.19061162
119	0x3b67f1e5	0.0035391983
120	0x3c999209	0.018746393
121	0x3de07102	0.109590545
122	0xbde18bde	-0.11013006
123	0x3e0de8db	0.13858359
124	0xbcf9b7bc	-0.03048312
125	0x3dcc3e02	0.099727646
126	0x3de02c31	0.10945929
127	0xbdf8c7d1	-0.12147487
128	0xbe1c5f53	-0.15270738
129	0x3d99e53b	0.07514425
130	0x3dfa0249	0.12207467
131	0xbdebb487	-0.11509042
132	0x3d820012	0.0634767
133	0xbe177504	-0.14790732
134	0x3e38db38	0.18052375
135	0x3dd25da0	0.10271764
136	0x3e1c94a3	0.15291075
137	0x3c92f984	0.017941244
138	0x3d0528fd	0.032509793
139	0x3d6c3cdb	0.057675224
140	0xbdae767c	-0.08518693
141	0x3c4e9bb8	0.012610368
142	0xbdf468bf	-0.11934041
143	0xbca38106	-0.019958984
144	0xbde1e668	-0.11030275
145	0x3dcc6739	0.09980626
146	0xbcd4aab6	-0.025960308
147	0xbd789262	-0.060686477
148	0x3cb4f739	0.022090541
149	0x3d985237	0.07437556
150	0xbda220c8	-0.07916409
151	0x3df3d494	0.119057804
152	0xbe18f141	-0.14935781
153	0xbd2b6264	-0.04184188
154	0xbe0bc561	-0.13649513
155	0xbe02c91c	-0.1277203
156	0x3bb6dc29	0.0055804444
157	0x3dd4066e	0.10352789
158	0x3e585e19	0.21129645
159	0xbb0a7fd9	-0.0021133332
160	0x3e22690b	0.15860383
161	0xbd3f704e	-0.04673796
162	0x3e05d031	0.130677
163	0x3d92351e	0.071390375
164	0xbdd04b66	-0.10170631
165	0xbe3800de	-0.17969081
166	0x3d27cd9f	0.04096758
167	0xbbc7cb89	-0.0060972613
168	0xbe3d760f	-0.18502067

bias f4 [13]
0	0xbeae43e4	-0.3403617
1	0x3d8f4209	0.06995017
2	0x3d09b959	0.033624027
3	0xbc7a0dad	-0.01526205
4	0xbec33e98	-0.38133693
5	0x3e8852f4	0.26625788
6	0xbe4753ec	-0.19465607
7	0x3dcaade6	0.0989645
8	0xbcb7724f	-0.022393374
9	0xbe104b8c	-0.14091319
10	0x3e40d84c	0.1883251
11	0xbcc12904	-0.023579128
12	0xbd9ffab2	-0.07811488
