data/results/GAT/724/full_model.pth (torch, 31215 bytes, 6 tensors)

att_src f4 [1, 13, 13]
000000 4d e1 99 bb 7e d9 92 3e 0f 3d 86 3e f3 7f 84 be
       -0.0046960474 0.28681558 0.2621846 -0.25878868
000010 6c bf e9 3e 6a 48 8d 3e f7 0a 9d bd 62 95 d6 3e
       0.45653856 0.2759431 -0.07668107 0.41910845
000020 27 3d c6 3c ab dd 9a 3e 43 35 d2 be 11 92 dd 3e
       0.024199082 0.30247244 -0.4105626 0.43275502
000030 78 b2 e6 3e bc e6 b3 be 4e 13 d8 be d3 12 0d be
       0.45058036 -0.35136974 -0.42202228 -0.13776712
000040 0b bd 93 be 5a 09 f5 3d d9 d7 60 3e 1e 00 89 bd
       -0.28855166 0.11964674 0.2195734 -0.066894755
000050 51 78 aa 3e ee 57 56 3c 17 f4 16 be 72 3e d6 be
       0.3329492 0.0130824875 -0.1474155 -0.41844517
000060 e3 05 14 3e f0 8e ea be fb 0f be 39 50 a5 8e 3d
       0.1445537 -0.45812178 0.0003625153 0.069651246
000070 a6 aa 88 be 57 57 13 3e d1 21 b5 3d 6b 09 a2 3e
       -0.26692694 0.14388786 0.088443406 0.3164781
000080 d6 85 99 3e a0 39 c7 be ba f3 b4 be b0 f4 37 be
       0.2998492 -0.38911152 -0.353422 -0.17964435
000090 25 5e b3 be 7e b8 1b 3e 48 a6 a3 be a3 f7 bb be
       -0.35032764 0.15207097 -0.319628 -0.3671237
0000a0 b8 d8 11 3e c5 d8 93 3e b4 22 13 be 08 28 f5 be
       0.14242828 0.2887632 -0.14368707 -0.47882104
0000b0 03 45 8f 3d ce b0 78 3e 61 a0 bd 3e 5b 09 4b 3d
       0.06995585 0.24286196 0.37036422 0.04956947
0000c0 a7 a5 ac 3e 70 af da be 4a 34 ec 3e dd a5 a0 be
       0.33720133 -0.42711973 0.46133643 -0.31376544
0000d0 1b 00 a6 be 89 3c b1 3e 15 1d d4 bd b7 bd 95 3e
       -0.32421955 0.34616497 -0.103571095 0.29246303
0000e0 0c 10 ad be 87 fe bb 3e ac c1 e7 3e f3 b3 17 3e
       -0.33801305 0.36717626 0.45264947 0.14814739
0000f0 65 37 c8 3e 73 14 ae be c1 a4 e2 bd 97 f4 17 3e
       0.39104763 -0.33999977 -0.110665806 0.14839397
000100 82 8e 8c 3e 88 c7 85 be 4f 3c 9a 3e b8 b3 23 be
       0.27452475 -0.26128793 0.30124137 -0.15986526
000110 45 f6 83 be eb 2d b1 3d 96 86 c3 be 1f 22 e0 be
       -0.25773826 0.08651336 -0.38188618 -0.43776032
000120 9d 45 1f 3e 5a 2e 22 3e 22 60 35 3e e2 a4 8d bd
       0.15553899 0.15837994 0.17712453 -0.069162145
000130 65 bf b5 be 84 5b c8 be 18 ea e7 3e a5 04 d7 be
       -0.35497585 -0.3913232 0.45295787 -0.4199573
000140 34 00 14 3e 6c c9 c4 3e 59 36 be 3e a8 2f 98 be
       0.14453202 0.38434923 0.3715084 -0.2972386
000150 7a 78 1b be ce db c7 be a3 5f 9c 3e 39 51 e9 be
       -0.15182677 -0.39034885 0.30541715 -0.4556978
000160 28 fe e2 be 21 5f a7 be d9 6c c9 3e 16 13 a0 3e
       -0.4433453 -0.32689765 0.39340857 0.3126456
000170 08 6d a8 3e 26 c4 b9 3e 3b 16 5f be 71 35 8c be
       0.32895684 0.36282462 -0.21785824 -0.27384523
000180 28 16 94 be 66 5f 29 3e e5 92 3a 3e 2f 93 da 3d
       -0.28923154 0.16540298 0.18220098 0.10672604
000190 7b 24 bf be a6 b6 13 3d 3f 19 80 be 7f 84 c4 bd
       -0.3733252 0.03606286 -0.2501926 -0.09595584
0001a0 a9 83 9c bd 9b 8e ca 3c b5 c8 d8 be 61 6a d0 3e
       -0.076423 0.024726203 -0.42340627 0.4070616
0001b0 ca 56 53 be f7 c7 1a 3e e6 d8 a9 3e 9b fd 42 3e
       -0.20638576 0.15115343 0.33173293 0.19042055
0001c0 3a 10 ac 3e 8b 8b 8b 3e 6f 9d b2 3e 11 a5 c9 3d
       0.3360613 0.272549 0.34885737 0.09845937
0001d0 ce c8 9d 3e d0 5b 59 be 91 ca 81 be 0a cf 71 3e
       0.30817264 -0.2122643 -0.25349858 0.23614135
0001e0 ac 17 f8 3d 61 99 a1 bc 83 80 d0 be fa 33 23 3e
       0.1211389 -0.019726457 -0.40723047 0.15937796
0001f0 19 f7 9b 3e a5 43 53 bd 5f bb e0 3d 09 86 59 3e
       0.30461958 -0.051578183 0.10973238 0.21242537
000200 d0 55 f2 be 34 a6 aa bd 65 01 35 be e8 f6 7d be
       -0.47331095 -0.08332482 -0.17676313 -0.24801219
000210 cc 52 96 3e 01 18 f2 3e df f2 91 3d fb 2e 99 3e
       0.29360044 0.4728394 0.07126402 0.29918656
000220 0e ab b6 be 8c cc a4 3d 50 5d 71 bd 6c bc 98 be
       -0.3567738 0.08046827 -0.05892688 -0.29831254
000230 e4 bf c8 3d 85 69 1d 3e 86 a8 bb bc 14 73 50 3e
       0.09802225 0.15372284 -0.022907507 0.20356399
000240 8b 04 6a 3e ec 2d df 3e 89 de c8 3c e0 0b 9a 3c
       0.22853296 0.43589723 0.024520176 0.01880449
000250 07 48 83 bb b6 8a 8e 3d 55 01 a1 be 43 20 65 bd
       -0.004006389 0.06960051 -0.3144633 -0.05593897
000260 84 82 d1 be 48 cb aa be 02 a1 d0 be a0 eb b4 3e
       -0.40919888 -0.33358216 -0.4074784 0.35336018
000270 a2 df 8b be 8d 73 27 bd 1a 47 5d 3d e1 92 d8 3e
       -0.27319056 -0.040881682 0.054022886 0.4229956
000280 28 3c 5f 3e c0 21 ae be 7f 61 f1 3e 6a 72 ea be
       0.21800292 -0.34010124 0.47144696 -0.45790416
000290 55 dc 70 3d ee a2 df 3e 8e 1b d5 3e 20 0f ec bd
       0.058803875 0.43678993 0.41622585 -0.11526322
0002a0 ae c4 a3 be
       -0.31985992

att_dst f4 [1, 13, 13]
000000 b4 85 5e 3e 06 92 bf 3e e4 13 80 be cf e8 a5 bd
       0.21730691 0.37416095 -0.25015175 -0.08101045
000010 65 4f 98 be 9b 83 34 3e 82 03 cf 3d 82 36 7b 3e
       -0.29748073 0.17628329 0.10108091 0.24532512
000020 05 37 30 be 48 04 f0 be 1b f8 57 be 8e 14 be be
       -0.17208488 -0.46878266 -0.21090738 -0.37125057
000030 c7 c3 fc bd a9 72 34 3e 39 5b cb be 69 59 ba bc
       -0.12342029 0.17621864 -0.39718035 -0.022747712
000040 55 ca ef be f8 e9 af be c9 c8 aa be c0 01 28 be
       -0.46834055 -0.34358191 -0.33356312 -0.16406918
000050 d1 4e 7c be af 82 91 3d 83 0c 97 3e f7 8d b8 3e
       -0.24639441 0.07105004 0.29501733 0.3604581
000060 ef 8f 18 3e c1 c1 8b 39 f8 08 a6 bd d0 46 a3 3e
       0.14898656 0.00026656504 -0.081071794 0.31889963
000070 09 3a 8b be ab f9 b3 3e e6 fd e8 be da e3 b4 be
       -0.27192715 0.3515142 -0.4550621 -0.35330087
000080 50 f2 08 3e 52 d2 4d be 1a f5 bf 3d 14 43 d9 3e
       0.13373685 -0.20099762 0.09372921 0.4243399
000090 1b 94 67 3e 7c 00 ed 3e 60 1d 49 be 0f 85 6f be
       0.22615092 0.46289432 -0.19640112 -0.23390602
0000a0 66 65 71 bd 6a 1d ca bd 4d ed 5c be 0a 3a 02 bd
       -0.05893459 -0.098688915 -0.21574898 -0.03179363
0000b0 9e 0f df 3e e0 8f 87 be ed 99 88 3e de 97 67 3e
       0.43566602 -0.26476955 0.26679936 0.22616526
0000c0 3b b6 8f 3e 81 10 07 3e af 86 35 be 39 5a 4b 3e
       0.28068718 0.1318989 -0.17727159 0.19858636
0000d0 da 8c 69 be 71 6a 93 be 89 2e ea 3e af 96 c8 3e
       -0.22807637 -0.28792146 0.45738629 0.39177462
0000e0 8f f4 b5 be 89 3e cb 3e c7 b3 c2 3d eb 4f 06 3e
       -0.35538146 0.39696148 0.09506946 0.13116424
0000f0 db 3b f1 3e 05 a7 a4 bc d7 12 1d be 35 0a 9e 3e
       0.4711598 -0.020099172 -0.15339218 0.30867162
000100 e8 e6 ed bd 86 09 f7 bd d7 0d 40 be 1e 13 f6 3e
       -0.116163075 -0.12062363 -0.1875528 0.4806146
000110 d0 36 71 3e 17 13 aa bd dd b5 bb bb 03 a4 f3 3c
       0.23556066 -0.08304422 -0.005728467 0.029741293
000120 67 fa 94 be 29 56 05 3e ef 1b c2 be 57 e9 b5 bc
       -0.29097292 0.13021149 -0.37911937 -0.022205992
000130 7d 1b c3 bd 4a a8 48 be 20 1c e5 3e 6e 2a 0b 3e
       -0.09526727 -0.19595447 0.4474802 0.13590404
000140 b3 b4 6d 3e 3c f7 a0 be 13 98 97 3d 92 6c 01 3e
       0.23213463 -0.31438625 0.07402053 0.12639073
000150 e5 e7 7d 3e 0c 91 0e be 06 5e c3 bd 0e fa c6 be
       0.24795492 -0.13922518 -0.09539418 -0.38862652
000160 d2 8f 95 3e 89 1a a5 3e 06 91 65 3e 35 af 7c 3e
       0.2921129 0.32246807 0.22418603 0.24676211
000170 fc 0e 95 3e ca 67 e7 3e 3b db 26 3e fd 79 36 3e
       0.29112995 0.45196372 0.16294567 0.17819972
000180 93 7f 1e 3e 49 10 8a be e0 ca f6 3d 07 b6 15 3e
       0.15478353 -0.2696555 0.12050414 0.14620219
000190 6e d2 c3 be 94 0e 19 be ae 14 98 be 2f ac 9f be
       -0.38246483 -0.14946967 -0.29703277 -0.31186053
0001a0 38 35 aa 3e 4b a7 c3 3e 13 90 87 bd 74 07 14 3e
       0.33243728 0.38213572 -0.06619277 0.14455968
0001b0 49 69 e1 bd f9 c5 d7 3d 08 1d a9 bd a1 85 80 be
       -0.1100641 0.10535807 -0.082574904 -0.2510195
0001c0 1d 78 4b be 51 a5 f4 3e 34 ad 9d 3d 0e 7d 85 be
       -0.19870038 0.47782376 0.076990515 -0.26071972
0001d0 af cc 56 3d a6 7a f9 be 4e 39 17 3c 91 90 bb 3e
       0.052441295 -0.48726386 0.009229971 0.36633733
0001e0 60 fb 7b 3d 76 67 f3 3d 62 8d eb be 4b aa c7 bd
       0.061519027 0.11884968 -0.46006304 -0.09749278
0001f0 22 32 94 3e 6c 92 b7 be 62 63 60 be 5c 6d aa 3e
       0.28944498 -0.358539 -0.21912912 0.3328656
000200 45 d2 14 3e e8 ac 5d 3e e9 2a e8 be 88 9c 9e 3e
       0.14533336 0.2164799 -0.45345238 0.309788
000210 4d 61 cd bd 97 88 cf 3d 53 2e c8 3e db ed e2 be
       -0.10028324 0.10133474 0.39097843 -0.44322094
000220 20 c9 11 3e cb 68 e0 be 4f d9 b5 3e c8 db 11 3e
       0.1423688 -0.4382995 0.35517356 0.14243996
000230 b0 60 55 3d d3 9a 41 be fc e7 39 3e 68 52 83 be
       0.05209416 -0.18906717 0.18154901 -0.25648808
000240 5e 8f aa 3d e9 8a d2 3e c5 7a b9 be e0 b0 04 be
       0.08328126 0.41121605 -0.36226478 -0.12958097
000250 eb d3 ec 3d b6 d6 b8 3d 6a 70 4e bb a2 1b d7 3e
       0.11563858 0.09025328 -0.003150011 0.4201327
000260 e1 e5 07 be 35 f0 05 3e b4 53 86 3e 13 33 d3 bd
       -0.13271286 0.13079913 0.26235735 -0.10312476
000270 b6 82 a4 3e bd 23 a4 3e c6 9c 58 3e 00 ba f7 bd
       0.32130975 0.32058516 0.21153554 -0.120960236
000280 e0 ce d8 3e d3 ab 90 be c3 30 13 3e 74 05 cf 3d
       0.42345333 -0.2825609 0.1437407 0.10108462
000290 35 7e b0 3e 67 59 cb be 30 c6 a4 3d ab f5 8c be
       0.34471288 -0.39716646 0.08045614 -0.2753118
0002a0 05 96 81 3e
       0.25309768

bias f4 [13]
000000 a8 94 54 3b a6 39 84 ba d6 eb d2 3a 7c 39 db bb
       0.003243724 -0.0010087981 0.0016092013 -0.0066902023
000010 3a f6 0e bc 8e 4c 7f 3b cf 1f 0d bb 40 23 fd bb
       -0.008725697 0.0038955542 -0.0021533852 -0.0077251494
000020 ea fe 42 3b f2 f2 04 bc 10 67 04 bc 0b e6 70 bb
       0.0029753991 -0.008114563 -0.008081213 -0.003675821
000030 55 fa 92 bb
       -0.0044854083

weight f4 [169, 11]
000000 97 0b f1 3d 99 ba 89 3d 21 5b 07 be e4 d7 af 3d
       0.11769789 0.06725044 -0.13218357 0.085861
000010 96 09 23 3e 7a a4 3e be c8 77 01 3e 91 eb af 3c
       0.15921625 -0.1861743 0.12643349 0.021474632
000020 74 22 28 3c 37 9f 21 3e a4 3b 23 3e 45 8f 95 3d
       0.0102621205 0.15783392 0.1594072 0.07302717
000030 4c 42 11 3e 5e f2 98 3d 65 64 ee 3c 83 8a 24 be
       0.14185447 0.07468103 0.029100606 -0.16068463
000040 8a e3 08 3d c2 96 06 be 7c e2 64 3d 4e 3d fd 3c
       0.033420123 -0.13143447 0.055880055 0.030913021
000050 54 21 9b 3b 2c 61 fe bd 66 f3 e8 bd 48 73 08 3e
       0.0047341976 -0.12420878 -0.113745496 0.13325226
000060 3d 18 b3 3d f8 2e c1 3d f6 70 67 bd c6 76 0a bd
       0.087448575 0.09432787 -0.056504212 -0.033804677
000070 bf f8 4c bd 72 d0 fd 3d e7 ae a5 bd e5 61 eb 3d
       -0.05004191 0.123932734 -0.080900006 0.11493281
000080 26 18 00 3e 04 6d 2e be 12 06 5b bb 80 fa 1b bd
       0.12509212 -0.17033774 -0.0033420366 -0.038080692
000090 60 c4 d2 bd bf ca a0 3d 20 03 a2 bc f8 7d 28 3e
       -0.10291362 0.07851171 -0.01977688 0.16454303
0000a0 1d cc e1 bd 9d a8 b9 3d 03 58 1c be d5 c6 b1 bd
       -0.1102526 0.090653636 -0.15267949 -0.08680502
0000b0 67 5b 06 3c 07 b6 10 3e 9c 1c c2 3d 50 2d 19 be
       0.008200503 0.14131938 0.09478113 -0.14958692
0000c0 57 ad b2 3c 03 3e d6 bd 1b e8 3c 3c 1c fa 16 be
       0.02181117 -0.104610465 0.011529948 -0.14743847
0000d0 11 69 4a bd 1e 00 04 3e 04 16 27 be c9 7b 2f be
       -0.049416605 0.1289067 -0.16316992 -0.17137064
0000e0 87 a4 16 3d 7c e8 e1 3c 8d 93 02 bd 66 47 23 3e
       0.036778 0.027576678 -0.031878997 0.15945205
0000f0 2d 1b e3 bd 50 59 e9 bd 64 88 0d be 1a a6 1b bd
       -0.11089168 -0.11393988 -0.1382156 -0.038000204
000100 80 54 46 bd a1 a1 e1 3d ba 02 0c bc 88 c1 6f 3d
       -0.04842043 0.110171564 -0.008545572 0.058534175
000110 ad f9 9a bd ee 2a 19 3e b6 1a 22 3e af ad 20 be
       -0.07567153 0.14957783 0.15830502 -0.15691255
000120 8b 85 1e bd ed 24 17 be ce c4 ac 3d ab 5f 1e be
       -0.038701575 -0.1476018 0.08435975 -0.15466182
000130 c1 79 a7 bd 9a 03 36 3e 9f e9 35 be 37 b1 07 3e
       -0.081775196 0.17774811 -0.177649 0.13251196
000140 6e 31 6f 3c de 43 15 3e 11 50 bb bd d1 4f f8 3d
       0.014599187 0.1457667 -0.09146131 0.12124599
000150 ea fd cb 3c e3 df 87 3c bb 9a 01 3e 4c df 2d be
       0.02490135 0.01658625 0.12656681 -0.16979712
000160 7f fc 10 be ce a8 39 3e 59 fd d3 bd cf 0e fe bd
       -0.1415882 0.181308 -0.103510566 -0.12405168
000170 53 d0 3e 3a 7c b4 4e bd 05 cc 9d bc 8c 6e f0 bd
       0.00072789675 -0.050465092 -0.019262323 -0.11739835
000180 d4 99 8b 3d d9 fa 1c be d6 71 79 3c fa 7c d2 3d
       0.0681645 -0.15330066 0.0152248945 0.10277744
000190 e2 b0 03 3d 0c f1 bc 3c 9c 48 e7 3c a4 46 4f bd
       0.03215111 0.023064159 0.028232865 -0.050604478
0001a0 fa c8 f5 bc 33 21 91 bd 22 59 f0 bd 85 c9 b8 bd
       -0.03000306 -0.070864104 -0.11735751 -0.09022812
0001b0 fa 42 3d 3e d5 d8 c9 bc 08 49 76 3d 96 c6 f7 3d
       0.18482581 -0.024639526 0.06012824 0.12098424
0001c0 91 5e 94 bc da 26 d0 bd 2e c7 01 be 8f 4d 8e bd
       -0.018111499 -0.1016366 -0.12673637 -0.06948387
0001d0 05 16 82 3d 9a f2 1f be 9f 54 c3 bc 3e 92 89 3d
       0.06351856 -0.15619889 -0.023844061 0.067173466
0001e0 79 43 17 3e 18 d0 54 3d 0d da 0e 3d b7 78 ff 3d
       0.14771833 0.051956266 0.03487592 0.124741964
0001f0 65 81 ad 3d 29 21 7e 3d 44 63 67 bd 12 89 16 be
       0.08471946 0.062043343 -0.05649115 -0.14700726
000200 ff 95 1e bd 9c e9 08 bd 99 f2 66 3c 0e de 9c bc
       -0.038717266 -0.033425912 0.014095926 -0.019148853
000210 7a f7 95 3d 87 9c f9 3d b2 bb 93 bd 94 de 2d be
       0.07322593 0.12188058 -0.072135344 -0.16979438
000220 04 34 b8 bd 31 16 ab bd 1b b2 db 3d e9 00 e8 bd
       -0.08994296 -0.08353842 0.1072733 -0.113282986
000230 58 93 5b bc ca 1f 11 bd 9c b5 da bd 32 a2 b9 3d
       -0.013401829 -0.035430707 -0.106791705 0.090641394
000240 6d 9b 8a bd ae 03 f3 ba 06 b7 f8 bd ff a5 6b bc
       -0.06767926 -0.0018540525 -0.12144284 -0.014382838
000250 14 fd e5 3c f2 d4 c3 bb 11 56 90 bd 3a 8d 55 3d
       0.028074779 -0.005976313 -0.07047666 0.052136637
000260 06 3c 3f bd a3 f0 cf bd 1a db 08 be 2e 9d 13 bd
       -0.046688102 -0.1015332 -0.1336483 -0.03603857
000270 7d 0e 2d be f5 1b 20 3e af b0 a7 bd 87 e6 91 bd
       -0.16900058 0.15635665 -0.081879966 -0.07124048
000280 34 2c ad 3c 43 ca 41 3d 91 86 86 bc e4 88 03 3e
       0.021139242 0.047312032 -0.016421588 0.12845188
000290 7e ec d4 bd e0 03 83 3d 78 0d 8e ba 78 29 19 be
       -0.1039667 0.063972235 -0.0010837754 -0.14957225
0002a0 d6 fc 96 bd fb 94 30 3d 41 46 f9 3c 1b fc 04 3e
       -0.073724434 0.04311083 0.030429007 0.12986796
0002b0 78 c5 ee 3d 58 7d d3 bd 88 52 a5 bd 7d de 2b bd
       0.11658758 -0.10326642 -0.08072382 -0.04196023
0002c0 63 d7 06 be 39 98 43 bd cf e1 15 be da 0b 99 3d
       -0.13168101 -0.047752593 -0.1463692 0.07472964
0002d0 33 2d 0c 3e 73 03 c3 3c 4f 49 f6 bd 2f 22 02 be
       0.13689117 0.023805356 -0.12025701 -0.12708353
0002e0 8e 57 76 bd 65 da 80 3d b2 35 5a 3c 4a 3f c8 3c
       -0.060142092 0.062916555 0.013318466 0.024444241
0002f0 3b 1c 28 3e 55 3e 9c 3d f0 86 03 3d 79 18 1f bd
       0.16417019 0.076290764 0.03211111 -0.0388417
000300 7b de ad 3d 4c 2a 91 3d 3c 0d 20 be e6 d6 cb bd
       0.084897004 0.070881456 -0.15630049 -0.09953098
000310 1e 8a 53 3c c1 8d 9c 3d 2a 09 b9 3d 14 01 df bd
       0.012911348 0.07644225 0.09034951 -0.108888775
000320 e7 f9 3b be 51 ed 6d bc fc a3 e9 bc 2c d5 32 3d
       -0.18357049 -0.014521913 -0.028520577 0.043660328
000330 1f 9d 73 bd 4a 17 06 3e 36 a3 93 3b 74 1d 02 3e
       -0.059476014 0.13094822 0.0045055402 0.12706548
000340 3a 08 08 be 83 e0 9c 3d 94 9d d2 3c 03 b0 b1 bd
       -0.13284388 0.0766001 0.025709905 -0.0867615
000350 14 cf c6 3d 8a 3d 2e be fa 56 21 3e 4c 2f d2 3c
       0.09707466 -0.17015663 0.15755835 0.025657319
000360 d3 4a e9 3c 45 07 bf 3d 18 e2 bc 3c 14 61 af 3d
       0.028478062 0.093275584 0.023057029 0.08563438
000370 35 47 db 3d 11 24 1a be 4a b7 e5 3d 81 41 12 bd
       0.10706941 -0.1505282 0.112166 -0.035707
000380 c2 cd 4b bd b8 4c eb 3c f9 d3 0a 3e 75 27 d2 bd
       -0.049756773 0.028723106 0.13557424 -0.10261432
000390 03 fa f9 bd ee 40 ea 3d dc ea aa bd f9 19 84 3d
       -0.12205889 0.114381656 -0.08345577 0.064502664
0003a0 e1 a6 b2 bc e3 60 66 3d 29 9c 15 3e bc 26 ac bd
       -0.02180809 0.056244742 0.14610352 -0.084058255
0003b0 5f 90 a2 bd df 47 c6 3d 4c 1c 7e 3c 71 fb 9e bc
       -0.07937693 0.09681677 0.015509676 -0.019407006
0003c0 29 7a 24 be 74 01 1e 3e b7 75 2a bc 47 60 04 bd
       -0.16062225 0.15430242 -0.010404042 -0.03231838
0003d0 c1 0a 97 bd 78 4e 02 bd 43 1c c5 3d 3b ba 9b 3b
       -0.07375098 -0.031813115 0.09624531 0.004752425
0003e0 31 f8 29 3e 3b 0b 8d ba 11 c3 82 bc 54 b4 e6 3d
       0.16598584 -0.0010760793 -0.015962156 0.112648636
0003f0 48 fa 97 3b 1e 54 17 bd 08 bc 81 3d d1 0f 17 3e
       0.00463799 -0.036945455 0.06334692 0.14752127

weight f4 [13, 13]
000000 06 5e c7 3d 4d 4c 51 be 84 5a 36 bc cc 80 9f 3d
       0.097347304 -0.20439263 -0.011129979 0.07788238
000010 e7 70 e0 3d cf 1c 72 3e 75 b9 e5 3d b4 41 36 3d
       0.109590344 0.23643802 0.11217014 0.044496253
000020 37 5a 10 3e aa 2c 7f be 0f 35 32 3e eb 8b 2b bd
       0.14096914 -0.24919382 0.17403053 -0.041881483
000030 9e 6f 19 3e 0d ea 9f 3d 8b 0b d2 bb e3 6b 40 3e
       0.14983985 0.078083135 -0.0064100674 0.18791156
000040 2d f2 1a be 06 be b3 3d 36 ca fa 3d c3 79 cd bd
       -0.15131445 0.087764785 0.122456 -0.1003299
000050 4e 4c b9 3d 26 de 86 be 2f 1f 04 be 63 f5 00 3e
       0.09047757 -0.2634136 -0.1290252 0.12593608
000060 76 00 08 3e 64 5f 79 be e4 a9 be 3d 5f b3 97 3c
       0.13281426 -0.24352795 0.09309748 0.018518148
000070 f5 7e 85 3e 3f 46 86 be 6c ba 69 bd 80 1d 1a be
       0.26073423 -0.2622547 -0.05706255 -0.15050316
000080 a0 c0 25 be f6 f5 3c bd ac 8c 82 be b4 9c 57 3e
       -0.16186762 -0.046133004 -0.2549795 0.21055871
000090 75 cf ce bd d6 3d ba 3d 78 da 21 be 81 06 e9 3b
       -0.10098163 0.090938255 -0.15805995 0.007111371
0000a0 5e 14 42 be 17 c5 63 3e 64 88 64 3e 09 d1 58 3e
       -0.18953082 0.22243153 0.22317654 0.2117349
0000b0 a1 21 c0 bd 58 1c 27 3e 91 89 67 be 88 dc ff 3d
       -0.09381414 0.16319406 -0.22611071 0.12493235
0000c0 7d f2 06 bd 08 07 64 be aa 8d 62 be fd 61 80 be
       -0.0329461 -0.22268307 -0.22124353 -0.2507476
0000d0 2f 52 4a 3d dc bf ca bd 26 e4 fd bd 61 53 85 3e
       0.049394783 -0.098998755 -0.123970315 0.26040176
0000e0 b1 c4 a8 bd 17 c5 c4 3d 60 40 5c bd 1a 1e 24 3e
       -0.08240641 0.096079044 -0.05377233 0.16027108
0000f0 00 f2 9e 3d 82 73 2e 3e dd 25 89 3d d5 6d 86 bd
       0.077610016 0.1703625 0.06696675 -0.065639175
000100 b2 7f 75 3e 53 8a af bc cc 7a 2d be 1c c0 ad 3d
       0.23974493 -0.021428263 -0.16941375 0.084839076
000110 40 87 11 bd 04 eb 4e be 40 12 f9 3c 0a ce 65 bd
       -0.035529375 -0.20206839 0.03040421 -0.056104697
000120 d2 94 dd bd 82 89 fd bd 72 e9 f2 bd 26 d8 db bd
       -0.10819401 -0.12379743 -0.118609324 -0.107345864
000130 a4 d9 0a 3d bf 4c 84 3e 28 a5 1e be d0 cb 09 be
       0.033898965 0.25839803 -0.1549269 -0.13456655
000140 54 bc 37 be e4 f8 de bb 65 71 45 3c 54 d5 3b be
       -0.17942935 -0.0068045724 0.012050961 -0.18343097
000150 4b b9 f6 3d a7 b7 76 be 39 c8 7c 3e 7d e5 34 3d
       0.120470606 -0.24093495 0.24685754 0.04416417
000160 91 9e 11 bd f1 e8 cf bd 0a 9b fb 3d db 35 4b 3e
       -0.03555161 -0.10151852 0.12285431 0.19844763
000170 ce c7 35 be 76 5d 80 bd 17 69 48 3e a7 90 5e bd
       -0.17752 -0.06267826 0.19571339 -0.05433717
000180 cf d4 4e be 79 0f ae bd 19 3e b7 3b 51 e6 45 bd
       -0.20198368 -0.08499045 0.0055921194 -0.04831535
000190 4a 13 44 be 87 fd 2f be 5d f5 9c 3d ad d8 3d 3e
       -0.19147983 -0.17186557 0.07663987 0.18539687
0001a0 db ed 77 3e 13 a6 1e bd b6 65 d6 3d 29 a8 59 be
       0.24211828 -0.0387326 0.104686186 -0.21255554
0001b0 bc 26 1d 3e 03 1e 84 3e 48 89 19 3e 43 41 d5 bd
       0.15346807 0.25804147 0.14993775 -0.10412838
0001c0 89 dd 68 3e a0 ce 83 be a5 2e db bc b5 7a 81 bd
       0.22740759 -0.2574358 -0.02675564 -0.06322233
0001d0 1c c7 8f be ac f6 18 be 83 e3 46 be 68 29 91 3d
       -0.28081596 -0.14937848 -0.19422726 0.07087976
0001e0 89 3c ab bc e8 5e f5 3d c7 01 66 bd 54 dd 5d 3e
       -0.020902889 0.119809926 -0.05615404 0.21666461
0001f0 65 a1 e8 3c 09 74 5e 3e e6 d6 5b 3e 60 33 70 be
       0.028397271 0.21723951 0.21468696 -0.23457098
000200 f9 58 45 be 2f 8a 25 3e 13 61 82 3e 60 21 6a be
       -0.19272222 0.16165994 0.25464687 -0.22864294
000210 8e 90 34 3c ce e2 e6 bd 6b 90 80 3e 94 8b 69 3e
       0.011020793 -0.11273728 0.25110182 0.22807151
000220 84 e3 4b 3e 0b 1d 14 3e 3b e7 df bc e2 ea 7a 3e
       0.19911009 0.14464204 -0.027331939 0.24503663
000230 76 83 02 be 3d de 62 3c 10 b2 9e bd b3 43 48 be
       -0.12745461 0.013846931 -0.077488065 -0.19557075
000240 22 60 0c be 60 44 8a 3d 3b c9 cd bc 65 34 35 be
       -0.13708547 0.06751323 -0.025120368 -0.17695768
000250 44 be 1b bd 6b 39 60 3d 7e 2c 41 be 90 96 2e 3e
       -0.03802325 0.054742258 -0.18864629 0.17049623
000260 93 5b 6d be f3 58 e8 3b 1a 2c 61 be 91 79 7f be
       -0.23179464 0.0070906817 -0.2198948 -0.24948718
000270 e4 49 13 bd b9 f2 80 3e e3 b0 85 3e f1 7f be 3d
       -0.03595914 0.25185183 0.26111516 0.09301747
000280 d8 d6 56 3e 81 71 14 be ff f8 1b 3e 61 7f 27 3e
       0.20980394 -0.14496423 0.15231703 0.16357185
000290 8c 97 83 be 4e f8 55 be 5a ee e9 3d 07 94 b1 3c
       -0.2570156 -0.20895502 0.11422415 0.02167703
0002a0 8d 62 3a be
       -0.18201657

bias f4 [13]
000000 a8 2a 6f be c7 89 40 3e d3 06 e4 3c b4 60 74 bb
       -0.23356116 0.18802558 0.027835285 -0.0037289085
000010 ab ff 8d be 7e 2e 80 3e 8b 9b 41 be 81 56 00 3e
       -0.27734122 0.2503547 -0.18906991 0.12532999
000020 f5 1c dd bc 75 0f 67 bb b5 0e 0c 3e 89 90 87 bd
       -0.026991347 -0.0035257016 0.13677485 -0.06619365
000030 cc cc a5 bd
       -0.080957025
