data/results/GAT/33/full_model.pth (torch, 31215 bytes, 6 tensors)

att_src f4 [1, 13, 13]
0	0xbc68d4da	-0.014210904
1	0x3ea1d742	0.3160954
2	0x3e962d3f	0.29331395
3	0xbe8d8540	-0.27640724
4	0x3ec9e34d	0.3943123
5	0x3ea35205	0.31898513
6	0xbce324cf	-0.027727513
7	0x3ec1b188	0.37830758
8	0x3d3cc8d0	0.046089947
9	0x3e858d6d	0.26084462
10	0xbede6ced	-0.4344248
11	0x3f0961ab	0.53664654
12	0x3ed26049	0.41089085
13	0xbeb9f11a	-0.36316758
14	0xbece0a9d	-0.40242472
15	0xbe06518f	-0.1311705
16	0xbea3316a	-0.31873637
17	0x3dcbd40a	0.099525526
18	0x3e622b68	0.2208687
19	0xbc8a3bec	-0.016874276
20	0x3e8e853e	0.2783603
21	0x3d6a7a8b	0.057245772
22	0xbe37622d	-0.17908545
23	0xbedd2f77	-0.43200275
24	0x3e380d86	0.17973909
25	0xbef8c257	-0.4858577
26	0x3c156eeb	0.009120683
27	0x3dcaa447	0.09894615
28	0xbe7384ba	-0.237811
29	0x3e35dbbc	0.17759603
30	0x3d6de587	0.058080222
31	0x3e9b4ddf	0.30332848
32	0x3eaa0501	0.33206943
33	0xbee112dc	-0.439597
34	0xbe9faf5b	-0.31188473
35	0xbe6a4443	-0.22877602
36	0xbeb463f1	-0.352325
37	0x3e144ff1	0.1448362
38	0xbea9715f	-0.33094308
39	0xbebe7297	-0.371968
40	0x3e29fe19	0.16600837
41	0x3e938277	0.28810474
42	0xbe3bed5f	-0.18352269
43	0xbf02713b	-0.50954026
44	0x3da88e72	0.08230294
45	0x3e4fc2e0	0.20289183
46	0x3ea93c3e	0.33053774
47	0x3db13329	0.08652336
48	0x3eb49bb5	0.35275045
49	0xbed1abc1	-0.4095135
50	0x3ee8ba12	0.4545446
51	0xbeb9d14a	-0.36292487
52	0xbeb45070	-0.3521762
53	0x3ea54435	0.322786
54	0xbdd0dbdb	-0.10198184
55	0x3e9869be	0.29768175
56	0xbe9cdb0a	-0.30635864
57	0x3ec4d379	0.3844259
58	0x3ef6d1fe	0.48207086
59	0x3e17a7c0	0.14810085
60	0x3ec1ad96	0.37827748
61	0xbeb866a5	-0.36015812
62	0xbdae8714	-0.08521858
63	0x3dea40ca	0.11438139
64	0x3e878d42	0.2647496
65	0xbe91ddaf	-0.28489444
66	0x3eaaceb8	0.3336084
67	0xbe3a45c6	-0.18190679
68	0xbe85d056	-0.2613551
69	0x3d3b8451	0.045780484
70	0xbeb76aaa	-0.35823566
71	0xbecc4152	-0.39893585
72	0x3e077596	0.13228449
73	0x3e2df208	0.16986859
74	0x3e1419eb	0.14463012
75	0xbdd5227f	-0.1040697
76	0xbec89813	-0.39178523
77	0xbecdac1d	-0.40170375
78	0x3ed67da1	0.41892722
79	0xbedb69d2	-0.42854172
80	0x3e5efc4a	0.21775928
81	0x3eaf7c4b	0.34274516
82	0x3ea916cc	0.33025205
83	0xbe829347	-0.2550299
84	0xbe08d68a	-0.1336309
85	0xbedf0114	-0.4355551
86	0x3eb8c261	0.360858
87	0xbf0b8677	-0.5450205
88	0xbedc9f48	-0.43090272
89	0xbe9974f2	-0.29972035
90	0x3eabb3b7	0.3353555
91	0x3ea1c6e7	0.31597063
92	0x3ebc9ea2	0.36839777
93	0x3ea83a97	0.328572
94	0xbe55000c	-0.20800799
95	0xbe8ca426	-0.27468985
96	0xbe82c56b	-0.25541243
97	0x3e4a7ee1	0.19774963
98	0x3e2d5b45	0.16929348
99	0x3e101ea7	0.14074193
100	0xbec582cd	-0.38576356
101	0x3c218574	0.009858478
102	0xbe60f886	-0.21969804
103	0xbdf32ef4	-0.1187419
104	0xbdffca24	-0.12489727
105	0x3dd999ca	0.10625036
106	0xbef2866c	-0.4736818
107	0x3eab04f3	0.33402213
108	0xbe37934f	-0.17927288
109	0x3e2da988	0.16959202
110	0x3ec5d110	0.38636065
111	0x3df8583c	0.12126204
112	0x3eaee347	0.34157774
113	0x3e9bdea5	0.30443302
114	0x3eb2e601	0.34941104
115	0x3e1bf7c8	0.1523124
116	0x3e89fc05	0.26950088
117	0xbe6efb7e	-0.23338124
118	0xbe7a2833	-0.24429397
119	0x3e9eb441	0.30996898
120	0x3d316ca8	0.043316513
121	0xbd8ff1ae	-0.070285186
122	0xbedbc828	-0.42926145
123	0x3e48a15f	0.19592808
124	0x3e88100e	0.2657475
125	0xbd08fe48	-0.033445626
126	0x3d958f3c	0.073027104
127	0x3e6c8297	0.23096691
128	0xbed811c4	-0.42201054
129	0xbe19dd8d	-0.15025921
130	0xbe3158d7	-0.17319046
131	0xbe74f895	-0.23922952
132	0x3e9244c4	0.2856809
133	0x3ef726d8	0.48271823
134	0x3d81c49b	0.06336328
135	0x3ea96af8	0.33089423
136	0xbeb42d26	-0.35190696
137	0x3d0d7798	0.03453788
138	0xbd3a47bd	-0.04547857
139	0xbe9a5795	-0.30144945
140	0x3dc7c9ed	0.09755311
141	0x3e29035f	0.16505192
142	0xbce29344	-0.027658112
143	0x3e623bd2	0.22093132
144	0x3e81ddf6	0.25364655
145	0x3eeb3a63	0.45942983
146	0xbade43e8	-0.0016957493
147	0x3c75645f	0.014977544
148	0x3d447ab2	0.047968574
149	0x3e08258a	0.1329557
150	0xbeb131c3	-0.34608278
151	0xbd0aacb7	-0.03385612
152	0xbeccd147	-0.40003416
153	0xbeab63bc	-0.3347453
154	0xbec99646	-0.39372462
155	0x3ea6a082	0.32544333
156	0xbe8b775a	-0.27239496
157	0xba657cf2	-0.0008754275
158	0x3d6965cc	0.056981847
159	0x3ece5403	0.4029847
160	0x3e5d3342	0.21601585
161	0xbeb72c6e	-0.35776085
162	0x3ee6a638	0.4504869
163	0xbefe7d83	-0.49705133
164	0x3d590492	0.052982874
165	0x3ed750a4	0.4205371
166	0x3eda0858	0.4258449
167	0xbe0129da	-0.12613621
168	0xbe9b6688	-0.30351663

att_dst f4 [1, 13, 13]
0	0x3e97ec97	0.2967269
1	0x3ed305f5	0.41215482
2	0xbe3174b4	-0.17329675
3	0xbe155173	-0.14581852
4	0xbe960372	-0.29299504
5	0x3e26090b	0.16214387
6	0x3e2d4677	0.16921411
7	0x3e972113	0.2951742
8	0xbe53d086	-0.20685014
9	0xbecbb09c	-0.3978318
10	0xbe88977c	-0.26678073
11	0xbe922c52	-0.2854944
12	0xbe308e00	-0.17241669
13	0x3e17dae8	0.148296
14	0xbe8d7a22	-0.27632242
15	0xbc7a36a6	-0.015271818
16	0xbeb7d151	-0.35901883
17	0xbecb39be	-0.3969249
18	0xbe782ced	-0.24235888
19	0xbe41ebc4	-0.18937594
20	0xbe6d94a5	-0.23201235
21	0xbd1bdce9	-0.038052473
22	0x3ea42940	0.3206272
23	0x3e9d983f	0.30780217
24	0x3dbea84e	0.09309445
25	0xbd85806a	-0.06518634
26	0xbd204128	-0.039124638
27	0x3e83b9eb	0.25727782
28	0xbe6db888	-0.23214924
29	0x3eaecc17	0.34140083
30	0xbec58f1e	-0.38585752
31	0xbea01793	-0.31267986
32	0x3e09c09e	0.13452384
33	0xbe4e63d8	-0.20155275
34	0x3d888e8c	0.06667814
35	0x3eeab002	0.45837408
36	0x3e869a3d	0.2628955
37	0x3ec59a3f	0.38594243
38	0xbe1432dd	-0.14472528
39	0xbe1fb96e	-0.1559808
40	0xbe093aa6	-0.13401279
41	0xbe0b2451	-0.13588072
42	0xbe1c25b0	-0.15248752
43	0x3d6963da	0.05697999
44	0x3ea950b2	0.33069378
45	0xbea7052e	-0.3262114
46	0x3e96245f	0.29324624
47	0x3e17e52d	0.14833517
48	0x3e60c3fb	0.2194976
49	0x3e31da92	0.17368534
50	0xbe2b55c9	-0.16731943
51	0x3e954356	0.29152936
52	0xbe0e86c9	-0.13918604
53	0xbe8ff372	-0.28115422
54	0x3ee9503a	0.4556902
55	0x3eb2e18f	0.34937713
56	0xbe8ff94e	-0.28119892
57	0x3e8ccd95	0.27500597
58	0xbd452d6d	-0.048139025
59	0x3dd4ae9b	0.10384866
60	0x3ec3f97e	0.38276285
61	0x3ddd009d	0.107911326
62	0xbdf84a7a	-0.1212358
63	0x3e76b1ab	0.24091212
64	0xbd9fd58a	-0.07804401
65	0xbdc7ad62	-0.09749867
66	0xbe260810	-0.16214013
67	0x3ef9a28b	0.48756823
68	0x3e7ca45a	0.2467207
69	0xbd0b848e	-0.03406196
70	0x3d3bd085	0.045853157
71	0x3c3054a0	0.010762364
72	0xbe902d45	-0.28159538
73	0x3de85260	0.11343837
74	0xbeafa45e	-0.3430509
75	0x3d61734d	0.0550416
76	0xbe012bd8	-0.12614381
77	0xbdd68138	-0.10473865
78	0x3ef2f5c1	0.4745312
79	0x3e375dbd	0.17906852
80	0x3e56de4e	0.2098324
81	0xbe87bcfd	-0.26511374
82	0x3d079448	0.033100396
83	0x3da00bd0	0.07814753
84	0x3e50a1d4	0.20374233
85	0xbdb13e80	-0.08654499
86	0xbe0d27b8	-0.13784683
87	0xbea8608c	-0.3288616
88	0x3ea58011	0.3232427
89	0x3eb81d57	0.35959885
90	0x3e3d9f5a	0.18517819
91	0x3e4d5d81	0.200552
92	0x3e8b5b88	0.2721827
93	0x3ee85424	0.45376694
94	0x3e28975d	0.1646399
95	0x3e57e3ca	0.21082988
96	0x3dfd3d9b	0.12365266
97	0xbe997e5e	-0.29979223
98	0x3d804dfb	0.062648736
99	0x3e2f2235	0.17102893
100	0xbead0af2	-0.33797413
101	0xbe080e3b	-0.13286678
102	0xbe75a900	-0.2399025
103	0xbe8c0445	-0.27347007
104	0x3e8504d9	0.2598026
105	0x3e9ecfe5	0.31017986
106	0xbd43441c	-0.047672376
107	0x3e1641e9	0.1467358
108	0xbda87aed	-0.08226571
109	0x3cbf91ad	0.023384893
110	0xbdb75447	-0.089516215
111	0xbe49c56b	-0.19704215
112	0xbe8e7e52	-0.2783075
113	0x3ed5110f	0.41614577
114	0x3e083f8b	0.1330549
115	0xbe4edf87	-0.20202456
116	0x3b911ec7	0.004428718
117	0xbef01c51	-0.46896604
118	0x3d2873a6	0.041125916
119	0x3ea82903	0.3284379
120	0x3e015046	0.12628278
121	0x3e3e7a02	0.1860123
122	0xbee01af1	-0.43770555
123	0xbe0f39ac	-0.13986844
124	0x3eac0575	0.33597913
125	0xbed3bcdb	-0.41355023
126	0xbe5bb517	-0.21455799
127	0x3e979acb	0.29610285
128	0x3dd1b979	0.10240454
129	0x3e7a3d50	0.24437451
130	0xbecab62d	-0.39592114
131	0x3e854bc8	0.2603438
132	0xbe295683	-0.16536908
133	0x3dcbd4c5	0.09952692
134	0x3eb1414d	0.34620133
135	0xbeeb4379	-0.45949915
136	0x3e131649	0.1436397
137	0xbec4edb1	-0.38462594
138	0x3eaeed00	0.34165192
139	0x3dc1a342	0.09454967
140	0x3d3704ca	0.0446823
141	0xbe60ca0a	-0.21952072
142	0x3e754930	0.239537
143	0xbe88024a	-0.26564246
144	0x3d364432	0.04449863
145	0x3ea6842b	0.3252271
146	0xbe895968	-0.26826024
147	0xbde18046	-0.11010794
148	0x3cdf124a	0.0272304
149	0xbcc92233	-0.02455244
150	0x3dd7b528	0.105326
151	0x3ea9a366	0.33132476
152	0xbc3c72b4	-0.011501957
153	0x3e5ed6b9	0.21761598
154	0x3e7bd4b0	0.24592853
155	0xbe4fbbe3	-0.20286517
156	0x3eb8ff96	0.36132497
157	0x3ea52b54	0.3225962
158	0x3e43e597	0.1913055
159	0xbd97f0bc	-0.07418963
160	0x3ecb8749	0.39751652
161	0xbe775305	-0.24152763
162	0x3e49f17a	0.19721022
163	0x3dc1cedd	0.09463284
164	0x3e9dc34d	0.30813065
165	0xbec60f77	-0.38683674
166	0x3cd5f4c1	0.026117684
167	0xbe6ad3cb	-0.22932355
168	0x3eabcb42	0.3355351

bias f4 [13]
0	0x3cf125f6	0.029437046
1	0x3e060bb2	0.13090399
2	0x3dd3f0dc	0.10348675
3	0xbe39dccc	-0.18150634
4	0xbd05a811	-0.032630984
5	0x3dfddc8d	0.12395582
6	0x3e2c851d	0.16847654
7	0xbddd6ded	-0.10811982
8	0x3d982945	0.074297465
9	0xbe1c586b	-0.15268104
10	0xbd0b5936	-0.034020625
11	0xbcac1140	-0.02100432
12	0xbdff5e36	-0.12469141

weight f4 [169, 11]
0	0x3e1f4b5b	0.1555609
1	0x3e008286	0.1254979
2	0xbdd25c1a	-0.10271473
3	0x3db41346	0.087927386
4	0x3e277439	0.16352929
5	0xbe350152	-0.17676285
6	0x3e1b717c	0.1518001
7	0x3ca1d567	0.019755078
8	0xbccbf91e	-0.024899062
9	0x3e191093	0.14947729
10	0x3dfd1bd6	0.12358825
11	0x3d87c567	0.066294484
12	0x3e18c13e	0.14917466
13	0x3dd3b5a4	0.103373796
14	0x3da8b437	0.08237498
15	0xbe2400f8	-0.16015995
16	0xbaae855d	-0.0013314892
17	0xbe579a02	-0.21054843
18	0x3cbb1ab6	0.022839885
19	0x3c9fae2b	0.01949223
20	0xbd3dc02b	-0.046325844
21	0xbdd66761	-0.10468937
22	0xbe08d9ef	-0.13364385
23	0x3e05069c	0.12990803
24	0x3dbe1c82	0.09282781
25	0x3df74463	0.120735906
26	0xbd854f6e	-0.06509291
27	0xbd98ae9e	-0.074551806
28	0xbe0c5f50	-0.13708234
29	0x3dbe4374	0.092902094
30	0xbd93b186	-0.07211594
31	0x3d92e066	0.07171707
32	0x3e0d84a3	0.13820128
33	0xbe40c6f7	-0.18825899
34	0xbd3edd87	-0.046597984
35	0xbdd91db6	-0.1060137
36	0xbe1aaa8e	-0.15104124
37	0x3d663029	0.056198273
38	0x3d23365e	0.03984677
39	0x3e770465	0.2412277
40	0xbd8222b3	-0.063542746
41	0x3dc5fbdb	0.09667178
42	0xbe10fc86	-0.1415883
43	0xbd5b27b9	-0.05350468
44	0xbbf5f218	-0.0075056665
45	0x3e0f3c19	0.13987769
46	0x3d985cf8	0.074396074
47	0xbe0fc2c8	-0.14039147
48	0x3c02a1f6	0.007973185
49	0xbde77072	-0.11300744
50	0xbbf2cf44	-0.007409962
51	0xbe0133c0	-0.12617397
52	0xbd001c49	-0.031276975
53	0x3d9b5cbb	0.07586046
54	0xbdde4ad1	-0.10854114
55	0xbe32c0b1	-0.17456318
56	0x3d4f59fd	0.05062293
57	0x3d56ca91	0.052439276
58	0xbc857766	-0.016292285
59	0x3e2da5e3	0.16957812
60	0xbe1c624d	-0.15271874
61	0xbe2bbabf	-0.16770457
62	0xbe23a4b7	-0.15980802
63	0xbd4f0df4	-0.050550416
64	0xbda8a528	-0.08234626
65	0x3d9f394b	0.077746
66	0x3d762cb7	0.060101237
67	0x3dced777	0.100996904
68	0xbc1fe988	-0.009760268
69	0x3e33bb0d	0.17551823
70	0x3e6a0bbe	0.22856042
71	0xbe223d4c	-0.15843695
72	0xbb611cd2	-0.0034349454
73	0xbd75d074	-0.06001325
74	0x3ce17f9b	0.027526667
75	0xbd9b10cc	-0.07571563
76	0xbdc35eb5	-0.09539548
77	0x3e2d9f06	0.16955194
78	0xbe26e362	-0.16297677
79	0x3df25193	0.11831965
80	0x3d7b31aa	0.06132666
81	0x3e12d7ea	0.14340177
82	0xbd8006c3	-0.0625129
83	0x3de09c91	0.10967363
84	0x3d43f641	0.047842268
85	0x3d9ab391	0.07553781
86	0x3da79ec0	0.08184576
87	0xbdbf1aff	-0.09331321
88	0xbe02f700	-0.12789536
89	0x3e3d7124	0.18500191
90	0xbda5e6aa	-0.08100636
91	0xbe1603b3	-0.14649849
92	0x3d033186	0.03202965
93	0xbdab0f1f	-0.083524935
94	0xbc1e701b	-0.009670283
95	0xbd8cf3a3	-0.068824075
96	0x3d3b5aeb	0.045741003
97	0xbe01b059	-0.12664928
98	0xbc9df884	-0.01928354
99	0x3dadcbcc	0.08486137
100	0x3d36169c	0.044455156
101	0xbc0ffdd5	-0.008788546
102	0x3d46b87c	0.04851578
103	0xbd931ed1	-0.07183612
104	0xbba15808	-0.004923824
105	0xbd8b7b87	-0.0681067
106	0xbdcf59e0	-0.10124564
107	0x3be4d8c1	0.006983847
108	0x3e2b5451	0.16731383
109	0x3d5a4c67	0.05329552
110	0x3d130d10	0.03590113
111	0x3d6c5449	0.057697568
112	0xbd9b0b49	-0.07570512
113	0xbe28c890	-0.16482759
114	0xbe1612b2	-0.14655569
115	0xbd5e18f0	-0.054223
116	0x3df5a8c9	0.11995084
117	0xbe1c1a34	-0.1524437
118	0xbd87374b	-0.06602343
119	0x3dcdadc5	0.100429095
120	0x3e015daa	0.12633386
121	0x3d37b53c	0.044850573
122	0x3d8b585d	0.06803963
123	0x3e16151c	0.1465649
124	0x3e101461	0.14070274
125	0x3d7637c1	0.060111765
126	0xbd88681f	-0.066604845
127	0xbe52796b	-0.2055413
128	0xbd71d721	-0.059043054
129	0x3ae9ff73	0.0017852619
130	0xbd204834	-0.03913136
131	0x3c70698e	0.014673604
132	0x3d2c26f8	0.04202935
133	0x3de3d41a	0.111244395
134	0xbdc84737	-0.09779208
135	0xbe02f137	-0.12787329
136	0xbde772e4	-0.113012105
137	0xbd9bcc4b	-0.07607325
138	0x3daa3985	0.08311752
139	0xbe0d2841	-0.13784887
140	0x3ccd201a	0.025039721
141	0xbdd2a3f0	-0.10285175
142	0xbdb35876	-0.08757107
143	0x3dbbc383	0.0916815
144	0xbd2a0a71	-0.041513864
145	0x3d001770	0.03127235
146	0xbdf020cf	-0.11725008
147	0x3d30b34f	0.043139752
148	0x3d14ca6a	0.03632585
149	0x3baf15d8	0.00534318
150	0xbdcd7248	-0.10031563
151	0x3cc13469	0.023584561
152	0xbc40c612	-0.011765974
153	0xbde37b85	-0.11107544
154	0xbde7e047	-0.113220744
155	0xbd46406f	-0.048401292
156	0xbe21c91e	-0.15799376
157	0x3e11d1d7	0.14240204
158	0xbd6bd2b7	-0.057574
159	0xbd74a3b1	-0.05972642
160	0x3c9bfd1f	0.019041596
161	0x3cb537e0	0.02212137
162	0xbd821344	-0.06351331
163	0x3e00eee7	0.12591134
164	0xbe15609d	-0.14587636
165	0x3db4e1bd	0.08832119
166	0xbc991274	-0.018685557
167	0xbe13e507	-0.14442836
168	0xbd9bcbaa	-0.07607205
169	0x3d2017d2	0.039085217
170	0x3d40dc54	0.04708512
171	0x3df24235	0.11829034
172	0x3dd08cb4	0.10183087
173	0xbde9e6a3	-0.114209436
174	0xbdb3fffc	-0.087890595
175	0xbd641416	-0.055683218
176	0xbe198925	-0.14993723
177	0xbc680a7b	-0.014162655
178	0xbdd41742	-0.103559986
179	0x3d593e74	0.053038076
180	0x3e63d173	0.22247867
181	0x3d2570e0	0.04039085
182	0xbdb17625	-0.086651124
183	0xbe1ba865	-0.15200956
184	0xbd26b1c4	-0.040696874
185	0x3dc51789	0.096236296
186	0x3d5d68be	0.054054968
187	0xbc96522a	-0.018349726
188	0x3e704482	0.23463634
189	0x3da3fdff	0.0800743
190	0x3c507e8b	0.012725483
191	0xbc606711	-0.013696448
192	0x3d9a41f6	0.07532112
193	0x3daba356	0.08380763
194	0xbe0421b7	-0.12903486
195	0xbdad554e	-0.08463536
196	0x3ca6aeb6	0.02034698
197	0x3dfe20b5	0.12408582
198	0x3deb35e8	0.11484891
199	0xbdea809b	-0.11450311
200	0xbe446b70	-0.19181609
201	0x3c880adf	0.016606746
202	0xbd7fc7ea	-0.062446512
203	0x3d02de3b	0.031950217
204	0xbd9e8560	-0.07740283
205	0x3e214d37	0.15752111
206	0x3b5520c3	0.0032520748
207	0x3df67e4e	0.120358095
208	0xbe0a2360	-0.13490057
209	0x3e3742de	0.17896602
210	0x3d15b71f	0.03655159
211	0xbd9ee79a	-0.07759018
212	0x3d8173fb	0.0632095
213	0xbe560bfd	-0.2090301
214	0x3e1a7aca	0.15085903
215	0x3c0393a7	0.0080308085
216	0x3dc71e41	0.09722567
217	0x3d52be52	0.051451035
218	0x3c11b196	0.008892437
219	0x3d9d8efa	0.07693286
220	0x3d838cfd	0.06423376
221	0xbdcd61a4	-0.10028389
222	0x3de3d57b	0.111247025
223	0xbc96dee5	-0.018416831
224	0xbd0efed8	-0.034911007
225	0x3cc00b11	0.023442777
226	0x3e31f63d	0.17379089
227	0xbd812e44	-0.063076526
228	0xbda064e7	-0.078317456
229	0x3dfb82c1	0.12280799
230	0xbcf45ce5	-0.029829452
231	0x3de2112d	0.11038432
232	0xbd2eee93	-0.04270799
233	0x3d82d220	0.063877344
234	0x3e000cb3	0.12504844
235	0xbdbd031b	-0.09229108
236	0xbd8e19c4	-0.06938508
237	0x3db1de61	0.086849935
238	0x3d5466b8	0.051855773
239	0xbc846462	-0.016161148
240	0xbe21c045	-0.15796001
241	0x3e21dcd4	0.15806895
242	0xbd8af5b3	-0.06785145
243	0x3b75c129	0.0037499166
244	0xbd8afb7d	-0.06786249
245	0xbd29307c	-0.041306004
246	0x3e0b5cdd	0.13609643
247	0x3c709672	0.014684306
248	0x3e536b5c	0.20646423
249	0xbc8171df	-0.015801368
250	0xbb74cb81	-0.0037352743
251	0x3e292ec1	0.16521741
252	0x3bf3d547	0.007441196
253	0xbd3bcec5	-0.045851488
254	0x3d418a42	0.047250994
255	0x3e2c5e2e	0.16832802

weight f4 [13, 13]
0	0x3e9a483c	0.30133235
1	0xbf1de7c0	-0.6168175
2	0xbed1f041	-0.41003612
3	0x3ee6e77e	0.4509849
4	0x3eff52cd	0.4986786
5	0xbd050258	-0.03247294
6	0xbe583db1	-0.21117283
7	0x3ed09e84	0.40745938
8	0xbdac2cdc	-0.08406994
9	0x3d0d95bd	0.03456663
10	0x3f14b569	0.5808931
11	0xbe854f10	-0.26036882
12	0x3ee92162	0.45533282
13	0x3de290f9	0.110628076
14	0xbdbf132b	-0.09329828
15	0x3e107d9c	0.14110416
16	0xbc3c6b2e	-0.011500163
17	0x3dfa6554	0.12226358
18	0x3d3c5414	0.04597862
19	0xbe677e40	-0.22606754
20	0x3e230fab	0.15923946
21	0xbea3d590	-0.31998873
22	0x3a9a0a92	0.0011752418
23	0x3e1e9b37	0.15488897
24	0x3dc2ded4	0.09515157
25	0xbdce615d	-0.10077164
26	0x3e1cce93	0.15313177
27	0xbbf38f4e	-0.0074328547
28	0x3e2c35c7	0.1681739
29	0xbe7997ae	-0.24374267
30	0xbc7db779	-0.015485638
31	0xbe112693	-0.14174871
32	0xbe3145d2	-0.1731179
33	0xbcaf7c63	-0.021421617
34	0xbe77dd49	-0.24205507
35	0x3e5324b9	0.20619477
36	0xbdaf9447	-0.085732035
37	0x3d372be5	0.044719595
38	0xbe0968ed	-0.13418932
39	0x3ce1f672	0.027583335
40	0xbe5071f5	-0.20355971
41	0x3e350fd0	0.17681813
42	0x3e8d761b	0.2762917
43	0x3e6bdbf8	0.2303313
44	0xbe04fdec	-0.12987489
45	0x3dee2206	0.11627583
46	0xbe5e73b8	-0.2172383
47	0x3dab484e	0.083634004
48	0xbc7056c4	-0.014669124
49	0xbe5436bf	-0.20724009
50	0xbe56bab5	-0.2096966
51	0xbe5dc3c5	-0.21656711
52	0x3e81cef9	0.2535322
53	0xbf0014f3	-0.50031966
54	0xbefb4be5	-0.4908134
55	0x3f22e462	0.63629735
56	0x3e980728	0.2969296
57	0xbe2952e9	-0.16535534
58	0xbebc1495	-0.36734453
59	0x3efea7de	0.49737448
60	0xbe01b60d	-0.12667103
61	0x3eec5251	0.46156552
62	0x3ee80f69	0.45324257
63	0xbe79c514	-0.24391586
64	0x3f0850e3	0.53248423
65	0xbdbb0372	-0.091315165
66	0xbdd37231	-0.10324515
67	0x3def9749	0.11698777
68	0xbd8c442f	-0.068489425
69	0xbe5fc227	-0.21851407
70	0x3d7e2fc3	0.062057268
71	0xbcabebdc	-0.02098649
72	0xbe3f2f4e	-0.18670389
73	0xbd8891cf	-0.06668436
74	0xbe1c4436	-0.15260395
75	0xbdff072e	-0.12452541
76	0x3d185d68	0.037198454
77	0x3e6a5eb6	0.22887692
78	0xbdc01440	-0.093788624
79	0xbdfd9cb9	-0.12383408
80	0xbe314952	-0.17313126
81	0xbc1244ef	-0.008927568
82	0xbc9881c9	-0.018616574
83	0xbe2ef654	-0.17086154
84	0x3df532e2	0.11972596
85	0xbe76909a	-0.24078599
86	0x3e7517e5	0.23934896
87	0x3d08e2f6	0.03341957
88	0xbd743311	-0.059619013
89	0xbda6176e	-0.081099376
90	0x3debcabe	0.115132794
91	0x3e5f75fb	0.2182235
92	0xbe118397	-0.14210354
93	0xbd49b3d2	-0.049243756
94	0x3e54c153	0.20776872
95	0xbd7923d6	-0.06082519
96	0xbe55a38c	-0.2086317
97	0xbd890968	-0.06691247
98	0x3d3c1f29	0.045928154
99	0xbd987faf	-0.07446229
100	0xbe462da3	-0.19353347
101	0xbe50eede	-0.2040362
102	0x3e044083	0.12915234
103	0x3e2172b6	0.15766415
104	0x3e022b39	0.127118
105	0xbcd0608d	-0.025436664
106	0x3e00e138	0.12585914
107	0xbe71d85d	-0.23617692
108	0x3e28c9fb	0.164833
109	0x3e8475e4	0.25871193
110	0x3e2df5bf	0.16988276
111	0xbe0a253a	-0.13490763
112	0x3e7e5ff7	0.24841295
113	0xbe8984e6	-0.26859206
114	0xbc9e9ebc	-0.0193628
115	0xbdcbfff5	-0.09960929
116	0xbe938af3	-0.28816947
117	0xbd103fcd	-0.035217095
118	0xbed3aa55	-0.4134089
119	0xbe1f6d5d	-0.15569063
120	0x3e1630c7	0.14667045
121	0x3e54ad90	0.20769334
122	0xbe6823cb	-0.22669904
123	0x3d188ff4	0.03724666
124	0x3e4e0bfd	0.2012176
125	0x3d2a93b2	0.04164476
126	0x3ec0071a	0.37505418
127	0xbdb264fe	-0.08710669
128	0xbe8c643a	-0.27420217
129	0x3eb0892b	0.3447965
130	0x3eb6af1e	0.3568048
131	0xbe355f76	-0.17712197
132	0x3d6cea66	0.057840727
133	0xbe2b9787	-0.16757022
134	0x3e374e42	0.17900947
135	0x3e815338	0.25258803
136	0x3e80ef8d	0.25182763
137	0x3e0bc111	0.13647868
138	0xbc80b56e	-0.015711512
139	0x3e3a7c3a	0.18211451
140	0xbe362297	-0.17786632
141	0xbbd2e43a	-0.006435898
142	0xbe08b4bf	-0.13350199
143	0xbe04ac3b	-0.12956326
144	0xbe0facb5	-0.14030726
145	0x3df2f8e7	0.118638806
146	0xbd6de8d1	-0.05808336
147	0xbe19a48a	-0.15004173
148	0x3c6e9cb4	0.014563728
149	0x3dac9e11	0.08428586
150	0xbe38c436	-0.18043599
151	0x3e31a67e	0.17348668
152	0xbe758a1a	-0.23978463
153	0x3a212cdf	0.0006148349
154	0xbe278bbb	-0.16361897
155	0xbe8ee6bc	-0.2791041
156	0xbda50d63	-0.08059194
157	0x3e838766	0.25689238
158	0x3e9123c0	0.28347588
159	0x3d5c3e21	0.05377019
160	0x3e3c75e7	0.18404351
161	0xbda80510	-0.082040906
162	0x3e334fd7	0.17510925
163	0x3dfad9a1	0.12248541
164	0xbe591a44	-0.21201426
165	0xbe7366a4	-0.23769623
166	0x3da970c2	0.0827346
167	0x3d02c725	0.0319282
168	0xbe561d21	-0.2090955

bias f4 [13]
0	0xbeecefd9	-0.4627674
1	0x3cadcea6	0.021216702
2	0xbc306ae5	-0.010767673
3	0xbdba86f6	-0.09107773
4	0xbef1bfd5	-0.4721667
5	0x3e88cf89	0.26720837
6	0xbe6d15ab	-0.23152797
7	0x3d6f77e3	0.058463942
8	0x3d942a8d	0.072346784
9	0xbe3ef009	-0.18646254
10	0x3e34f9d5	0.17673428
11	0xbb6e9fbf	-0.0036411134
12	0xbd81619d	-0.063174464
